result/models/2024-08-14/fixed_best.pth (torch, 70571 bytes, 11 tensors)

weight_ih_l0 f4 [200, 12]
00000000: b8d7 9b3e 20e3 b9bd 9200 dfbd 303e 883d
00000010: 2356 c0bd e4d1 a23e d852 50be 0273 f6bd
00000020: 1799 18be 04e2 b9be 8c14 b2be 2871 883e
00000030: 7ce4 bf3d f641 6fbe 47ce f63a a3b3 5b3d
00000040: a351 bebd 68ca 6bbe 944f 29bd 0cba 0abd
00000050: ec86 dfbd d2f1 72be e16d c83d c6cc 48be
00000060: 6ef8 dd3e 2126 b4be e7b9 43bd 8e01 9a3d
00000070: a717 5fbe 7dca 8abe 8d24 cdbe 18e1 703e
00000080: b3f2 663e 9429 c53d 3fb8 363e 2571 0abe
00000090: 1107 9f3e 6a42 c3be 8109 cbbe b58b 263d
000000a0: 8f56 7e3c 04d2 15be ed7f ddbe 0fb6 d53c
000000b0: a403 1ebe 3aa5 593e 6da1 08be 6d83 59be
000000c0: eae2 f03e 505f ebbe 9b34 2cbf e5ab ea3d
000000d0: ef29 93be 21ae 87be 6551 c0bd 8377 ab3d
000000e0: a898 963c 9f23 d9bc 1f3c f1bb 193c 743e
000000f0: aebe d03c 25b1 a6bd eae9 25be dcd1 adbd
00000100: 31a2 7cbe b33f a8be a386 a1bd f006 e8bd
00000110: 43fb d7bd e479 213e be6c a1bd 8440 5c3e
00000120: 81c0 713d 3d61 243c b91e e1bd 5f81 b7bd
00000130: 0629 a33d ad33 c23d b6b8 6c3e c41f 353d
00000140: c403 8fbb e70a 143f f17f 17be 6020 82be
00000150: 4bb5 ddbd ff54 a9bd 6dcd 99bc 85ce 3b3d
00000160: aac9 90bd 7a97 fbbb 1127 893d dcef 393e
00000170: 85bd 543e 6797 3fbe 6db9 81be f0e7 febb
00000180: 2fc5 dc3e 361c f6bd e3d0 a7bd ca36 923c
00000190: efb8 b03b 83dc a5bc f6f7 ebbd 4180 17bd
000001a0: 9e5e 60bd a262 223e 7caf 31be 8df4 1a3e
000001b0: 9a90 c1bb b998 223d 104a d03e c60a 46bd
000001c0: 44b5 85be 6f24 d13d c73f e8bd 6108 3c3e
000001d0: 669a 97bd c7ac e7be ba4b d93d e8e0 7e3e
000001e0: 095f 19bf d5f1 8abd 9f2b 0b3e 25cb d9bd
000001f0: 0fcb 9ebd 5f49 a13d f6b5 a1bc 91d1 06bd
00000200: f476 cb3d 60a2 76be 1998 fdbd efd6 95bd
00000210: 035a 163e 2b3f 93bd e732 713b 27b3 1e3e
00000220: a8d5 7abc 75c5 e8bc c165 213d 6955 b83c
00000230: d57e 87bd 1032 9a3f ea22 823e 14ad c0be
00000240: 93c7 0cbf 8dec 663e 7e2a 2a3e 8fd3 973c
00000250: 77ea 753e 7589 603e 98ca 9e3e 73ed d63c
00000260: 5653 933d f2b1 643e d52f 44bd 501f b2bc
00000270: 2f40 c03e 3278 6ebe 4e85 e1bd 3395 c9bd
00000280: 7d01 af3d 97dd 99be 6dc4 92bd 81ef 95bd
00000290: 4d34 393e daf7 fabe bb86 cdbd 8eaa adbe
000002a0: 0350 39be 838e a5bd 7c78 303d 8b29 113e
000002b0: 9434 14bc 6666 5d39 a332 363d a93e 8f3b
000002c0: a0aa 96bd c8c9 053f a8cf 86be b481 41bf
000002d0: 13f6 8dbe fb64 b1bd 81b7 3bbe 8fc9 5ebd
000002e0: 8acc 0cbe ec6c 05be 06f8 9dbe 0178 053e
000002f0: d984 783d a199 b93e fc98 06be 2d92 c3be
00000300: a048 a4bd a207 4e3e 02b3 183d edce 1cbe
00000310: 1b91 f73d 81c8 af3e 1276 13bc 78cc df3d
00000320: 409d 32be d507 a83e 2ea9 b6bd 6450 7bbd
00000330: d3ed 323e cbed 443e d272 3e3d ad93 fdbd
00000340: 9a8a 3c3e 54c1 e93d e2a6 9c3d 1e07 c23d
00000350: d63a 8bbd 07c4 813e 8afa aa3e 67f1 26be
00000360: eada 333e 7d42 4dbe 8caa 3abd 265d b93d
00000370: 7c28 b2bd 9ca5 e5bd 135c 40be a997 033e
00000380: e18c 573d 3f8d 8dbe 5695 2dbe d7b6 debc
00000390: ee69 593e 5d26 f5bd f742 413d 4f3d a0bd
000003a0: 55f7 303e b4d9 a63e 698e f83d 90a0 783d
000003b0: b5ce 3bbd e1ee 863e bb5a f5bb 5ffc 9f3d
000003c0: 779a ebbb e54a 6dbd 1897 98bd 6fdb 223e
000003d0: d1f4 8abe 6b0a 32be c832 97be edb2 b43d
000003e0: 7e2a e1bd 520a 203e 3cd2 083e ab31 cabd
000003f0: 187e 33be 6b9d 853d 9592 f03c 502f d3bd
0.30438018 -0.09076524 -0.10888781 0.06652486 -0.09391429 0.3180076 -0.20344102 -0.12033655
-0.14902149 -0.3630525 -0.347813 0.2664883 0.09369752 -0.23365006 0.0018829786 0.05363811
-0.09292915 -0.2302643 -0.041335657 -0.033868834 -0.10914406 -0.2372506 0.09786583 -0.19609365
0.433536 -0.3518534 -0.047784712 0.07519828 -0.21786366 -0.2710761 -0.4006695 0.23523366
0.2255352 0.09627071 0.17843722 -0.13519724 0.3106008 -0.38136607 -0.39655688 0.04066058
0.015523567 -0.14630896 -0.43261662 0.026087789 -0.15431076 0.21254435 -0.13342829 -0.21241541
0.47048122 -0.45971155 -0.6726777 0.114585675 -0.2874293 -0.26500037 -0.09390525 0.083724044
0.018383339 -0.026506243 -0.0073619033 0.2385105 0.025481548 -0.081392564 -0.16202512 -0.08487293
-0.24671246 -0.328611 -0.07887008 -0.11329448 -0.10545971 0.15769154 -0.07882069 0.21508986
0.059021477 0.010032949 -0.10992188 -0.089602225 0.07966809 0.094825126 0.23117337 0.044219747
-0.0043644626 0.57829136 -0.147949 -0.25415325 -0.108255945 -0.08268165 -0.018774712 0.04585125
-0.07069714 -0.0076779695 0.066969045 0.18157905 0.20775421 -0.18710099 -0.2533678 -0.007779114
0.4311919 -0.120170996 -0.08194139 0.017848391 0.0053931396 -0.02024675 -0.11521904 -0.036987547
-0.054777734 0.15857938 -0.17352098 0.15132351 -0.0059071304 0.03969643 0.40681505 -0.048350118
-0.26114857 0.10212027 -0.113402896 0.18362571 -0.07402496 -0.45249006 0.10610147 0.24890482
-0.5991064 -0.06784407 0.13590859 -0.1063445 -0.07753574 0.078753226 -0.019740086 -0.0329147
0.09934798 -0.24085379 -0.12382526 -0.07316386 0.14682774 -0.07189783 0.0036804022 0.15498029
-0.015309729 -0.028414467 0.03940368 0.022501664 -0.06615988 1.2046528 0.25417262 -0.37632048
-0.54992026 0.22551174 0.16617772 0.018533496 0.24015222 0.21927436 0.31013942 0.026236271
0.071936294 0.22333506 -0.04789718 -0.021743447 0.37548968 -0.23288038 -0.11011754 -0.098429106
0.08545206 -0.30051872 -0.071663715 -0.07321072 0.18086357 -0.4901722 -0.100354634 -0.33919185
-0.18096928 -0.080838226 0.043083653 0.14176004 -0.009045739 0.00021114349 0.044481885 0.0043714833
-0.07356763 0.5226102 -0.26330304 -0.75588536 -0.27726802 -0.086618386 -0.1833172 -0.05439144
-0.137499 -0.13029832 -0.3085329 0.13034059 0.06067357 0.36250022 -0.13144296 -0.3819746
-0.080216646 0.20120099 0.03728009 -0.15313311 0.120882235 0.3433266 -0.009000318 0.10927671
-0.17442799 0.32818475 -0.08918987 -0.061355963 0.17473535 0.19231336 0.04649622 -0.123816825
0.18412247 0.114138275 0.07649018 0.09474014 -0.067983314 0.2534487 0.3339427 -0.16303025
0.17563978 -0.20044895 -0.045572802 0.0905097 -0.08699128 -0.11213228 -0.18785124 0.12850823
0.052624587 -0.27646825 -0.16951498 -0.027186794 0.21231815 -0.11970208 0.047183003 -0.07824194
0.1728185 0.3258797 0.121365376 0.0607 -0.045851428 0.26354125 -0.0074876226 0.07811808
-0.0071900445 -0.057932753 -0.07450694 0.1590402 -0.27139905 -0.17386787 -0.2953093 0.0882319
-0.10994433 0.15628937 0.13361448 -0.09872755 -0.1752857 0.06524166 0.02936677 -0.103117585

weight_hh_l0 f4 [200, 50]
00000000: 491d e33c 4abf a43c c0ac 83be 02d7 533e
00000010: 827e ba3e 5f41 27bd 270e 4d3d 3e80 81be
00000020: 6da5 08bd ce27 cdbc a592 2e3e e419 26be
00000030: 9054 6bbe 59a4 9fbd 110c 793d d75e 42bd
00000040: a99d f3bd 1f3c ce3c 69a0 5bbd 358b 173e
00000050: d39f ab3c 294e 9e3d 4786 183d a326 b6bd
00000060: 1d69 1a3e 5ffd 4ebe 1c55 af3d 8e0b d0bd
00000070: 2acb 233e c251 223e b861 88bc e4ee e53c
00000080: f5b1 02be 340e c23d bcae a1ba 8d53 68be
00000090: 1cdc 4a3d 7148 723d ce3a 7d3e 3afa 953d
000000a0: b6b2 003e b526 593d c01f 6d3e c4d3 0b3e
000000b0: 347d 6b3c 7c14 973c 7a19 33bb dc0b 59be
000000c0: 8f7d e8bd c810 49bc 24de 30be ba5d 0e3e
000000d0: 22ee a33c e8a4 1bbe fdb1 903d 5d73 7b3c
000000e0: 4f36 31bd e594 c6bd 2701 66bd 872d 57bd
000000f0: a944 c1bd 797d 023e f282 933d f680 583d
00000100: 27bc faba 8dfb 79be 2d83 debd b0e0 0b3e
00000110: 7eaf 8abd b3bb 10be c202 0ebd d6dc 0ebe
00000120: 7749 8f3d 137c 96bd f4a1 943c dab2 033e
00000130: dd6b 403e 86f9 dd3c 4a89 703e 1920 d03d
00000140: 4e31 663e 1c31 fa3c 0ce5 29be c426 943d
00000150: 314c 203e cbfb ffbd d997 93bd c09b fbbb
00000160: 4179 0b3d 91c7 83bd 54d0 3cbe b72b 873d
00000170: 46a4 443e 230a 363e 4814 fd3d ce44 a83d
00000180: 841f 003e fc6f 13bc e61d 05be 56e5 a93d
00000190: a4b0 533c f348 dc3d 621e a03d 0c4b e9be
000001a0: bdc0 943e bf91 5cbe 33c9 5dbc 2c78 d63d
000001b0: 275f 6b3c 676e d03d a2b4 913d 69e2 b5bd
000001c0: 0bb4 1d3e 2d82 863c 14e7 493e 6c93 46be
000001d0: 2740 f63d 8a34 903d 5f8a 323e 2c85 003e
000001e0: 526b e1bd 05d6 963e 996e 9d3e c8b0 133e
000001f0: 8084 09bf 047c 0a3e 82ad 153d 47e2 d73d
00000200: 903e 0ebe 3ff6 7cbb bba3 fc3d cb4b a5be
00000210: 2a2c 1abe 56af 9d3e 2ca8 123e 643e 923c
00000220: a2a7 dcbd 8634 143e c487 8ebe 8b2e 273e
00000230: a130 64bd 1d82 c33d 562c e53d 210a 1b3e
00000240: a3ec cb3e e222 b13e ddd7 2d3e b738 90bd
00000250: 693b 32be 906c c43d bd33 c43d 3078 8e3d
00000260: 97b9 25bc ac18 83bd 706a 5f3e 2f89 b8bd
00000270: aace 4bbd 394a 863d 3ee3 63bd a768 ecbd
00000280: 8627 713d a47a d53d 6814 12be d014 a13d
00000290: 299e 78be eed3 823c 1fa8 05bb 5c0d 90be
000002a0: ba85 6fbd adee 103d b1d2 36bd 555e bf3e
000002b0: 76cf fa3d 03a0 3abe 2f97 b4bd e120 4a3d
000002c0: 490d 6cbe 5eb7 1cbe 83ed ecbd 6226 f7bc
000002d0: 0c22 63be f784 9c3c 871c 963b a139 3c3d
000002e0: 8b49 abbd f20a b03c 0397 443e c1a5 d13a
000002f0: 24ff 0abe e662 debd 5209 463d 8cd5 df3c
00000300: e842 8abd 50b8 963e 2bce 043e 8dac fa3d
00000310: 111f 803e 17a5 993e 4258 5cbd 5a65 3cbe
00000320: a0ab 24be 06aa 15be 53d6 c1bd 9e47 96be
00000330: e725 a7be 0c5f 913d d198 c93d e119 3abe
00000340: 6e51 b4bd 1546 733b 8173 c7bd 9836 64bd
00000350: cc20 f83d d13f bd3d ca84 afbd 91c4 bbbd
00000360: bf17 09bf 823e 063e 3775 44be 8db6 603e
00000370: 8106 04be abcc 263e 9ba3 3dbe 5880 0dbe
00000380: 24c9 c83c 8f43 97bb 6163 00bd 72a6 43be
00000390: 91c8 cdbe aee9 8c3c 811a 90bd f22a 7a3d
000003a0: d2b6 34be 6b2a cc3d d4be 453e c95e ba3c
000003b0: d6f5 67bc a301 b2ba bb11 e13d 1eef 0b3e
000003c0: 247e 1dbe 542c fbbc 532d 7d3e 94ec 7b3e
000003d0: df9e 06be 9611 2bbd 82e1 31bd b974 bf3d
000003e0: e3f5 a2bc cce8 5c3d 3cc8 a7bb ba52 653e
000003f0: e1b2 72bd cf03 7dbe 1803 843e ebe1 31be
0.027723925 0.020110745 -0.25717735 0.20687488 0.36424643 -0.040833827 0.050062325 -0.25293154
-0.033360887 -0.025043394 0.17048128 -0.16220814 -0.22981477 -0.07795019 0.060802523 -0.047453728
-0.11895306 0.025175152 -0.053619776 0.14799197 0.020950234 0.077297516 0.03723743 -0.08894088
0.1507916 -0.20213841 0.08561155 -0.10158454 0.1599547 0.158515 -0.016648158 0.028068013
-0.12763198 0.09475365 -0.00123354 -0.22688122 0.04952632 0.059151117 0.24729463 0.073231176
0.12568173 0.05301543 0.23156643 0.13655001 0.0143731125 0.018442385 -0.0027328418 -0.2119593
-0.113520734 -0.012272067 -0.1727224 0.13902941 0.020011012 -0.15199625 0.070651986 0.015347329
-0.043264683 -0.09696368 -0.056153443 -0.052533653 -0.09436924 0.12743177 0.0720271 0.05285736
-0.001912956 -0.24412365 -0.108648635 0.1365993 -0.06771754 -0.14134102 -0.0346706 -0.1395143
0.06996434 -0.07347884 0.018143632 0.12861195 0.18791147 0.027096521 0.23489872 0.10162372
0.22479746 0.030540995 -0.1659128 0.072339565 0.15654065 -0.124991976 -0.07206697 -0.007678479
0.034051184 -0.06434549 -0.18438846 0.06600135 0.1920329 0.17777304 0.12357384 0.082162485
0.12512022 -0.008998867 -0.12999687 0.082956955 0.012920532 0.107561015 0.07818295 -0.4556507
0.29053298 -0.21539973 -0.013536739 0.1047214 0.014365948 0.101773076 0.07114531 -0.08881075
0.15400712 0.016419495 0.19717056 -0.19392174 0.12023955 0.07041271 0.17435597 0.12550801
-0.11006798 0.2946016 0.30748442 0.14422905 -0.53717804 0.1352387 0.036542423 0.10541206
-0.13891053 -0.0038598923 0.123359166 -0.32284388 -0.1505591 0.30797833 0.14321965 0.017852016
-0.10774161 0.14473161 -0.27837956 0.16326348 -0.05571044 0.095463015 0.11190097 0.15140583
0.39828977 0.34596926 0.16976877 -0.070420675 -0.17405476 0.09591019 0.09580181 0.06956518
-0.010115049 -0.0640119 0.21817946 -0.09010541 -0.049757637 0.065571256 -0.055636637 -0.11543398
0.058875583 0.104237825 -0.14265597 0.07865298 -0.24279083 0.015970197 -0.0020394397 -0.28135192
-0.05847714 0.03538387 -0.044634525 0.37376657 0.12246601 -0.18225102 -0.088178985 0.049347762
-0.23051943 -0.15304324 -0.11568739 -0.03016967 -0.22180957 0.019106371 0.0045810374 0.045953397
-0.083636366 0.021489594 0.19198231 0.0015994833 -0.13573891 -0.10858707 0.048348732 0.027323507
-0.067510426 0.29437494 0.12969272 0.12239943 0.25023702 0.30008766 -0.053795107 -0.18398038
-0.16081095 -0.1461564 -0.09464707 -0.29351515 -0.32646105 0.07098207 0.098436005 -0.18173935
-0.08804594 0.003712063 -0.097388275 -0.055716127 0.121156305 0.09240688 -0.085702494 -0.091683514
-0.5355186 0.13109782 -0.19185339 0.21944638 -0.12893106 0.16289012 -0.18519442 -0.1381849
0.024509974 -0.004616208 -0.031344775 -0.19106463 -0.40192083 0.01720127 -0.07036305 0.061076112
-0.17647865 0.09969028 0.19311076 0.022750275 -0.014157733 -0.001358081 0.1098971 0.13665435
-0.1538015 -0.030660786 0.24724321 0.24601966 -0.13146542 -0.041764818 -0.04342795 0.09348435
-0.019892639 0.05393295 -0.0051203053 0.22394839 -0.059252623 -0.24708484 0.2578361 -0.17371337

bias_ih_l0 f4 [200]
00000000: e21c 17be 5e5f 173e 211a 0b3e 4a19 b0bc
00000010: 3177 a03e 1176 abbd 4444 293e 0bae 42bd
00000020: 1489 9abc 20a8 253d dca9 9f3e c9c3 6d3c
00000030: ac4c 863e 2a46 313e 52ad 1c3e b5b8 10be
00000040: 0e61 673d fa73 d23d 7ae0 aa3d 26ce febc
00000050: 9f92 d23d c030 f83d fe77 7d3e 02fe c8bd
00000060: 1c79 bd3d 9f8a 38be faac 423e 03ad 4e3d
00000070: 17c3 9f3d f523 823e dfd5 3a3e 051e 343d
00000080: 58d3 603e b044 013e 78e6 183e e166 8abd
00000090: e39e b93d 6de6 c43d 1231 7bbe e3fa 883d
000000a0: cbab 973e 6fb4 2d3e f063 6fbd 27bb 143e
000000b0: 6a58 3c3e fa0e 5fbe 3639 913d 96f9 973e
000000c0: d91a 933d 07f6 05be 13b0 383e 3421 8fbd
000000d0: 6cc6 0d3e 0ac8 fcbc a306 cbbd 01f4 80bb
000000e0: 062c 0fbe 0e18 c13d f3df 073e 5e10 fcbd
000000f0: d370 7cbe 44e9 08be f590 48bd 5fe4 173d
00000100: bbef 5ebe 8eed f8bb 8639 0a3d 668d b83c
00000110: 71d5 40be 1a40 483d f41b 11bd 2ba2 77bd
00000120: 1913 32be 87d8 563e adc9 18be 21e2 f3bd
00000130: 4ffe 5fbe 742c 373d 3001 99bb b2bf 13be
00000140: e081 debd dd8d 293e 1a8e 7e3d 863b d2bd
00000150: 5be0 3bbe 55b0 48be 9a64 edbd 9a67 87be
00000160: 3411 4c3e 72aa 143b 8a39 05bf fcce 67bd
00000170: 01ef 0d39 ffb3 173c ef88 abbe e0d0 c93c
00000180: 8707 42bd eb76 a9be 94c4 20bd 090b 253c
00000190: 4d16 53bd ff3b e3bd 8989 b63d 51e6 be3c
000001a0: fc60 f3bd e3d6 f0bc 69df a93d fd4e cfbd
000001b0: da14 c5bd 8a2b 01bd 381b fbbd cf99 403e
000001c0: b269 f2bc f4a8 4abd ab4b b4bd 210a d53d
000001d0: 9607 053e b9d6 27be 2abf f3bd f795 53bd
000001e0: 5e6d fe3d aaab 3dbe 9531 04be 4a98 7b3d
000001f0: 6ac2 df3c abd4 b5bc caa3 52bd f1f4 0a3e
00000200: 97e5 3c3c ee3b 50be d9e9 833d d41b c63d
00000210: 8678 223c 1392 033e a16e f3bd 5162 033e
00000220: 7e29 b9bd 4492 41be cfb5 22be 4cc1 aebd
00000230: be3d c03d e62c db3c 6ea3 0ebc f93b ba3d
00000240: 4ef3 ba3d 6616 0f3d 7741 ef3c ace7 23bd
00000250: 36ee 83bd e1b7 083e 6219 a53c 264f 113e
00000260: e8c6 b13d 7dfe 003e bfab a23e 051c 43bc
00000270: 9f6d e23d bf4b 603e c4ea 243e 4e5b 673e
00000280: 8968 d03d 14b9 203e e1b0 813d b7ed 053e
00000290: 3acf cfbd 2ba4 3e3d 7a1c 8c3e 2d97 143e
000002a0: 5811 773e c09a 90bc ef15 c73d 650d 2a3e
000002b0: 9334 513e 240e 353e cde1 a33e fb6f 8ebd
000002c0: 507b 913e bafe 453e d368 553e 8286 e43d
000002d0: efc2 923e b8fb 753e 3871 913e 7336 5a3d
000002e0: 6915 39bd 3a9f 113c ed9c 213e 9e68 fa3d
000002f0: 0d5c 3fbc d0f9 833d 8e46 743e 4c81 b13d
00000300: 571c 2a3d 88ee 273e d8ba c33e 8693 1ebd
00000310: 33e7 493e acce db3d 3c9f 5e3d 2c84 e63d
-0.14757112 0.14782473 0.13584186 -0.021496434 0.31340936 -0.08372129 0.16529948 -0.04752926
-0.018864192 0.04044354 0.3118428 0.014512011 0.2623037 0.17311922 0.15300491 -0.1413296
0.056489043 0.10276027 0.08343597 -0.031104159 0.10281872 0.12118673 0.24752805 -0.09814073
0.092516154 -0.1802163 0.19011298 0.050457966 0.07800882 0.25418058 0.18245648 0.04397394
0.21955621 0.12623858 0.14931667 -0.06757904 0.09063508 0.09614263 -0.24530438 0.06688478
0.29623255 0.16963361 -0.058444917 0.14524518 0.18393102 -0.21783057 0.0709099 0.29682606
0.07182855 -0.13082133 0.18035917 -0.06988755 0.13845223 -0.030857105 -0.09913375 -0.0039353375
-0.13981637 0.09428416 0.13269024 -0.12307809 -0.24652414 -0.13370234 -0.048966367 0.037083026
-0.21771137 -0.007596678 0.033746265 0.022528362 -0.18831421 0.048889257 -0.03542705 -0.06045739
-0.17390098 0.20981036 -0.14920683 -0.11908365 -0.21874355 0.04472013 -0.004669331 -0.14428595
-0.108646154 0.16558023 0.062147237 -0.102652594 -0.18347304 -0.19598515 -0.11591454 -0.2644623
0.19928437 0.00226846 -0.5204092 -0.05659388 0.00013535844 0.009259223 -0.3350291 0.024635732
-0.04737046 -0.3309854 -0.03924997 0.010073432 -0.05153494 -0.11095428 0.089129515 0.023303183
-0.11883733 -0.029399341 0.08294565 -0.10122488 -0.09623118 -0.031535663 -0.12261051 0.18808673
-0.029591415 -0.049477533 -0.08803495 0.104023226 0.12991175 -0.16390504 -0.11901696 -0.05165669
0.12423204 -0.18522516 -0.12909539 0.06142453 0.027314384 -0.022196135 -0.051425733 0.1357
0.011529348 -0.20335361 0.06441087 0.096732765 0.00991643 0.12848692 -0.11886335 0.12830473
-0.09041117 -0.18903452 -0.15889667 -0.08532962 0.093867764 0.026754808 -0.008705957 0.0909347
0.09128438 0.03493347 0.02920602 -0.04001586 -0.064419195 0.13351394 0.020153705 0.14190349
0.086805165 0.1259708 0.31771657 -0.011908536 0.11056065 0.21903895 0.16105181 0.22593424
0.101761885 0.15695602 0.06332565 0.13078962 -0.10146947 0.04654328 0.27365476 0.14510794
0.2412771 -0.017651916 0.097209804 0.16606672 0.20430212 0.17681175 0.3200821 -0.06954952
0.28414392 0.19335452 0.20840769 0.11158468 0.28664348 0.24021804 0.28406692 0.053274583
-0.045186434 0.00888806 0.15782519 0.122269854 -0.011679661 0.06444132 0.2385504 0.086672395
0.041530933 0.16399586 0.38228488 -0.038714908 0.19717102 0.10732779 0.054351076 0.112556785

bias_hh_l0 f4 [200]
00000000: 764e 71bd dcab 043d cffe 2c3e 0497 203d
00000010: 45dd 933e 35fb 4bbe 3031 823e 379f 1e3b
00000020: 9f65 a1bd 647c dcbc b1b8 303e 5c49 8e3d
00000030: b459 923e 7c9f f43d 314e b83d 5f96 0dbc
00000040: bdd9 ca3b d138 88bc 1e9c 493e b177 a9bd
00000050: f3c7 50bd 26d2 203e 0ae5 513e e18d 98bc
00000060: b341 263e 2c6c 6a3d ceff 843d 7162 78bd
00000070: fa80 3b3e ebc2 643e 164f 0c3e 993a 003d
00000080: 0f2b 193e 304b 213d f574 4bbd 75f8 833d
00000090: 22b7 2c3b baa8 7a3d 9465 b8bd a5df b13d
000000a0: 0de0 aa3e 5bc5 2a3d 6b99 773c dc60 913e
000000b0: f70f a93e 9f90 87be 9a40 e33d 65f3 393e
000000c0: 441a 6f3e 3f91 dfbc 28bb 6f3e b9c9 65be
000000d0: 1b28 603e 59a0 503e 8fe4 de3d 264d f4bc
000000e0: b5f8 7abe fe07 143e 0993 823e cd83 35be
000000f0: 0038 08be 5f1f 0dbe 7852 aabd 7b12 b33d
00000100: 9ef0 23be b421 0abb 2581 f43d 33a3 92bd
00000110: 054e 94bd aa95 8cbd 37c6 b43d bdc4 25be
00000120: e7ed 9ebd d3da d83d 29f6 763d 1230 1c3c
00000130: c912 b8be 2ce1 d0bc f34f a83d 6b38 98bd
00000140: c1f4 92be 5c78 ce3c 9f48 60bd 0960 c1bc
00000150: e585 97bd 3f42 053d c0a0 2fbd 207f 93be
00000160: 8d9a 263e 4161 3fbe 5c7e c0be ddc1 0bbe
00000170: 7194 10bd 93e1 87bd f585 05be 9bbd 9c3d
00000180: 7d7f 1e3e 058e 18be 5b69 53bd bbe0 9bbd
00000190: 3f9e f9bb ea10 a9bd 013a 0f3e beed 3cbe
000001a0: 4bd3 e5bd 9098 1e3e 0d15 98bd a0dc e5bd
000001b0: a655 ce3d e8e3 ea3d ab43 dcbd adb4 8c3e
000001c0: 95eb 5fbc 6ffe 1b3d dd72 3bbe 9163 1f3d
000001d0: afb9 c1bc 534e 6dbe 2648 02be 4365 adbd
000001e0: dfd6 ff3d fe1b f4bd e05c 34be bf10 e63d
000001f0: e542 31bd b9e4 61bd 6c7c c3bc 1db2 633d
00000200: 4724 cfbc 7ba8 a2bd beca babd 7415 efbd
00000210: a08b 933d 3ad3 6abc 32a6 fabc 317b 6cbd
00000220: f2b8 b53d 289f 1cbe f80f 43bd e8ce e23d
00000230: 9a7b 30bd 5f60 c0bd cf12 b0bd 8fb6 cbbd
00000240: 48df bbbd 48a6 03be 9395 84bd 539c 9dbd
00000250: a491 2f3e b14f 093b fcb9 543e 2e06 543d
00000260: ad4c 3f3e 94b2 733e 9fcd 323e 2e82 e03d
00000270: 37e6 393b 4476 d9bc 82df d53d dee1 71bb
00000280: 4b0f da3d 0af9 c93d 8c12 493e a3e6 9e3e
00000290: 5abd 093d 7c52 a8bd a6f3 033e 7f1d 223e
000002a0: 8f85 d93d 73aa 6a3e 0961 5c3d 89d1 873e
000002b0: bad1 a83e 7add 873d d7fc 943e 5860 11bd
000002c0: 944b 4e3e ab0f 5e3e 5103 603e cfbd d63d
000002d0: c130 cb3e 1b47 413d f21d fb3c f73d 633d
000002e0: 9c85 a83c d672 95bd 7f78 4d3e 1afe 423e
000002f0: 0054 dabb b65a 4ebd 3e3d 783e 5bff bcbb
00000300: a6c9 693d f9b0 8e3e dff9 013e 037f 58bd
00000310: 79b6 ac3d 38fd d93d 7982 003e 51a3 d23d
-0.058912717 0.03239046 0.16894077 0.03920652 0.28879753 -0.19920047 0.25428152 0.0024203786
-0.07880711 -0.026914783 0.17257954 0.06947586 0.28584063 0.11944482 0.08999289 -0.008641808
0.006190507 -0.016628655 0.1968846 -0.082747824 -0.050971936 0.15705165 0.20497528 -0.01862234
0.16236 0.057232067 0.06494103 -0.060640756 0.1831092 0.2233998 0.13702044 0.031305883
0.14957832 0.039378345 -0.049672086 0.06443874 0.0026354273 0.061196066 -0.090037495 0.08685235
0.33374062 0.04169212 0.015112261 0.2839421 0.33019993 -0.26477525 0.11096306 0.18159254
0.23349863 -0.027290938 0.23411238 -0.22440232 0.21890299 0.20373668 0.10883438 -0.029821943
-0.24508937 0.14456174 0.25502804 -0.1772606 -0.13302612 -0.13781498 -0.08316511 0.08743759
-0.16009757 -0.0021077218 0.11938695 -0.07160034 -0.072414435 -0.06864484 0.08826869 -0.16188331
-0.0776022 0.105886124 0.06029335 0.009532945 -0.35951832 -0.025497995 0.08218374 -0.07432636
-0.28702357 0.025203876 -0.054756757 -0.023605363 -0.07398585 0.03253388 -0.042877913 -0.28807926
0.16269894 -0.18689443 -0.37596405 -0.13648172 -0.035297815 -0.06634822 -0.13039382 0.07653352
0.1547832 -0.14897926 -0.051614147 -0.07611223 -0.0076177414 -0.08255179 0.1398697 -0.18450066
-0.112219416 0.15487885 -0.0742589 -0.112237215 0.1007493 0.11469251 -0.10755094 0.27481595
-0.013667007 0.038084444 -0.18305536 0.038913313 -0.023648111 -0.2317441 -0.12722835 -0.0846658
0.12492155 -0.119194016 -0.17613554 0.11233663 -0.043276686 -0.055149768 -0.02386304 0.055589784
-0.025285853 -0.07942291 -0.09120701 -0.11674014 0.07204366 -0.014332587 -0.030596826 -0.057734672
0.08873166 -0.15295088 -0.04762265 0.110746205 -0.043086626 -0.09393381 -0.085973375 -0.0994693
-0.09173447 -0.128564 -0.064738415 -0.07695832 0.17145401 0.002095204 0.20774072 0.051763706
0.18681593 0.23798591 0.1746125 0.1096233 0.0028365979 -0.026545651 0.10443021 -0.003690831
0.10647448 0.098619536 0.19635981 0.31035337 0.033627845 -0.08218858 0.12885913 0.15831564
0.106211774 0.22916584 0.053803477 0.2652705 0.3297251 0.0663404 0.29099151 -0.03549227
0.20146018 0.21685664 0.21876265 0.10485422 0.39685634 0.047186952 0.030653927 0.055479016
0.020571522 -0.07297294 0.20065497 0.19042245 -0.0066628456 -0.050379477 0.24242112 -0.0057677454
0.057077073 0.27869394 0.12692975 -0.052855503 0.084332414 0.10644001 0.12549771 0.102850564

weight f4 [50, 50]
00000000: 2655 533e d06d 033e 354f a7be 70c4 ba3d
00000010: 50ae f73b 555a 193e 856d 173b be87 17be
00000020: 6bfb 64be ea38 c4bd 722c 64bc d636 a5bd
00000030: 58ae 353e cd23 d3bd 3c53 3f3d 40ad 093e
00000040: fb57 2c3d bff4 9abe 733b 59be a5bf b03d
00000050: 72de 02be cb40 c63c 6b16 7dbe 5554 6abe
00000060: 9d3a c13d 73bc 43be b7a2 403d 1b5a 90be
00000070: b56d 7fbd 7bba 3b3e 5751 a8be 83ee 3c3e
00000080: 5e1d 6a3d df35 1abe 154e 6dbe 3b2f 2b3e
00000090: 1bcb 6a3e c97b 7f3d 2dac 973e b74d ff3d
000000a0: 2221 2a3e 9099 52bb 34e5 963e 1b10 933d
000000b0: 227d 8c3d 96fd 3bbe c6da a0be b804 50bd
000000c0: dfe3 543e 5715 56be e40f 0a3e 998a a33c
000000d0: 3ef6 eb3d e61b 5bbd 77e7 573c 90ab a0bd
000000e0: f95f 883d 1a5a e13c 67a7 833d b8a0 22be
000000f0: 6151 0fbe 8ca8 6cbe e444 ca3d 4f40 643e
00000100: b369 a2be 67bf e0bc 064c 0cbe 7bd2 e13a
00000110: 1077 7e3d 0169 4cbe 92d3 07be 8bb4 50bb
00000120: c385 1dba 876d 39be 60fd 9d3e 3fbb 663d
00000130: cf52 45ba aa8f 61be a78d 70be eb97 cbbd
00000140: c742 0ebc e3d1 14bc b726 80bc 6de2 d8bd
00000150: c4ae 7c3d 30ef 80bd e1c9 063d 6da4 133e
00000160: f5b2 0a3e 4265 89bd 3284 533d 0f02 81bd
00000170: d753 36be 197b 883e 1543 c8be 9ee7 e23c
00000180: 0485 6bbe 0dd9 343e 63d6 253d a834 cfbd
00000190: 87a1 9c3e 7356 a6bd da3b e3bd 4834 c23e
000001a0: e440 93bd 64dd a23d b685 88bd 3fe7 99be
000001b0: e9ea 99be 6cdc 6c3e d102 febd 55c9 ad3d
000001c0: ece2 a13d c9b1 80be 7047 ec3d 9d81 633e
000001d0: d988 863e 94f7 afbe e786 183d 347f 90be
000001e0: 7943 17be 4171 49bd 9e41 84be 1669 a1be
000001f0: e4d7 b53e ddd8 c0be 01b4 02be b86d 243e
00000200: 9f8b a5bd c51a 393e 9429 913d 692f 033e
00000210: 79be 503e 60f5 a1be 3178 bebd bb2a 9c3e
00000220: bb07 413e 5a33 b53c 853b 3e3e 49bc e03d
00000230: e732 2cba 8899 37be 57bf fc3c f105 febd
00000240: a66e d1be bd58 c7be dbcc 99bc be4f 92bd
00000250: 5574 463e 5729 20be ab51 503f 89ca dcbd
00000260: f41a 72be c8c8 e23e 0807 7d3e 3b57 fa3e
00000270: 4c2d 693d 9b64 c8be 5cda 39bf 60c0 aebd
00000280: bcff 11be c592 30be b8f8 2dbc 09fd 05bd
00000290: cbe1 483d 04f0 c03e c138 fd3d a844 cbbe
000002a0: f141 663d ff29 b8be d382 7abe fb1c 35be
000002b0: 4273 abbe 13ba 19bf de35 fb3e 90cb cabe
000002c0: ca5f 113e e8b0 ccbe 09db d2bd 4a31 a2be
000002d0: 643c 6c3e 68d9 073f 0e7a 093e 8225 1cbe
000002e0: 07a7 28bd 14ed 2d3e ee2c e73e c23f c73c
000002f0: f5e1 6c3f 4bb2 17be 40dd bfbc 010c d3bb
00000300: 8636 61be ef0c b33e db88 4bbe 6a8e cbbe
00000310: afd7 a3be f861 433d 3f32 2f3e 78d3 d5be
00000320: 19c2 67be 8134 0ebe e436 453e 3d28 64bd
00000330: bad6 443c d08d edbd 9af3 7e3e e529 033e
00000340: 08d0 85bd 9b29 5ebe 4456 263e c7e8 643d
00000350: 891f c3bd 137f 83be 674a b3be 4607 04be
00000360: 3e97 1cbc 00e9 ec3d cdab 2b3e b7a4 173e
00000370: 2a18 363e 4718 c5bd 3606 95bd ccb7 abbd
00000380: 182b dc3d e288 263e cb04 48be f2a0 403e
00000390: 697b 69bd 1ea7 a4bd e7e9 4b3e 4bcc b13c
000003a0: faa8 cbbd 9549 ba3c 0846 873e 0e0a 04be
000003b0: 36c1 1a3d 1a84 29be bdbe edbd 918a 1f3e
000003c0: 6165 81be a260 6dbd e848 f93d b9ce ae3d
000003d0: b233 e1bd d0f7 313e b737 183d 71ef 2b3d
000003e0: 8f53 abbe 5ee1 fb3c f4dc 093e 8957 adbd
000003f0: 2bbc f4bd 23f8 793d 7e69 a63e 2edc 243e
0.2063795 0.12834859 -0.32677618 0.09119499 0.0075586215 0.14975865 0.002310605 -0.14797875
-0.22361533 -0.09581168 -0.013926612 -0.080671 0.17742288 -0.10309563 0.046710238 0.13444996
0.042076092 -0.3026485 -0.21214084 0.08630303 -0.12780169 0.024200818 -0.24715583 -0.22883733
0.09435008 -0.19114856 0.047030177 -0.28193745 -0.062360484 0.18332855 -0.32874557 0.1845036
0.057156913 -0.15059613 -0.23174317 0.16717236 0.22929041 0.06237391 0.29623547 0.12465995
0.16614202 -0.0032134987 0.29471743 0.07180806 0.06859805 -0.18358454 -0.3141691 -0.05078575
0.20790051 -0.20906578 0.13482624 0.01996355 0.11521576 -0.053493403 0.013177744 -0.07845223
0.0665893 0.027508784 0.06428414 -0.15881622 -0.13995887 -0.2311117 0.09876421 0.22290157
-0.31721267 -0.027435018 -0.13700876 0.0017228866 0.062125266 -0.19961931 -0.13264301 -0.0031845893
-0.0006009007 -0.18108188 0.30857372 0.056330916 -0.0007527293 -0.2202746 -0.23491536 -0.099410854
-0.008682913 -0.009083244 -0.01564346 -0.10590062 0.061690107 -0.062956214 0.03290737 0.14418192
0.13544829 -0.067087665 0.051639743 -0.06299221 -0.1780542 0.26656416 -0.3911368 0.027698334
-0.2299996 0.17660923 0.04048766 -0.10117465 0.30591986 -0.08121958 -0.110954 0.37930512
-0.07190111 0.07952383 -0.06666128 -0.3005924 -0.30062035 0.2313096 -0.12402881 0.08485667
0.0790461 -0.2513564 0.11537063 0.22217412 0.2627628 -0.34368575 0.037238028 -0.28222048
-0.14771833 -0.049180273 -0.25831312 -0.31525487 0.35516274 -0.37665454 -0.12763979 0.1605748
-0.08083271 0.18076618 0.070880085 0.12811054 0.2038516 -0.3163252 -0.093002684 0.3050135
0.18850605 0.022119213 0.18577392 0.109734125 -0.00065688643 -0.17929661 0.030852957 -0.12403477
-0.4090473 -0.3893489 -0.01877444 -0.07144116 0.19380315 -0.1564077 0.81374615 -0.10780818
-0.23643094 0.4429381 0.24709713 0.48894677 0.056927964 -0.39139256 -0.72598815 -0.08532786
-0.14257711 -0.17243488 -0.010618381 -0.032712016 0.049043458 0.37683117 0.123643406 -0.39700818
0.05621523 -0.3596954 -0.24463968 -0.17686836 -0.33486372 -0.6004955 0.49064535 -0.3960843
0.14196697 -0.3997872 -0.10295684 -0.3167823 0.23069912 0.5306611 0.13425466 -0.15248683
-0.041174915 0.1698497 0.45151466 0.024322394 0.92532283 -0.14814107 -0.02342093 -0.00644064
-0.21993455 0.34970805 -0.19876425 -0.3975709 -0.3200049 0.047700852 0.17109011 -0.417629
-0.22632636 -0.13887216 0.1925922 -0.055702437 0.012014085 -0.11599314 0.24897614 0.1280895
-0.065338194 -0.21695559 0.16243845 0.055886056 -0.09527499 -0.25682887 -0.35017702 -0.128934
-0.009557543 0.11567879 0.16764756 0.14808927 0.17782655 -0.09623771 -0.07276575 -0.08384666
0.10750407 0.16263154 -0.19533078 0.18811396 -0.05700246 -0.080396876 0.19913445 0.02170386
-0.09944339 0.022740165 0.26420617 -0.1289446 0.037781917 -0.16554299 -0.11608646 0.15580203
-0.25272658 -0.057953484 0.12172109 0.08535523 -0.10996188 0.17379689 0.03716251 0.041976396
-0.33462188 0.030747112 0.13463193 -0.08463962 -0.11949953 0.061027657 0.3250236 0.16099617

bias f4 [50]
00000000: 6e80 f6bc 7325 1a3e dfc2 c2bd 3c3c e03b
00000010: 74e1 743d 50ca 19be 4bdc 033e e306 3f3d
00000020: 675f e13c c058 b8bd 3782 73bd 0c2d 803d
00000030: c809 06bd ac3d 553d 377e 243d 7d90 053e
00000040: 827f e03d 2df8 46bc a1a6 de3d a0d0 703d
00000050: 1e35 353d d596 4d3d 1332 e83d 9388 be3d
00000060: ff7c 81bd f65e 0cbe a017 d6bc 32f9 f0bc
00000070: eb02 17bd 59b4 2e3d 9e98 13be d304 b1bd
00000080: b5c9 94bc 2735 87bd 805f 8fbd 3036 063e
00000090: 6deb 10bd 0c56 0abb bd7c 2e3c 95ec 0dbe
000000a0: 513d b53c f6d8 083e f351 4c3d cd93 1c3e
000000b0: 7611 803c d10c 413d 3152 f8bd d599 a2bd
000000c0: 9a0a babd 1676 d63d
-0.030090537 0.15053348 -0.09509825 0.006843118 0.05978532 -0.15018582 0.12877004 0.046637427
0.027511312 -0.09001303 -0.059450354 0.06258592 -0.032724172 0.052060768 0.04015943 0.13043399
0.1096182 -0.012144131 0.10871626 0.05879271 0.04424011 0.050192673 0.11337676 0.09303393
-0.06322669 -0.137081 -0.026134312 -0.0294157 -0.036868017 0.04265246 -0.14413688 -0.08643498
-0.018162588 -0.06601935 -0.07000637 0.13106608 -0.03538077 -0.0021108417 0.010649857 -0.1385978
0.022123965 0.13364014 0.04988284 0.15290757 0.015633326 0.047131363 -0.12125052 -0.079394974
-0.09084053 0.10471742

weight f4 [1, 50]
00000000: fef2 00bf 3de4 36be b0b9 15be f4f8 81bf
00000010: b5c5 763e 8d43 febd 59d1 20bf c0d8 65be
00000020: fbda 463e 15fe 52be d82c 74bb 30d6 99bd
00000030: db3c 0f3e d5cc bebb 42c3 35be 2984 e4be
00000040: b17c a9be 5578 c4be 6824 4fbe 30e5 123f
00000050: c5e8 eebc 4ac3 023e 0112 1cbf eecc 583e
00000060: 2ee0 87be 18cb aa3e f75f 3fbe 821c 9abe
00000070: a9f1 cf3e 3d9e 873e 87e5 63be f1e7 943c
00000080: 1cf6 93be f052 533e bd67 663d ae7f a73d
00000090: 7aad 02bf daf1 913e 227b 023c 3698 473e
000000a0: d633 c03c d278 babd 00fa fcbd 514e 2fbf
000000b0: b73c 93bd ea4f a8be 6cff b0be 24a1 8fbd
000000c0: 661a 0c3f 38e6 ffbd
-0.50370777 -0.17860503 -0.14621615 -1.01541 0.24098857 -0.12415228 -0.6281944 -0.22445965
0.19419472 -0.20604737 -0.0037258174 -0.07511556 0.13988058 -0.0058227577 -0.17750266 -0.4463208
-0.33102944 -0.38373056 -0.20228732 0.5738096 -0.029163728 0.1276981 -0.6096497 0.21171924
-0.26538223 0.33358073 -0.18688951 -0.30099875 0.4061406 0.26487914 -0.22255526 0.018177005
-0.28898704 0.20637107 0.056251276 0.0817865 -0.51045954 0.2850483 0.007963927 0.19491658
0.023462217 -0.09105076 -0.12352371 -0.68478876 -0.07189315 -0.3287347 -0.3456987 -0.07013157
0.5472778 -0.124950826

weight f4 [1, 50]
00000000: 160a d2be e962 52be ebaf 6abf 6ef7 75bf
00000010: 6884 0f3e 5825 fbbd ff39 0bbf 25bb 73be
00000020: fc34 1f3e 2550 b5be b1ec 593e 5c3c 16be
00000030: 231f d6bc 0eec 03be 0010 a8be 84f9 5cbf
00000040: 8283 95be a231 e1be f035 7cbe b39f 253f
00000050: 80be 873e f290 503e c0f7 ffbe 8ba6 633d
00000060: 3c19 15be 22e9 623e 1934 50bd b978 6fbe
00000070: 0a4b bd3e 4d13 293e 14c5 b4be 3f80 06be
00000080: 4537 b4be 035d 253e f398 633d 11d6 253d
00000090: 9ccc 80be 133e 863e 063c c83e 6113 873e
000000a0: 6b34 b03d 19e0 0dbe fac4 b9be 3744 05bf
000000b0: f91a 2abe 9c43 3dbe 4cc9 2ebd 1f39 a53d
000000c0: 52a9 133f 70e1 ddbd
-0.4102332 -0.20545544 -0.9167468 -0.9608067 0.14015353 -0.12262982 -0.5438537 -0.23801859
0.15547556 -0.35412708 0.21281697 -0.14671463 -0.026137894 -0.12883016 -0.32824707 -0.8631823
-0.29201895 -0.4398318 -0.2462995 0.64696807 0.26512527 0.20367792 -0.49993706 0.05557875
-0.14560407 0.22159246 -0.050830934 -0.23385896 0.36971313 0.16511269 -0.3530661 -0.1313486
-0.35198417 0.16148762 0.055565786 0.040487353 -0.25156105 0.26219234 0.39108294 0.26381972
0.08603748 -0.13855018 -0.36283094 -0.5205721 -0.16611852 -0.18482822 -0.04267244 0.080675356
0.5768024 -0.108340144

weight f4 [11, 50]
00000000: 9785 c83c 2da6 e6bd a259 adbc 5831 72bd
00000010: 1d9b 443c 860e d8bd bf26 963d be80 a0bc
00000020: b647 bbbd 14d9 c13d 82e3 773d 3e4b 573d
00000030: 2fa3 58bd e591 c13b f9a8 82bd f057 c2bd
00000040: b2da d7bd 7a36 54bd ec8e 533d 9581 493c
00000050: 7fc1 35ba 5604 28bd 832b b1bc fa5a 4a3d
00000060: e86e 253e fe85 20be 7d06 e33c c7df 2c3e
00000070: 46b6 e5bd fc4b be3d 2a74 403d e9e0 a6bd
00000080: 66da 91bd e911 3c3d f50f ba3d 1a0d 1fbd
00000090: d656 dcbd 14e3 7abd 1e43 913d 81d3 133d
000000a0: 9f03 cdbc 9739 973d 450e 2cbd 964d ab3d
000000b0: 4055 953b 4b91 35bc 89ec 2dbd ec5e 183c
000000c0: 39ad 8dbd ca8b 4cbd 4278 a83e 3768 d3bd
000000d0: ffe3 22bd eee9 b7bd 3412 abbd c3ca 5d3e
000000e0: 8912 65bd 6e3f a33e f5d4 b5be 1415 cdbc
000000f0: 307c d5bc 776c 9fbe 8ae9 38be 5827 7bbe
00000100: 67b5 3f3e 97e2 db3d 9171 6fbe 7d5d c03e
00000110: 1075 4a3e 05ec 323e 5329 b1be e848 a73d
00000120: 5dbb c5bd 89aa 903e 92e5 ad3d 6363 b1bd
00000130: 89d9 67be c7f3 ee3d fc92 bbbd c3d9 f23c
00000140: f51b b0bb ed7c f2bc 470e 37be 7a72 2bbe
00000150: b621 9f3e ea38 0cbe 7b99 753d 4803 ce3d
00000160: 21f5 a73b 2793 24be be5e e23d 4bf8 e43c
00000170: 4f76 833d d707 22be c1f7 1ebe 4de6 28be
00000180: 3732 093f 1daf 4e3d 6285 3a3e b08e a4bd
00000190: 2d92 04bd 43df 6bbe b12d fabc 3554 143e
000001a0: 892c 45be b7a5 523e fb3f 193e fc1a 08be
000001b0: 1117 94bd 8fd7 983d e811 003e 2629 adbd
000001c0: aeae 8e3d b256 a2be f25f aebc 5fa4 2c3d
000001d0: 4d39 13be e697 99bd 33da 96be d78a ee3d
000001e0: 6c0f 9ebe e74b 613d b279 1fbe e152 a63d
000001f0: 5696 2f3e 0a9d bc3d 7d9c 57bd 6d8b 233d
00000200: 2444 d0bd 5faa 60bc b390 fb3d 4b02 fdbc
00000210: 54f3 bb3c 50af 843e 1a95 0c3e 2741 193e
00000220: d5c5 9cbd f7cc 673e 40c6 22bd 9693 f3bd
00000230: 7d57 73be eb69 213d 7288 043f a667 1dbe
00000240: 8a86 6fbc 7149 9fbc 267f e7be 343f eebd
00000250: eba7 023e 061d 083e 6f89 aebd e535 763d
00000260: 7f7d fbbd 4386 2d3e 44a5 243e 0c25 34be
00000270: af3a e1bc 3ed7 173d d5de 3e3d aee1 13be
00000280: ae07 fdbd 357e 79be b508 bd3d 7dc3 d73d
00000290: 30f9 20bd 3d44 0dbc a4d6 a83d 8a3f 07bd
000002a0: 0548 fc3d 0cbb 9e3d 5bd5 10bd 403c 113e
000002b0: ecbb 21be e205 19bc 1014 84bd 4d7a d13c
000002c0: 5c23 08be bf44 09be 1e55 24be bad9 bbbc
000002d0: cb53 8abd 2bf6 c5bc 1601 1ebe 3f7d fa3d
000002e0: e165 233c 8fde 4a3e 53a4 853d 2603 b6bb
000002f0: a5bd a03d 50b9 3b3e 48de 4c3d b337 d93d
00000300: 4cd2 e0bc e500 603d 15fc 47be 61fd 703d
00000310: b441 1ebc bc36 fe3d 726b e53d 2660 a63d
00000320: 8760 073e bdd4 12be 4234 a9bd 7f86 533d
00000330: dc28 b83e 7d72 fa3c a640 f9bd efd2 ecbd
00000340: dae7 97bc bbfe 283e 2a74 ce3c f621 adbe
00000350: d0c9 ccbe fe3b c3bd c448 423d 0d3f 923d
00000360: 2c85 76be 8851 883e ebb5 3ebe f592 a03d
00000370: 5e2e 19be 4ecc a73e 28f3 9dbd b1af de3d
00000380: ab28 72bd bda9 60be cfde 87be 170a 2cbe
00000390: 194f 26be d450 dd3d 2b48 653e 0946 cd3c
000003a0: ac5a 0d3d 699a b9bd 69b6 a53d 29d4 30be
000003b0: 916d 3d3e a5b8 9a3e 17f6 a0bc f793 803d
000003c0: 5db3 c53e ddc6 0d3e e63a 27be f6cb cb3c
000003d0: ed7c 2c3d 3cde 82be 6cdd f73d 79cc 943d
000003e0: f0b7 63bd d051 c1be 043a 00be f625 87be
000003f0: db40 b1ba b3fb 253c 83c8 d83d 930c 613d
0.024477763 -0.11262164 -0.021160904 -0.05912909 0.0119998725 -0.10549645 0.07331609 -0.019592639
-0.09144537 0.094652325 0.060519703 0.05256199 -0.05289 0.0059072846 -0.06379885 -0.09489429
-0.1053976 -0.051809765 0.051649973 0.012298961 -0.0006933435 -0.04101976 -0.021627193 0.04940317
0.16155589 -0.15676114 0.027713055 0.1688224 -0.112164065 0.092918366 0.046985783 -0.08148367
-0.07121734 0.045915518 0.09085075 -0.038830854 -0.1075875 -0.061251715 0.0709288 0.036090378
-0.02502614 0.07384031 -0.042005796 0.08364408 0.0045572817 -0.011082004 -0.042461906 0.009299975
-0.06917805 -0.049938 0.3290425 -0.10322612 -0.039768215 -0.089801654 -0.08353081 0.21659379
-0.05592588 0.3188433 -0.35514036 -0.025034465 -0.026060194 -0.3113744 -0.18057838 -0.24526727
0.18721543 0.10736578 -0.23383166 0.37571326 0.19771218 0.17472847 -0.3460184 0.08168203
-0.09654877 0.28255108 0.08491053 -0.08661535 -0.22641577 0.116675906 -0.091588944 0.029644853
-0.0053744265 -0.029600585 -0.1787654 -0.16742888 0.31080407 -0.13693586 0.059960824 0.100592196
0.005125657 -0.16071759 0.11053227 0.027950427 0.0641905 -0.15823303 -0.15524198 -0.16494103
0.53592247 0.05045997 0.18214944 -0.08035028 -0.032365967 -0.23034386 -0.030539365 0.14485247
-0.1925527 0.20571028 0.14965813 -0.13291544 -0.07230962 0.074629895 0.1250683 -0.08455114
0.06966911 -0.31706768 -0.021285985 0.042148944 -0.14377327 -0.074996755 -0.29463348 0.11647575
-0.3087114 0.055004027 -0.15573767 0.08121277 0.17147192 0.0920964 -0.052639473 0.03992789
-0.10169247 -0.013712495 0.122834586 -0.030884882 0.022943176 0.25915003 0.13728753 0.1496626
-0.07654921 0.22636782 -0.039739847 -0.11893384 -0.23763843 0.039407652 0.517707 -0.1537157
-0.014619479 -0.0194442 -0.45214194 -0.11633149 0.12759368 0.13292322 -0.08522307 0.06010999
-0.12279796 0.16945748 0.16078669 -0.17592257 -0.027493803 0.037070505 0.046599228 -0.14441559
-0.123549804 -0.2436455 0.09230176 0.10535333 -0.039300144 -0.008622226 0.082440645 -0.03301958
0.12318424 0.0775052 -0.03535972 0.1418314 -0.15794343 -0.0093397815 -0.06449139 0.025571013
-0.13294739 -0.13405131 -0.16048095 -0.022930969 -0.067542635 -0.024165234 -0.15430102 0.1223092
0.00997302 0.19811462 0.06525483 -0.0055545745 0.07848672 0.1833241 0.05001667 0.10606327
-0.027444027 0.054688353 -0.19529755 0.05883539 -0.0096592195 0.124127835 0.11202134 0.081238076
0.13220416 -0.14338966 -0.082619205 0.051641937 0.35968673 0.03057217 -0.12170534 -0.1156367
-0.018543173 0.16503422 0.025201876 -0.33814973 -0.3999772 -0.09532927 0.047432676 0.07140932
-0.24074239 0.26624703 -0.18624084 0.0784053 -0.14959094 0.3277306 -0.07712394 0.10873354
-0.059120815 -0.2193975 -0.26537177 -0.16800724 -0.16241111 0.10806432 0.22390811 0.02505781
0.0345103 -0.090626545 0.080914326 -0.17268433 0.18498828 0.30218998 -0.019648595 0.06278222
0.38613406 0.13845392 -0.16331062 0.02487753 0.042111326 -0.25560176 0.1210278 0.072655626
-0.05559534 -0.3775773 -0.12522131 -0.2639615 -0.0013523357 0.010130811 0.105851196 0.054943632

bias f4 [11]
00000000: 5e3b debc 4293 2a3c fdd6 5cbd 971c d43d
00000010: 0fc9 003e 68f4 b53c 0dca da3d caa0 963d
00000020: 2760 be3c a0ad 7dbd a09e 62bd
-0.027127918 0.010411086 -0.053915966 0.103570156 0.12576698 0.022211269 0.106830694 0.07354887
0.023239208 -0.06193316 -0.055327058

weight f4 [1, 50]
00000000: 24e1 bbbd 6654 b13b 12fc af3a c7dd c3bb
00000010: 98b3 163e 794e 08be 6fcd 9f3c 87d0 6ebe
00000020: f2b9 2b3e 4e66 dc3d a6f4 bc3d 7479 28be
00000030: 8515 a9be 83a5 0bbe e107 11be 34f1 193c
00000040: 8fc6 343d ab57 f33d 0159 08be e5bc 6c3d
00000050: bd20 323d 9071 793d e4b1 0e3d 50e1 16be
00000060: 69ba 29b9 aae9 3cbe 7287 e1bd 128b 2bbe
00000070: 6143 a6bd 899c 273e 559f 1a3d f2c4 a83d
00000080: 5ce1 ccbd 3208 ef3d 04e3 21be 2a2f 18be
00000090: bb47 173d 0edd 4e3c fbac c9bd 496c 47be
000000a0: dba2 443e 90c3 c13c efde b53b bac4 c83c
000000b0: 9ca4 dc3c 0075 abbd 1915 2cbe a113 96be
000000c0: 1461 e9bc 5ecf 54be
-0.091738015 0.0054116724 0.0013426563 -0.0059773657 0.14716947 -0.13311185 0.019507138 -0.23321734
0.16770151 0.107617006 0.092263505 -0.1645258 -0.3302423 -0.13637356 -0.14163162 0.009395886
0.044134673 0.11881956 -0.13315202 0.05779733 0.043488253 0.060899317 0.03483762 -0.14734387
-0.00016186539 -0.18448511 -0.11012162 -0.1675227 -0.0811832 0.16368307 0.037749607 0.08240689
-0.100039214 0.11671485 -0.15809256 -0.14861742 0.036933642 0.012625946 -0.098474465 -0.19474901
0.1920275 0.023652822 0.0055502574 0.024507869 0.02693396 -0.08371925 -0.16804923 -0.2931185
-0.028488673 -0.2078223
