result/models/2024-08-14/wa_best.pth (torch, 70913 bytes, 12 tensors)

alpha f4 [2]
000000 d3 6d 2b 40 6f b7 2d bf
       2.6785781 -0.6785802

weight_ih_l0 f4 [200, 12]
000000 da 21 14 be 97 89 75 be ea 41 d2 be d9 1c 93 be
       -0.14466038 -0.23978268 -0.41065913 -0.28732947
000010 49 11 b5 be f6 46 5b bf 98 a9 86 be 94 6e 6d be
       -0.3536475 -0.8565515 -0.26301265 -0.23186713
000020 11 5c 55 be 86 fe f2 bd 8f e1 c0 3d ba 56 0f 3c
       -0.20835902 -0.11864953 0.09418022 0.008748705
000030 f8 54 91 bd ef 63 f7 bc f8 3e 89 be 1e 47 0d 3e
       -0.07096285 -0.03019902 -0.26805854 0.1379666
000040 23 32 f1 be 7d c9 b0 bc 9b 28 26 be a9 02 d3 3d
       -0.47108564 -0.021580452 -0.16226427 0.10303242
000050 ca 34 af bd ae ee b8 3e b0 f1 77 3c 8d 37 51 bf
       -0.085549906 0.36119598 0.015133306 -0.8172539
000060 b5 ae f6 3d 72 df a1 bd 27 4e c1 be 84 0f e3 3c
       0.120450415 -0.07903947 -0.37754938 0.02771736
000070 b5 40 20 3d 73 fe b5 be f0 e1 e2 be 29 a3 ec bc
       0.03912421 -0.35545692 -0.44313002 -0.028886395
000080 15 2b 03 be fe 9b 03 3e 8e f7 12 be d8 e9 a0 3e
       -0.12809403 0.12852475 -0.14352247 0.3142841
000090 84 e2 cc 3e 29 0b 5c be 46 72 92 3b 95 29 d3 bc
       0.40016568 -0.21488632 0.004469189 -0.025776664
0000a0 49 bf 7f be bd d7 25 be 2a 69 a1 be 6e fa d0 3c
       -0.24975313 -0.16195579 -0.31525546 0.02551004
0000b0 a4 b2 c7 3d 9e 93 9b be c4 41 19 be 60 d0 53 bf
       0.0975087 -0.3038606 -0.14966494 -0.8273983
0000c0 fa 75 fa 3d 68 e9 9a be 96 ee 85 bd ae 75 9b 3d
       0.122295335 -0.302562 -0.06539647 0.07590805
0000d0 7b b4 ef 3e 06 a3 ce 3d 4b 48 c3 be be dc a5 bd
       0.46817383 0.10089688 -0.38141093 -0.08098744
0000e0 ad da 34 bd e9 e1 86 be 8e a4 3c 3d 6a 56 83 3e
       -0.044153858 -0.2634423 0.04605537 0.25651866
0000f0 e5 14 8d 3f 84 86 a7 3d f5 5d 8c be 1f 1f aa ba
       1.1022002 0.08179954 -0.27415434 -0.0012979246
000100 a1 25 64 3d d9 dc 0e be be e5 81 3c 9f a7 57 bd
       0.05569995 -0.13951434 0.01585662 -0.05265009
000110 49 de 06 3d e5 92 26 be c9 17 db bc 34 80 ea bc
       0.03292683 -0.16266973 -0.02674474 -0.028625585
000120 4b 2b 20 3f df 69 cd bb 00 a1 02 be 63 b1 0e 3d
       0.6256606 -0.0062687243 -0.12756729 0.034837138
000130 4b 0d d0 3b fd b9 21 bd ec f0 ea bd ef 69 24 3e
       0.006349241 -0.039484013 -0.114717335 0.16056035
000140 27 c5 bd 3e 71 81 9f bf d3 b7 50 3d cc 41 b2 3d
       0.37064478 -1.2461377 0.05095656 0.08703956
000150 d5 97 88 3e ca bb ec bd 77 a6 de be f6 76 c3 bd
       0.2667834 -0.115592554 -0.43486378 -0.095441744
000160 91 01 ae be 85 b3 d2 be 2b 9b a5 be 93 92 13 be
       -0.3398557 -0.41152588 -0.32344946 -0.14411382
000170 e1 91 cc be fe 2e a0 3e a1 11 0c bf 86 23 56 be
       -0.39955047 0.31285852 -0.547144 -0.20911989
000180 9e a6 f3 3d 91 5d b8 be f6 cb f3 bc 69 ea 2f be
       0.11897014 -0.36008886 -0.029760342 -0.17179264
000190 e0 31 98 be 80 ef a2 3e 07 d7 0a bf ed bd 1b be
       -0.29725552 0.3182335 -0.54234356 -0.1520917
0001a0 5b f3 27 be f6 d3 f7 3d a0 f0 4d be c0 d9 a7 be
       -0.16401426 0.12100975 -0.20111322 -0.32783318
0001b0 6b eb 88 3e 54 9e 26 be 1d ad be be eb a7 6e be
       0.2674211 -0.16271335 -0.3724145 -0.23306243
0001c0 3e 7e da 3c 5e b2 07 bf 9d 73 de be 01 e9 0a be
       0.026671525 -0.5300654 -0.4344758 -0.13565446
0001d0 5d f8 ad bc 1a e4 1f 3e c0 9f 57 be 2a 2a 05 3d
       -0.021236593 0.15614358 -0.21057034 0.032510914
0001e0 40 fe 42 be 91 ad df bc 32 17 75 be 62 54 2c 3c
       -0.19042301 -0.027304443 -0.2393463 0.010518165
0001f0 8b 4b 46 be cc c2 c9 bb f0 9f c5 bc 98 65 56 be
       -0.19364755 -0.006157255 -0.024124116 -0.20937192
000200 45 a4 42 be 76 ae d3 3e 69 fa a0 be 15 ba 0b 3e
       -0.19007976 0.4134404 -0.31441048 0.13645203
000210 4d 3e 96 3e 57 aa 54 be f6 33 0e be 6e 43 19 3d
       0.29344407 -0.20768104 -0.13887009 0.03741782
000220 e2 01 df bd c7 82 ec bc d1 a0 7a be b4 22 b2 3c
       -0.10889031 -0.028870953 -0.24475409 0.021745063
000230 64 e1 92 be 55 f8 23 bd 7b bc 95 3b b3 8f 44 be
       -0.28687584 -0.04003175 0.0045695878 -0.19195442
000240 b7 f5 6d 3e d6 37 46 be 84 15 39 3e b5 2f ad 3e
       0.23238264 -0.19357237 0.18074614 0.3382546
000250 e6 af 45 3e b4 36 ca 3e 7d 4d bd 3e f5 e6 df 3e
       0.19305381 0.3949486 0.3697318 0.43730894
000260 31 20 c8 3e 5c 08 55 bf 42 fd 2c be cb 35 c6 ba
       0.3908706 -0.8321588 -0.16893485 -0.0015122233
000270 aa e7 62 bd 96 7d 0a bf 03 98 9d be bd cf e7 bc
       -0.055396713 -0.5409788 -0.30780038 -0.0282973
000280 2d 14 83 3d 37 7f e1 bb eb 0c 00 be 0a 80 d6 bd
       0.064003326 -0.0068816203 -0.12504928 -0.1047364
000290 32 9e e7 3d d6 b4 bc 3e a6 21 9a bc b3 65 cf 3e
       0.1130947 0.36856717 -0.018814873 0.40507278
0002a0 11 f3 ae 3d ba d5 a0 3e 02 f5 90 be 3b 48 c3 3c
       0.08542455 0.3141306 -0.28311926 0.023838153
0002b0 09 dd 14 3e f3 ee e7 bd 92 c0 e7 3d 82 cf d8 bd
       0.14537443 -0.11324873 0.11316027 -0.10586454
0002c0 89 06 35 be f1 8a f9 3d cf a5 63 bd a2 c5 6c 3e
       -0.17678274 0.12184704 -0.05557805 0.23122266
0002d0 af a9 5e be 31 08 b9 3d 5d 0a ab be 8a ea 96 3d
       -0.21744417 0.090347655 -0.33406344 0.073689535
0002e0 d5 37 c6 3d fe 7e 39 be 24 9a be be 83 70 23 3c
       0.09678618 -0.1811485 -0.37226975 0.009975555
0002f0 4a dc 0c bd ac 15 7a 3e cf b5 98 bc f2 49 96 be
       -0.03438977 0.2442233 -0.01864138 -0.2935329
000300 f1 0a 01 bd 22 8d 20 3d 32 8b 4c bd 9b d8 b4 3e
       -0.031504575 0.039197095 -0.049937434 0.35321507
000310 70 be a3 3d a0 2a 29 bd d9 24 95 3c 69 86 36 3e
       0.079953074 -0.041300416 0.018206047 0.17824711
000320 a4 4f 3e 3e 85 01 14 3f 5a 37 37 be e5 10 d3 be
       0.18585068 0.5781482 -0.17892209 -0.41223827
000330 dd c8 1c 3e ac c9 27 bd 6c 33 91 be 1b 71 4e be
       0.15310998 -0.040963814 -0.28359544 -0.20160334
000340 f1 53 56 3e c3 f4 13 be 22 fe ab be a6 fa 6b bd
       0.20930459 -0.14448838 -0.33592325 -0.057612084
000350 5a bf 4a 3d 51 0c a9 3e b0 e9 52 3d ac bc 0a 3c
       0.049498893 0.3301721 0.051492393 0.008467834
000360 a7 cd ef be dd 00 77 be 2c 19 06 bf e7 ec cd 3d
       -0.46836588 -0.24121423 -0.5238216 0.10054951
000370 de 1a 9f bd 5d 6c fb 3b e9 d3 ff bd ca a4 1b 3e
       -0.077687964 0.00767283 -0.124915905 0.15199581
000380 64 19 ad ba d6 91 86 3e 51 9d e6 3d 05 b6 b8 3e
       -0.001320642 0.2628314 0.112604745 0.3607637
000390 40 15 bb be 16 d6 b0 bd 31 2e e7 3c b0 c2 52 3d
       -0.3653965 -0.08634584 0.028220268 0.0514552
0003a0 bb df a6 be 21 64 e9 bd 88 d9 b2 3b a9 b6 21 3c
       -0.32592568 -0.11396051 0.0054580607 0.00987021
0003b0 70 d0 0c bd 7f e7 f6 3e 15 92 c3 be 9f 20 05 ba
       -0.03437847 0.48223493 -0.3819739 -0.0005078408
0003c0 45 d6 2d 3f 3d 13 0d 3e dd fe 6f be 40 87 3a 3d
       0.67905074 0.1377687 -0.23437066 0.04553914
0003d0 a3 e9 e5 3d ae 70 ae bd e1 ab 9f 3c 6e 08 86 bc
       0.11226203 -0.08517586 0.019491138 -0.016361441
0003e0 fd da 9f 3b 6c e0 0e be 55 c7 20 3d 54 a0 44 3f
       0.0048784004 -0.13952798 0.039252598 0.7680714
0003f0 19 c9 c4 be 59 1b 25 3e 44 56 9a be 89 d3 d1 bd
       -0.38434675 0.16123714 -0.3014394 -0.10245425

weight_hh_l0 f4 [200, 50]
000000 64 f2 f9 bd 66 35 94 be c4 8f 71 bc 24 b9 92 be
       -0.122044355 -0.2894699 -0.014743749 -0.28656876
000010 57 66 2f 3e c2 32 bf 3e a0 83 b8 3e 06 a0 b5 3d
       0.17128883 0.37343413 0.36037922 0.08868413
000020 9d db b4 be 0c 1f 0d be 94 57 bb 3e d3 08 6d be
       -0.35323802 -0.13781375 0.36590254 -0.23147897
000030 a5 19 3b bd 61 0b 3c bd f9 0f bd be 5f a5 3b 3e
       -0.045678753 -0.04590929 -0.3692625 0.18324803
000040 0d 76 b5 bd 40 c4 83 3c 76 58 21 3f 48 f7 ff 3c
       -0.08860407 0.01608479 0.63025606 0.031245843
000050 16 6d 4a be f6 07 65 3d 78 81 af 3d 53 0a 8d 3b
       -0.19768175 0.055915795 0.08569616 0.0043042093
000060 0b b2 ac be 5a 59 8a 3d 87 b5 06 3f f8 f8 0e 3e
       -0.33729586 0.06755324 0.5262074 0.13962162
000070 84 b4 bd be dc dc ad bd f2 99 4b 3e c0 f0 47 be
       -0.37051785 -0.08489391 0.19882944 -0.19525433
000080 35 3b de bd 6c bd 78 be b9 74 a4 3e ff 77 8e bc
       -0.108511366 -0.24291009 0.32120302 -0.017391203
000090 e3 ed a8 3e ac f9 be bc 78 77 ed 3d 5f 22 04 be
       0.32993993 -0.023312412 0.115950525 -0.12903737
0000a0 66 f4 b4 bd 8b dc 8a 3d c2 9b 5a 3d bd 1f 3e 3e
       -0.08835678 0.067803465 0.0533712 0.18566795
0000b0 d1 88 94 3e ba 45 16 3d df 7d 4e 3c ff df c3 bd
       0.29010633 0.03668759 0.012603252 -0.09564208
0000c0 ed 35 d4 3d 78 29 d2 be 67 a0 1a 3e b8 23 1e 3e
       0.10361848 -0.41047263 0.15100251 0.15443313
0000d0 75 e5 eb 3d de 1d f7 3e 34 8c da 3d c6 52 0d be
       0.11518375 0.48264974 0.10671273 -0.13801107
0000e0 09 7b 5f 3e 3b d4 b8 3e 29 2f f0 3e bf e5 b0 3e
       0.21824278 0.3609942 0.4691098 0.34550282
0000f0 89 29 fe be 57 2c 8b be 79 13 1b bf 86 7f 31 bf
       -0.49641064 -0.27182266 -0.6057659 -0.6933521
000100 76 9f 90 3e f9 67 43 3e fc 94 36 3e 5e 47 e6 bd
       0.2824666 0.19082631 0.1783027 -0.11244081
000110 8e 64 99 bd 6d e6 08 be 6e b5 67 3d 22 ab 01 3e
       -0.074898824 -0.1336915 0.05656951 0.12662938
000120 da 75 0c 3f 9c e5 dc 3d bb f3 a3 be c2 b3 f8 be
       0.5486733 0.10785982 -0.3202189 -0.48574644
000130 28 d6 13 3e 71 0e 55 3e 38 82 fd bd b1 59 4b 3e
       0.14437163 0.2080629 -0.12378353 0.19858433
000140 8a c4 1e 3d 62 2e 78 bd 52 53 dc be fb 60 08 3d
       0.038761653 -0.06059111 -0.43032318 0.033295613
000150 f4 ca 1e 3e d6 60 20 3e a3 b6 cb 3d d8 a0 24 3e
       0.15507108 0.1566194 0.099469446 0.16076982
000160 e5 f7 e5 bd 9f 83 cc be c3 4b 91 bd 5b ac 31 bd
       -0.11228923 -0.3994417 -0.070945285 -0.04337726
000170 94 c2 e8 bd 0d a0 29 bf 17 99 4c bd 56 1f c3 be
       -0.11365238 -0.66259843 -0.049950685 -0.38109845
000180 0a 72 84 3e f8 97 06 bd f1 84 f3 3d 33 fe 1d 3e
       0.25868255 -0.032859772 0.11890591 0.15429
000190 42 79 2f 3e 36 6d 0b be 6d 6a 87 3e a0 3f f9 bd
       0.171361 -0.1361588 0.26448384 -0.12170339
0001a0 52 86 0a be fa fc 2a 3e a9 11 70 be 45 7d 9d 3d
       -0.13527802 0.16698065 -0.23444237 0.07689909
0001b0 6d 17 d2 bd 69 89 08 3d 51 b1 38 be 1d a3 9c bd
       -0.10258374 0.03333417 -0.18036391 -0.07648299
0001c0 25 1a a1 be e7 f0 88 be 5b ef c7 3c 9a c4 9e 3e
       -0.3146526 -0.26746294 0.024406126 0.3100937
0001d0 3d 71 af bd 0d b8 ad bd 04 b5 04 be 28 d2 9b bd
       -0.0856652 -0.084823705 -0.12959677 -0.076084435
0001e0 56 6a 8f 3d 6b 10 a4 3d 13 e4 ef 3d f2 87 fe bd
       0.07002704 0.08010944 0.117134236 -0.12428273
0001f0 e3 90 c2 3d 6f f6 83 3e 0c 9b 66 3e e0 65 12 3e
       0.09500291 0.2577395 0.22520083 0.14296675
000200 7b 9b ca be b7 72 9a bd 2b 05 7d 3e f5 5b ea bd
       -0.39571747 -0.07541411 0.24709003 -0.11443321
000210 7a b7 d5 bc 07 5c 96 bd 71 c4 a2 bd bd 7d dd bc
       -0.026088465 -0.073417716 -0.079476245 -0.027037496
000220 33 4d e5 3d fd 68 37 3e df 84 92 bd 21 94 2c 3e
       0.11196365 0.17911144 -0.071542494 0.16853382
000230 28 b9 c0 bc a0 3c e1 3d 36 6d 8d 3d b9 49 18 be
       -0.02352579 0.109978914 0.06905596 -0.14871873
000240 3d fc ae 3d e7 fa 81 bd 87 d2 79 be 9a 5b 13 bd
       0.085442044 -0.06346684 -0.24396716 -0.03597603
000250 50 5e d7 bc 16 64 05 3e a1 3b 15 3d c3 ab e1 bd
       -0.026290089 0.13026461 0.03643382 -0.11019089
000260 f2 24 a0 bc b6 d9 db be ab 49 8a be bf b4 38 be
       -0.019548867 -0.42939538 -0.2700933 -0.18037699
000270 2f 79 e4 3d 17 5b 81 3e 46 5b 01 be 53 5f 14 3e
       0.111559264 0.2526481 -0.12632474 0.14489488
000280 03 24 9c be 01 d6 2c bd 8b 05 68 bc 62 b9 13 bf
       -0.30496225 -0.042196278 -0.014161478 -0.57704747
000290 93 5d 91 be c8 7d c6 bd 32 0c f1 3d 7e 80 44 3d
       -0.28391704 -0.096919596 0.11769904 0.047974102
0002a0 95 3a 91 3e a8 8f 0b bf 6f 5e 92 3d 68 5e 9e 3d
       0.28365007 -0.5451608 0.07146918 0.0773285
0002b0 44 cd 03 3f 97 c9 a7 bd d8 72 dd 3e 2a f3 25 3f
       0.51485085 -0.08192747 0.4325168 0.64824164
0002c0 03 0f a5 be 9e 6d e0 3c 09 18 a5 bc cf 18 69 3d
       -0.32238016 0.02739602 -0.020153062 0.056908425
0002d0 8a 71 b1 be 14 d1 23 be 8a 07 00 be 38 29 50 be
       -0.34656936 -0.15997726 -0.12502876 -0.20328224
0002e0 87 a6 88 bd 68 8d ab 3d 86 53 29 3e e2 74 82 be
       -0.066723876 0.083765805 0.16535768 -0.254798
0002f0 e2 28 a2 3d b4 3f ae 3d d1 fd 84 ba 80 72 35 3c
       0.07917954 0.08508244 -0.0010146444 0.011074662
000300 c3 2d ea bd 3a 56 44 bd c6 54 8b be 38 b4 03 be
       -0.114345096 -0.047933795 -0.27213115 -0.12861717
000310 88 1d 09 be 8b f9 13 3f ad 0e 87 bd a7 df 4a 3e
       -0.13390172 0.5780265 -0.06594596 0.19811879
000320 85 a5 52 be 6f 37 80 3e 52 02 24 bd 0d 37 25 be
       -0.20570953 0.25042292 -0.040041275 -0.16134281
000330 cb 21 82 be 31 92 7a be 23 13 8d be fc 70 b9 bd
       -0.25416407 -0.2446983 -0.27553663 -0.09054753
000340 62 e5 10 3d 22 c4 2b be d3 d0 a5 3e 4a 3f 7c 3e
       0.035375006 -0.16774037 0.32385883 0.24633518
000350 49 4e f1 3d df e4 cd be 48 24 ae bd a5 ee 0c 3d
       0.1178251 -0.40213677 -0.08503014 0.034407277
000360 f8 a5 fe bd 69 66 9e 3e f2 49 e1 3e 76 23 61 3d
       -0.12434 0.30937508 0.44001728 0.05496546
000370 ac d8 90 3d d5 a0 02 3e fd 75 63 3e 50 96 82 be
       0.07072577 0.12756665 0.22212978 -0.25505304
000380 9e 6a 3f be 51 44 d1 3e 6a 2f 8a be 3d b6 95 3b
       -0.18693015 0.40872434 -0.269893 0.0045688436
000390 27 92 4e be 2d 4e 30 bd 53 ff 0f 3e 14 41 3f 3d
       -0.2017294 -0.043043304 0.14062242 0.046692923
0003a0 fd b1 b2 be f9 b2 99 3e 59 5c 41 be b4 6b f6 3e
       -0.3490142 0.30019358 -0.18882884 0.48129046
0003b0 08 55 d2 be 41 e4 b3 3d b0 3b 86 3c 66 49 92 3d
       -0.410805 0.0878377 0.016385883 0.07142906
0003c0 5d ee a6 3d 2e 98 94 3d 3c a0 ef 3c 85 d4 8c be
       0.08150933 0.072555885 0.02925121 -0.2750589
0003d0 c9 3a 8b 3e 10 0f b6 bd ea c3 9c 3d 16 03 3b 3e
       0.27193287 -0.08889592 0.07654555 0.18262896
0003e0 34 9b aa be cc fd f6 bc 34 64 95 3e 3e ea 2f be
       -0.33321536 -0.030150317 0.2917801 -0.171792
0003f0 8f 15 ae 3b 9c a8 de be 78 97 70 3e d5 b9 f9 3a
       0.0053126286 -0.43488014 0.2349528 0.0019052575

bias_ih_l0 f4 [200]
000000 04 da 08 bb 40 ee 86 3e 3f e7 b3 3d 23 5a 71 bd
       -0.00208819 0.26353645 0.08784341 -0.05892385
000010 a2 a3 8c bd c6 f5 32 3e 72 01 42 3e e7 be 0b 3d
       -0.06867148 0.17476568 0.18945864 0.034117606
000020 81 5a cf bc ab d7 0e 3e b4 e5 91 3e 44 d3 4f be
       -0.02531171 0.13949458 0.28495562 -0.20295435
000030 91 ea e9 ba ec ff e3 3c ed a5 8d 3e e4 39 18 3e
       -0.0017846395 0.027831994 0.27665654 0.14865834
000040 23 b5 99 3d 2f d5 77 3d e5 85 c8 3d 8b 8f 00 3e
       0.07505252 0.060506042 0.09791163 0.12554757
000050 b2 7f 6d bd 11 60 f3 3c 4d 0f 0b 3e e3 3b 88 3e
       -0.057983108 0.029708894 0.13580056 0.2660819
000060 04 3e 33 3e 74 90 3c 3e 1d 3a 08 3e 56 e8 07 be
       0.17504126 0.1841448 0.13303418 -0.13272223
000070 76 28 b2 bb 5b ca a2 3d 05 93 f9 3d 63 08 8c bc
       -0.005436952 0.079487525 0.12186245 -0.017093843
000080 b9 e4 a3 3e d3 85 44 bd 15 eb 58 3e 8e 75 47 3e
       0.3201044 -0.047979187 0.21183427 0.19478437
000090 29 bd 58 3e 4d cc c4 3c 5c ae 5a bd ba 2f 65 3e
       0.21165909 0.0240232 -0.05338894 0.22381487
0000a0 a8 68 bb 3d c4 0e f0 3b 6b 58 93 bb 59 e6 2a be
       0.09150821 0.007325979 -0.004496624 -0.16689433
0000b0 71 cf bc 3e 18 8a 42 3e 0a 74 bd 3e 0d 40 e7 3d
       0.36877015 0.18997991 0.37002593 0.112915136
0000c0 46 d2 38 bd ce c2 69 3e 98 3f 6f 3b 0a 8e d6 be
       -0.045122407 0.22828218 0.003650641 -0.41905242
0000d0 9a 5f 9c bb c1 c5 b4 be f6 fc 31 be cc fb ee bc
       -0.004772139 -0.35307124 -0.17381653 -0.0291728
0000e0 15 6c 19 be f3 bc fe 3c 58 8d 2d bb 84 cc 2f 3e
       -0.14982636 0.031095957 -0.0026481953 0.1716786
0000f0 82 e4 9b be 25 ee 39 3b fc 9d 1f be f0 52 c7 bd
       -0.30447775 0.0028370705 -0.1558761 -0.09732616
000100 10 fe d2 3d b6 1e d3 3d 23 9f 4b be 3c be 37 be
       0.10302365 0.10308592 -0.19884925 -0.17943662
000110 42 2e d5 bc 8d bf 51 be fb 1f e0 3d 20 a6 ed bd
       -0.026023034 -0.20483227 0.109436 -0.116039515
000120 39 4c 84 bc 58 cc bc bd 6a 24 87 be 8e 42 65 3d
       -0.016149627 -0.09218663 -0.2639497 0.055971675
000130 20 f8 c0 bd 29 94 e1 3c ef a4 7f bd fe 01 7f 3e
       -0.09422326 0.027536469 -0.062413152 0.24903104
000140 b6 8e c9 3d 11 ba 92 bb 00 ee 7d be fa 79 9e 3e
       0.09841673 -0.0044777473 -0.24797821 0.30952436
000150 7f 43 2c be 7d 0f 35 bf 4b 99 3b 3e c8 63 86 be
       -0.16822623 -0.7072676 0.18320195 -0.26248002
000160 5b 8a a0 3e 05 5e 25 bf 23 ae 2c be 50 2e 93 3d
       0.31355557 -0.6459659 -0.16863303 0.07186568
000170 98 e3 fc bc 83 fa 60 be 50 3a ea be b0 42 2b 3d
       -0.030870244 -0.21970563 -0.45747614 0.041811645
000180 88 f8 a1 be f0 95 28 bd 53 2c ec bc ec 27 e1 be
       -0.31634927 -0.041158617 -0.02882973 -0.4397577
000190 08 08 2d 3e 7e bc bf 3d 10 5f 17 3e b2 71 5b 3e
       0.16897595 0.09362124 0.14782357 0.2143009
0001a0 e5 87 8c 3d cf 09 1d bd 69 90 63 3d 64 ee 8a 3d
       0.06861857 -0.038339432 0.055557642 0.06783751
0001b0 f5 65 8c bd 61 7f 18 3d 3c f2 9f 3d d2 f0 80 3e
       -0.06855384 0.037230853 0.078098744 0.2518373
0001c0 a6 c3 0a bc a4 ed 21 be b7 31 26 3e 92 3d 74 3d
       -0.008469498 -0.15813309 0.16229902 0.05962903
0001d0 a7 c2 e5 bc d2 a0 43 3e c7 26 0c 3d ec ed 01 3e
       -0.028046919 0.19104317 0.03421667 0.12688416
0001e0 fc 5a 91 bc ba 64 0d 3e ab 46 1b be 06 c1 ac 3d
       -0.01774358 0.13807955 -0.15163676 0.08435254
0001f0 98 4d f0 bd 62 81 a2 bd 73 43 91 bd bf 2d 1f be
       -0.1173355 -0.07934834 -0.07092943 -0.15544794
000200 8b ba b2 3d ab 45 2c be ff e9 00 be f8 aa d5 bd
       0.087269865 -0.16823451 -0.12589262 -0.10433
000210 2d 82 31 bc e9 51 b4 bd 73 13 0b be 9d f4 06 bd
       -0.010834259 -0.088046856 -0.13581638 -0.032948125
000220 55 35 df bd 07 df 2a 3d fe 78 37 bc 0d bb 2f 3e
       -0.10898844 0.0417166 -0.01119828 0.17161198
000230 6d 70 3d 3d c5 16 0d be 8e 6e 4e 3d 14 21 bb 3d
       0.046249796 -0.13778217 0.050398402 0.091371685
000240 10 f9 34 3c 92 d4 89 3d f3 f7 55 3b c0 34 bd 3a
       0.011045709 0.06729998 0.003264901 0.0014435276
000250 db a1 50 3e 7a ed 26 bd 64 a1 cc 3d b7 e8 72 3e
       0.20374243 -0.04075382 0.0999172 0.23721586
000260 90 48 1f 3e 9d d3 f6 bd 03 f2 2f 3d b2 b6 39 3e
       0.15555024 -0.12052081 0.04295541 0.18136099
000270 2e e9 a4 3e aa 2d 9d 3e 27 5f 43 3e 63 19 89 3d
       0.32209152 0.306989 0.19079266 0.06694295
000280 5b 6a d6 3e 3c 1a 8a 3d 31 ec 81 3e 98 07 5b bd
       0.41878018 0.06743285 0.25375512 -0.05347404
000290 c0 54 85 3d 91 d9 1d 3e 94 45 35 bd 6a 66 77 bc
       0.065103054 0.15415026 -0.044255808 -0.015100101
0002a0 25 a2 0f 3e 10 91 75 3e de 99 6a 3e 97 0d 89 3c
       0.14026697 0.23981118 0.22910258 0.016730113
0002b0 36 e3 d8 bb 38 db 33 3e c8 c6 b5 bc 5f 94 db 3e
       -0.0066188825 0.17564094 -0.022189513 0.42886636
0002c0 92 d7 c1 3e 53 61 fe 3d 2d 0c 0c 3e 23 c2 5e 3e
       0.3785978 0.12420907 0.1367652 0.21753745
0002d0 bc 08 1d bd 0a 5e 73 3e 06 a6 20 3e 5f a6 81 3e
       -0.038338408 0.23766342 0.15688333 0.25322244
0002e0 09 f4 1f 3e d9 d8 83 bc 76 41 82 3e ae 4d 2e 3e
       0.15620436 -0.016094612 0.25440568 0.1702182
0002f0 dc 11 b3 3c 5a 09 cc 3e 4d a5 a5 bd 21 c4 d5 3d
       0.021859102 0.39850885 -0.08088169 0.10437799
000300 65 d8 bb 3a 53 bd ad bc 05 bf ec 3e a0 f8 d5 3c
       0.0014331458 -0.02120844 0.46239486 0.02611953
000310 04 84 46 3e c4 15 be 3c cd 97 38 3e 7f 12 a4 3e
       0.19386297 0.023203738 0.18026657 0.3204536

bias_hh_l0 f4 [200]
000000 eb de 5b 3e ad b0 43 3e 90 88 d5 3d 97 05 0a 3d
       0.21471755 0.19110365 0.10426438 0.033696737
000010 6f ed d1 3b 5d 70 18 3e bc b8 2e 3e d9 5e 36 be
       0.006406478 0.14886613 0.17062658 -0.17809619
000020 78 00 9f 3d b0 bd c1 bc 2b a7 5e 3d be 6c 19 bd
       0.07763761 -0.02365002 0.054358643 -0.03745722
000030 b5 4b 72 3e 6c 54 af 3c 93 c5 5e 3e 87 c6 29 3e
       0.23661692 0.02140256 0.21755056 0.16579638
000040 71 d1 89 bd 4a 33 81 3d ab b9 8e 3e cb 71 bc 3d
       -0.06729401 0.06308611 0.27876028 0.09201392
000050 47 e3 0a be ff 99 aa bd b9 9a 84 3d 08 c2 38 3e
       -0.13563262 -0.08330154 0.064748235 0.18042767
000060 57 57 aa 3e 19 d3 6b 3e 82 e1 f3 3d 75 59 56 bc
       0.3326976 0.23029746 0.119082466 -0.013082852
000070 6c 57 89 bd d8 b7 f3 3d c1 7a 4a 3e ea 4f ef bd
       -0.067061275 0.119003 0.1977339 -0.11685164
000080 7c 97 1a 3e 21 a9 02 3e da 95 50 3d 06 e2 ab 3d
       0.15096849 0.1275983 0.05092416 0.0839272
000090 13 20 1d 3d 8a 06 90 3e d8 4c 90 3d c1 42 b1 3e
       0.038360666 0.2812999 0.07045907 0.34621242
0000a0 82 62 1c 3e 05 f6 12 3e 59 3b a8 bd 98 54 e5 bc
       0.15271953 0.14351662 -0.08214445 -0.027994439
0000b0 c4 40 ac 3e 64 94 92 bc f9 c4 40 3e 4a c7 4d 3e
       0.33643162 -0.017893024 0.18825139 0.20095554
0000c0 f6 16 bc bc ce 65 56 3e 98 ab 46 3e 86 e6 03 bf
       -0.022960167 0.20937273 0.19401395 -0.51523626
0000d0 ef a1 01 3d c1 45 83 be c1 96 e3 bd ca 5c 82 bd
       0.031648573 -0.25639156 -0.111127384 -0.06365354
0000e0 3a 0c ab 3c 96 f3 ca 3d bd 59 3a 3d b6 2e 96 3e
       0.020879854 0.099097416 0.045495737 0.29332513
0000f0 0f 48 3f be d1 0f 08 3e d7 67 a8 be 1b 53 b2 bd
       -0.18679832 0.13287283 -0.32891724 -0.08707257
000100 4d fc ce 3d d3 66 a5 3d 88 b3 56 bd 6c 42 ed bc
       0.10106716 0.08076253 -0.052417308 -0.028962336
000110 6f 31 b8 3c 84 17 9b be ac 64 c1 3d 82 bc 4b 3d
       0.02248451 -0.30291378 0.0944303 0.049740322
000120 4e f6 27 be 23 9b f9 bd d2 a6 c7 be dc 9f 97 3d
       -0.16402552 -0.12187793 -0.3899446 0.07403538
000130 3d b4 af be 9f f8 fd 3c dd 49 8c bc 55 42 7f 3e
       -0.34317198 0.03100234 -0.017125065 0.24927647
000140 30 62 ba bd a6 c7 1d be bc 1d 7e be 63 95 bb 3e
       -0.09100759 -0.15408191 -0.2481603 0.3663741
000150 65 9b 35 be e5 2c ed be 55 a0 01 3e 88 3c 7d be
       -0.1773506 -0.46323314 0.12658818 -0.24730122
000160 db 12 9e 3e b5 aa cb be 41 b4 74 bd c7 4e 0d 3d
       0.3087376 -0.39778677 -0.059742216 0.034498956
000170 3b 7d 48 3d da 9f a5 bb e1 18 f7 be 13 36 2e 3d
       0.048947554 -0.005054456 -0.4826117 0.042532038
000180 72 f9 9b be 5c a0 4d 3e bd 06 12 be 51 02 e2 be
       -0.3046375 0.20080703 -0.14260383 -0.44142392
000190 0b 9e c3 3d a1 58 62 bc 28 c3 53 bd f8 c9 a2 3d
       0.09551629 -0.013815076 -0.051699787 0.07948679
0001a0 c5 f3 09 be f2 70 11 3e 9c 25 c5 bd 11 13 39 3e
       -0.13471897 0.14203241 -0.09626314 0.1807368
0001b0 e8 4b 6a bd 63 e3 64 bd e2 cf c4 3d 5e 67 12 3e
       -0.057201296 -0.055880915 0.09609963 0.14297244
0001c0 11 8d bb 3c a5 11 f2 bd f0 56 99 3e 0b c2 40 3d
       0.022894414 -0.11819772 0.2994914 0.047060054
0001d0 0c 4a 97 3c 89 a5 14 3d a8 76 b4 3d d3 ae 46 3d
       0.018467925 0.03629068 0.088116944 0.04850657
0001e0 f5 1d 0e be d3 2b 09 3d 3c ea 21 be 3b 45 16 bd
       -0.13878615 0.03348906 -0.1581201 -0.036687117
0001f0 c3 71 95 be e8 13 a6 bd 1a f8 b7 3d 77 93 b2 bc
       -0.29188356 -0.081092656 0.089828685 -0.021798832
000200 1c 63 8b 3e d0 2d d5 3d 4b 92 40 be ee d0 15 be
       0.27224052 0.10409129 -0.18805806 -0.14630482
000210 8d 6e 3a 3e fc fc 12 3e cd d1 0f be 54 ff de bd
       0.18206234 0.14354318 -0.14044876 -0.10888544
000220 48 03 94 bc 16 66 a1 3d 9e 63 fd bc 34 53 2e 3d
       -0.01806797 0.078807995 -0.03093129 0.042559817
000230 c2 ce d2 3c 59 b8 49 bd 54 be 98 bb 81 82 55 3d
       0.025733355 -0.049248073 -0.0046613608 0.05212641
000240 dd 19 44 bd ce 9f 38 3e b5 af 1d 3e c4 86 7e bd
       -0.047876228 0.1802971 0.15399058 -0.06214024
000250 38 75 7f 3d fe 63 ae bd 49 b8 4c 3e d0 c4 3b 3e
       0.062367648 -0.08515166 0.19992174 0.18336797
000260 ce a7 4e 3e 72 b3 4a ba 17 18 cc 3d 41 32 45 3e
       0.201812 -0.0007732428 0.09965532 0.19257452
000270 c2 86 42 3e 82 b2 e2 3d 95 77 8d 3d c6 2a 26 3e
       0.18996719 0.11069204 0.06907574 0.16227254
000280 e1 d1 74 3e 10 7c 51 bd 7b 6d c8 3e 44 20 17 bd
       0.23908187 -0.051143706 0.39146027 -0.036896005
000290 44 5a 9b bd 61 e9 25 bd cd 70 45 bd f5 8d f2 3d
       -0.07585576 -0.04050577 -0.04820328 0.118434824
0002a0 11 21 47 3e 86 90 1e 3d 9d 88 29 3e a7 a0 42 3d
       0.19446208 0.038712047 0.1655602 0.04751649
0002b0 56 18 e2 bc b5 78 b2 3e a3 87 25 3d 3b 58 a9 3e
       -0.027599495 0.34857717 0.040412556 0.33075127
0002c0 1a ca f6 3e 49 79 5b 3d 9b 8d 68 3d 5e d1 7a 3d
       0.48201066 0.053582463 0.05677567 0.061234824
0002d0 75 0f e8 3d 3c 4c 9c bc 85 5e 94 3e c0 be 6c 3d
       0.11331073 -0.01907932 0.28978363 0.0577991
0002e0 91 a9 93 3e d7 64 c9 3d 13 f2 0a 3e fd 4f 75 3e
       0.28840306 0.09833687 0.13568906 0.23956294
0002f0 1a 00 ab bc 45 f8 ca 3e 29 49 94 bc 95 cd 34 3c
       -0.020874072 0.3964254 -0.018101292 0.011035343
000300 b1 e2 ee bc ca 9c 88 bd 33 3e 85 3e c0 94 3a 3d
       -0.02916083 -0.0667053 0.26024017 0.045552015
000310 33 1d a6 3d ad e1 d4 3d 90 49 e4 3d 5a ee da 3e
       0.08111038 0.10394607 0.111468434 0.42759973

weight f4 [50, 50]
000000 52 e9 a0 bd 17 31 8c bd ab 8e fb bc ad e5 a8 3d
       -0.07857002 -0.06845301 -0.030707678 0.08246932
000010 fb c3 5f be 8f e4 1c 3e 6f 92 68 3e da 63 18 be
       -0.21852104 0.15321563 0.2271211 -0.1488184
000020 1e d0 cc bc 9d c6 ec bd fe 6f 85 be 86 f8 78 3d
       -0.025001582 -0.1156132 -0.26062006 0.060783885
000030 1f 62 47 3e e5 de 18 bd a7 83 6e 3e cd af 69 be
       0.19471024 -0.037321944 0.23292409 -0.22820969
000040 59 76 e1 3d 66 a5 51 3e 01 70 2a be aa 6e 10 be
       0.11008901 0.20473251 -0.16644289 -0.14104715
000050 36 db fb 3d ad 18 43 3c 79 ae 6a 3e d2 f9 05 be
       0.122976705 0.011907739 0.22918119 -0.1308358
000060 9d 23 aa be fe 5c 62 3e 7b ca a8 bc 15 05 6a bd
       -0.33230296 0.22105786 -0.020604363 -0.057133753
000070 2e a8 b3 bd 5e 78 3a be 3f 82 0f 3e 41 f1 41 3d
       -0.08772312 -0.18209979 0.14014529 0.04734922
000080 5a 1d 3b be 0f 72 cf 3c 1b 76 68 be bc a7 8d 3d
       -0.18272915 0.025322942 -0.22701304 0.069167584
000090 90 be b0 bd d1 a4 ab 3b 33 a4 69 3e 09 7c 0f be
       -0.08630097 0.0052381535 0.22816543 -0.1401216
0000a0 31 d0 32 be bc 39 35 3e 87 16 3f bb 0c af 69 be
       -0.17462231 0.17697805 -0.0029157714 -0.22820681
0000b0 da 42 59 3e 26 0d c4 3d f4 ef 75 3c 83 a0 a1 3d
       0.21216908 0.0957282 0.015010823 0.07891943
0000c0 2b 71 76 3e aa 21 cf 3d 53 20 94 3e ea 2f db 3d
       0.24066608 0.10113843 0.2893091 0.10702498
0000d0 0c 19 c3 be b5 8e 92 be 1d 54 1f 3e 93 c0 e7 3e
       -0.38105047 -0.28624502 0.1555943 0.4526411
0000e0 3c e7 24 bd ad b5 06 3e 09 33 c6 3e 55 85 1d 3f
       -0.040259585 0.13155241 0.38710812 0.61531574
0000f0 34 24 22 bd e0 ae a4 be 00 ed 84 be cb 5a cd be
       -0.039585307 -0.3216467 -0.25962067 -0.40108332
000100 7e e7 68 3b c3 73 e3 bd e5 c6 9b 3e fb 39 85 3d
       0.003553837 -0.11106064 0.30425182 0.065051995
000110 6a 56 31 bd 4d 4a c7 3d 5c c2 2d 3e 7f 56 64 be
       -0.0432953 0.097309686 0.16968673 -0.2229862
000120 0a 3a 02 3e 26 a9 d5 be 53 4c 8e bb 2a 1f 57 bd
       0.12717453 -0.41730613 -0.0043425946 -0.052519955
000130 f2 ec 98 be 39 d6 18 3f e8 db b7 be 8c 68 21 3f
       -0.29868275 0.5970188 -0.35909963 0.6305015
000140 e9 94 e0 3e ea 58 1a bd 46 d0 c0 3c 15 33 c3 be
       0.4386361 -0.03768245 0.023536813 -0.3812491
000150 02 50 43 3e e7 e8 86 3d 14 4a e2 3e a8 48 72 bd
       0.1907349 0.06587391 0.44197142 -0.05915132
000160 36 99 6a be e7 6e 7d 3d 47 64 1a 3e d9 a3 b2 be
       -0.22910008 0.061873343 0.15077315 -0.3489063
000170 6d 27 d7 be 1a 46 34 3e 99 1d 02 3e 4e f2 c0 be
       -0.42022267 0.17604867 0.12706603 -0.37684864
000180 e9 da 52 be e2 24 02 be f7 0c 79 3e 05 80 b3 bc
       -0.2059132 -0.12709382 0.24321352 -0.02191163
000190 3d 9f ac bb 5a e9 7f 3d 75 f6 08 3e 32 2f 3f 3e
       -0.005268006 0.0624784 0.13375266 0.18670347
0001a0 dd 47 10 3e cf 08 04 3d d0 09 9f be 20 de 15 be
       0.14089914 0.032234963 -0.31062174 -0.14635515
0001b0 56 16 04 be 39 41 f5 3d fc 89 59 bd 54 9b 12 3e
       -0.12899145 0.11975331 -0.053110108 0.14317065
0001c0 f7 cc 92 bd 00 94 55 3e aa da 3b be 28 83 48 bd
       -0.07168 0.20857239 -0.18345132 -0.048953205
0001d0 30 fa e9 bd 2a c3 44 3e 97 c6 80 3e c2 f5 51 bd
       -0.114246726 0.19215074 0.25151512 -0.051259764
0001e0 33 c6 40 3e f5 98 e0 3d c7 b1 de bb 73 a3 60 be
       0.18825607 0.10966674 -0.006796095 -0.21937351
0001f0 09 61 c1 be 8c 56 ac bd 84 3b 82 3e 09 9e c9 3d
       -0.37769344 -0.08414945 0.25436032 0.09844596
000200 bc 54 4f be 26 12 0c be 8a fb d3 bd fb 20 55 be
       -0.20247167 -0.13678798 -0.10350712 -0.20813362
000210 97 c9 54 3e 61 09 ea bd 69 6a 1b 3e 10 ee ec 3d
       0.20780025 -0.1142757 0.15177311 0.11568844
000220 18 df 31 be b8 fd 02 3d 5f 05 0f be 6c 9d bb be
       -0.1737026 0.031980246 -0.13966893 -0.3664354
000230 ff ed b6 3e 9c e6 30 be 1b 52 5d be f1 97 3a be
       0.35728452 -0.1727547 -0.21613352 -0.18222024
000240 24 c5 01 3e 9c af 9d 3b 21 7e ab be 02 09 0d be
       0.1267286 0.004812194 -0.33494666 -0.13772967
000250 b7 02 29 be 3b 5e 22 be 6d f7 40 3e 0d d5 0c bf
       -0.16504942 -0.15856259 0.18844385 -0.5501259
000260 7d 92 28 bc ba c3 f1 bc 6a 3a 5b bd 94 5c 09 3f
       -0.010288832 -0.029512275 -0.053522505 0.5365689
000270 4b 53 da be 3b ad f9 3d b8 a7 85 3e d7 cd 9b 3d
       -0.42641672 0.12191244 0.26104522 0.0760762
000280 03 a4 82 be 2e f4 eb be 79 40 6e 3b 26 d3 4f be
       -0.25515756 -0.46084732 0.0036354347 -0.2029539
000290 39 e9 c4 3d ec c8 99 be c8 99 d4 3e c9 14 a3 3d
       0.09614796 -0.30036104 0.41523576 0.07962949
0002a0 5f 3b 44 3e b9 0d 2d bd db ff 57 3d e0 e0 07 be
       0.19163273 -0.042249415 0.052734237 -0.13269377
0002b0 0d ab 54 be 74 30 11 be 52 60 d7 3c 84 51 5d 3e
       -0.20768376 -0.1417864 0.026291046 0.21613127
0002c0 d1 18 a6 bd 15 32 71 3e 62 52 c7 be f8 c3 45 3e
       -0.08110202 0.23554261 -0.3893004 0.19313037
0002d0 1d 14 43 3e 37 9b 2d 3e 98 2d b7 be c9 64 b5 be
       0.19050641 0.16953741 -0.35776973 -0.35428455
0002e0 81 7a 75 3b 33 4d 96 be f2 32 89 3e 2b 37 52 3e
       0.0037457051 -0.29355773 0.2679668 0.20528857
0002f0 81 b5 96 be 1c 2e 02 be c4 be 20 bd d0 7d 78 3d
       -0.29435351 -0.12712902 -0.03924443 0.06066686
000300 be 4f a5 be 92 39 b9 be af d3 92 be 7a 81 4a be
       -0.322874 -0.36176735 -0.28677127 -0.19775954
000310 55 65 e9 3d 1b be de bc 48 08 a9 be a0 51 b7 3e
       0.11396281 -0.027190259 -0.3301413 0.35804462
000320 5b e4 8b bd 8b 07 44 bd 9e 7b 12 3e 77 c5 a1 3e
       -0.06830665 -0.047858756 0.14304969 0.31595966
000330 38 03 e1 3c fe 09 0a be 29 40 39 3e 91 bb 8d be
       0.027467355 -0.13480374 0.18090881 -0.27682164
000340 c9 b7 b9 bc ad 07 ae bd 04 5a 7c 3c 36 33 88 3e
       -0.022670643 -0.08497558 0.015402321 0.2660157
000350 41 54 34 3e 58 d7 08 3e 9a ab 72 bc 64 9b 8e bd
       0.17610265 0.13363397 -0.014811421 -0.06963232
000360 38 63 2b bd 76 02 b7 3d 56 16 9d bd 3b 3d 1a be
       -0.04184267 0.08936016 -0.07670276 -0.1506242
000370 73 8e 3e bd 0b d6 dc 3d 9d a3 2d 3e 5e 68 c6 3d
       -0.04652257 0.10783013 0.16956945 0.09687875
000380 bf ea 89 be 68 95 b5 bd fa 03 2c 3e e7 33 86 be
       -0.2693691 -0.088663876 0.16798392 -0.26211473
000390 1a 19 43 3e 7a f2 61 be a5 3f 57 be bc f5 64 be
       0.19052544 -0.22065154 -0.21020372 -0.22359365
0003a0 eb 5f f8 3d 8a 1f ac 3e 3c 9a c7 3d 0a 1f ca be
       0.1212767 0.33617812 0.09746215 -0.39476806
0003b0 e2 d2 09 be f0 09 22 be 2c 49 8c 3e 7d 3f 3a be
       -0.13459352 -0.15824103 0.27399576 -0.18188281
0003c0 cd 18 6d 3a 5f 43 8e 3e 6a cf b2 3c 0a f9 1c be
       0.0009044528 0.27785775 0.021827418 -0.15329376
0003d0 02 ca a2 3e b1 be 80 bb 6b 12 98 be a4 29 52 bd
       0.31794745 -0.003928982 -0.29701552 -0.051309243
0003e0 7e bb 8f 3e 41 fb bd bd 0d ef c2 be 0d 05 bc 3d
       0.28072733 -0.092764385 -0.38073006 0.09180651
0003f0 1c 2c c7 3e 6d 14 86 3e 2c f5 8f be a7 e5 bf bd
       0.3890084 0.2618746 -0.2811674 -0.093699746

bias f4 [50]
000000 9c 43 16 bd a2 c3 b9 bd 72 68 79 3c 06 53 97 3c
       -0.03668557 -0.09070517 0.015222656 0.018472206
000010 32 74 78 3d f6 93 6c 3d 8d 4d 0b be cf ea 2c 3d
       0.060657687 0.057758294 -0.13603802 0.04221612
000020 f9 aa 22 3d e7 0e f2 bd 8e 40 ec 3c e9 f6 6f bd
       0.039713833 -0.11819249 0.028839376 -0.05858508
000030 0e 28 dd 3d f2 e5 07 3e e1 b3 bd bd 0d 66 80 3d
       0.107986555 0.13271311 -0.09262825 0.06269465
000040 ac e4 58 3d 4f b2 6f 3d a3 58 a9 3d ca 4d 9e 3c
       0.052952453 0.058519658 0.08268859 0.019324202
000050 e2 03 cd bd d9 7f 48 3d ad 14 12 3c 88 d7 49 bd
       -0.10010506 0.04895005 0.008916062 -0.049277812
000060 e0 62 d1 bd 6d 63 ae bd dc a8 36 bc 7a 87 34 3c
       -0.10223937 -0.08515058 -0.011148658 0.011018628
000070 13 d8 d7 bd ff 7d 81 bd 9a e1 43 bd de ba a4 bd
       -0.1053926 -0.0632286 -0.047822572 -0.080434546
000080 be 70 a6 3d ce eb 88 bd 89 7d 09 3e b0 8b 1f 3d
       0.081269726 -0.06685601 0.13426794 0.038951576
000090 d2 21 1d 3d ce 2c 5d bd b6 ec 91 bd 57 89 a2 3d
       0.03836233 -0.053997807 -0.07125227 0.07936352
0000a0 f8 cb c7 3d 8c 41 da 3c 3e 6f 05 3d 3f a3 b1 3d
       0.09755701 0.026642583 0.032576792 0.08673715
0000b0 6a c9 b9 3d 49 2c cd 3c 3a c2 9d 3d 00 af f2 bc
       0.0907162 0.02504553 0.077030614 -0.029624462
0000c0 3f 92 02 be 7d 58 0b bd
       -0.12751101 -0.034019936

weight f4 [1, 50]
000000 b4 fd d5 be 3a ab b6 3f 00 9a e3 3d 8f 50 b5 3e
       -0.41795123 1.4271004 0.111133575 0.35413024
000010 c7 14 03 bf eb 40 40 bf 4b ed b1 be 75 80 59 be
       -0.5120358 -0.75099057 -0.34751353 -0.21240409
000020 36 d0 12 3d 37 8a 32 3e 15 00 4a 3f 03 b9 66 3e
       0.035843097 0.17435537 0.78906375 0.22531514
000030 ff f2 cb 3d 6a 5f 89 bf 58 c3 18 bd 1e e0 43 3d
       0.09958457 -1.0732243 -0.03729567 0.047821157
000040 12 d1 2e 3c a4 c9 8d bf 6f ee 02 3f ea 85 aa bd
       0.010669963 -1.1077161 0.5114507 -0.08326323
000050 c6 81 8a 3d 7d ba c7 3d 47 94 6a 3c c1 98 96 bf
       0.067630336 0.09752367 0.014317579 -1.1765367
000060 c3 40 10 bf 85 89 c6 3e 05 6e 04 bf d4 4d 24 3e
       -0.5634882 0.38776794 -0.51730376 0.16045314
000070 66 13 61 3e 43 74 11 3f 43 0f e3 bb 8a 14 f3 be
       0.21980056 0.56818026 -0.0069293096 -0.47476608
000080 26 99 2a 3f 4f e1 02 bf ed 3e 9e 3e aa 15 5a 3f
       0.66639936 -0.51125044 0.30907384 0.85189307
000090 2a 4a 55 be b5 8a 06 3f 5f e1 e7 be a7 e6 1d 3c
       -0.20829073 0.525554 -0.45289132 0.009637511
0000a0 eb 5f dc bf 75 e0 4b be bd ad 5a 3e c5 6b 89 3d
       -1.7216772 -0.19909842 0.21355338 0.067100085
0000b0 a6 2c c8 3d a2 dd a1 3e 5e 50 41 3e b8 fb 0e bf
       0.09774141 0.31614405 0.18878314 -0.5585284
0000c0 c5 6e df be b8 10 0f 3e
       -0.43639198 0.13971221

weight f4 [1, 50]
000000 7f 45 42 bd 53 da 9c 3f 30 99 02 be 3d 7d dc 3f
       -0.047429558 1.2254127 -0.12753749 1.722572
000010 af 3e ba be 95 ad 1a bf 5d 19 f2 be ad 6e 07 be
       -0.3637595 -0.60421115 -0.47284976 -0.13225813
000020 b9 c3 04 3e 0e 73 35 3d b7 53 41 3e 2d 26 41 3d
       0.12965287 0.044299178 0.18879591 0.047155548
000030 9f 71 d2 3e 51 d8 2a bf 5f b0 bf 3c c5 56 e2 3c
       0.4110231 -0.6673632 0.02339953 0.027629266
000040 84 c6 1e bc 5a bf c8 bf 56 da ab 3e e2 a9 46 bd
       -0.0096908845 -1.5683396 0.33565015 -0.048501857
000050 04 04 62 3e ec be 87 3d 4f c7 ac be 0a 56 5c be
       0.22071844 0.06628212 -0.3374581 -0.21517196
000060 80 8a 24 bf 3c dc 1c 3f c8 8b 6f bf 9d bb 6d be
       -0.64273834 0.6127355 -0.93572664 -0.232161
000070 42 cb 93 be b6 d9 1e 3e 33 c5 e7 3d c0 0b e9 be
       -0.2886601 0.15512738 0.1131691 -0.45516777
000080 cb c6 20 3f 7f 0c 6f bf cf 5e 33 3e 3c b1 00 3f
       0.62803334 -0.9337844 0.17516635 0.5027044
000090 2a 98 be be 08 5a e5 3d 85 d5 07 bf 64 fe a7 3e
       -0.37225467 0.11198813 -0.5306018 0.32811272
0000a0 71 27 1a bf b5 cb 9b be e7 63 07 3e 23 5c 59 3e
       -0.6021643 -0.30428854 0.13221703 0.21226554
0000b0 ca 82 2a bc f3 f6 37 3e 15 4c 3a 3e 90 83 54 bf
       -0.010407159 0.17965297 0.18193085 -0.8301325
0000c0 a2 0e c3 bd 75 c1 a0 be
       -0.09524275 -0.31397596

weight f4 [11, 50]
000000 69 94 67 bd bc 59 78 bd db da 88 be 70 c1 ff 3d
       -0.05653802 -0.060632452 -0.26729473 0.12488067
000010 c1 fa 3e be 48 75 ff 3c 27 08 98 3d 00 44 b2 bd
       -0.18650343 0.031183854 0.0742343 -0.08704376
000020 dc b5 e3 bd c2 06 1f 3e 6d a2 bf 3d bf 59 9c bd
       -0.11118671 0.15529922 0.09357152 -0.07634305
000030 2c b6 a7 bd 0d aa b7 bd 66 03 4d be a3 6a 1c bd
       -0.081890434 -0.089679815 -0.20020828 -0.038187634
000040 00 90 c1 bd 46 c0 8d 3d cb 63 58 bd 95 e8 f0 bd
       -0.09451294 0.06921439 -0.052829545 -0.117631115
000050 23 3f 23 be f7 c2 b8 3e f0 2f 12 bd 4f 05 aa bd
       -0.15942053 0.36086246 -0.035690248 -0.08301794
000060 07 a1 97 bd 52 e8 11 3d 2d 98 63 bd b5 9d f5 3d
       -0.074037604 0.03562195 -0.055565048 0.11992971
000070 0a 87 2f 3d 42 54 a3 3c 43 42 3e be e8 86 75 3d
       0.042853393 0.019937638 -0.18579964 0.05994311
000080 dd 50 de bd 63 7c b1 bd 0a 4c 05 3e bc 94 ab 3d
       -0.10855267 -0.08666303 0.13017288 0.08377978
000090 b1 0f a8 3d 5a 3a 9d 3d d4 0d 11 bd 12 08 8e bd
       0.08206118 0.07677145 -0.03541358 -0.06935133
0000a0 69 82 e3 3d 2b 82 01 bc 36 07 72 3d 56 c5 b7 bd
       0.11108858 -0.00790457 0.059088908 -0.08973186
0000b0 b0 69 7b bd de c0 99 bb ba 5b be bc 03 b4 1c 3e
       -0.06138009 -0.004692181 -0.023237098 0.15303044
0000c0 6f 89 d7 bd 97 d8 4a be ec 97 6c 3d fa e2 c3 3d
       -0.1052426 -0.19809185 0.05776207 0.09564777
0000d0 39 c3 c2 3d 57 3e 2a 3e 4f da 52 be 62 1b d5 3c
       0.09509892 0.16625343 -0.2059109 0.026014034
0000e0 8a 24 5f 3e 96 a9 55 be 39 1c 58 3e 6d 59 16 3d
       0.21791282 -0.20865473 0.21104516 0.036706377
0000f0 eb b0 9a bc 04 45 47 bd e9 89 58 be 30 eb 09 bd
       -0.01888319 -0.048649803 -0.21146359 -0.033671558
000100 f4 c6 1b be fd 07 f1 3e 79 94 a0 3d 68 79 ab 3d
       -0.15212613 0.47076407 0.07840819 0.08372766
000110 f7 75 21 bc f1 bb 13 3e e6 fb 39 bd a0 e2 97 3d
       -0.009854785 0.14427163 -0.045406245 0.07416272
000120 85 79 14 3e e9 b4 be 3a 0c 11 3a 3d d4 d0 a3 bd
       0.14499481 0.0014549765 0.045426413 -0.07998815
000130 65 be 4c 3e e4 f9 9f bd d0 a8 1d 3e 25 61 98 bd
       0.19994505 -0.07811335 0.15396428 -0.07440404
000140 71 e0 5b 3d d0 58 67 3e 4e 0c f5 bd 52 0b d6 bd
       0.05368084 0.22592473 -0.119652376 -0.10451378
000150 e3 61 46 3d 28 c8 0f 3e 31 a1 d9 be 59 82 9c be
       0.048433196 0.14041197 -0.42505792 -0.30568197
000160 0e 37 4f 3e 9d b0 9a 3e 03 72 e1 bd e5 90 eb 3c
       0.20235845 0.3021287 -0.11008074 0.028755615
000170 ec 0f cb bd 51 9d 1d 3e a7 cc 31 3d 3e fc 87 3e
       -0.09915146 0.15392043 0.043408062 0.26559633
000180 19 f8 16 3e e4 0a 09 be cd 42 8b 3e fb fa 03 3e
       0.14743079 -0.1338306 0.27199402 0.1288871
000190 c9 30 44 be d3 ec 57 be a2 0a 81 3e f7 ae 70 3d
       -0.19159235 -0.21086435 0.25203425 0.05876061
0001a0 ce 9a 84 3d e5 4f 2f 3d 70 a4 fd 3d 84 cd c9 bd
       0.06474839 0.042800803 0.123848796 -0.09853652
0001b0 34 2a a6 3c 00 d3 00 bd d5 56 32 be 4a bc 69 be
       0.020283796 -0.031451225 -0.17415936 -0.22825733
0001c0 50 1d 6a bd 63 38 e2 3c ed 24 5c be a3 45 10 be
       -0.05715686 0.027614778 -0.21498461 -0.14089064
0001d0 e3 98 c3 be d2 b4 b3 3d 70 5e 8a be 8e fb a9 3e
       -0.3820258 0.08774723 -0.27025175 0.33199733
0001e0 87 ef 29 be 07 17 3f 3e 8a a3 3e 3d 11 8e fa bd
       -0.16595279 0.18661128 0.04654268 -0.12234128
0001f0 3a 46 c5 3d 9f 06 f8 3d a3 28 11 be e2 d8 95 bd
       0.09632535 0.12110638 -0.14175658 -0.07316758
000200 20 da 87 be 42 5b 44 be 1d c7 69 3e 3b d7 75 be
       -0.26533604 -0.19175437 0.22829862 -0.24007885
000210 fb 73 22 3e 85 6e e9 bd 4d c7 22 3d 09 2c ef 3d
       0.15864556 -0.11398033 0.03974085 0.11678321
000220 b9 c9 67 bd 00 cc bc bd 29 d5 36 be 6e 23 40 be
       -0.056588862 -0.092185974 -0.17854752 -0.18763515
000230 41 ec 0f be 03 80 a8 3e a3 6a da 3d fa fb c9 bd
       -0.14054967 0.32910165 0.106648706 -0.09862514
000240 d9 14 34 3e 22 07 77 3e 09 d9 88 3e 62 90 77 3b
       0.17586078 0.24123815 0.26728085 0.0037775268
000250 8c 67 8c bc ed cd f3 bd e6 f7 26 bd c1 08 12 3e
       -0.017139219 -0.119045116 -0.040763758 0.14261152
000260 36 32 53 3d 04 0b a3 3d 47 26 9e bd a0 54 21 be
       0.051561557 0.079610854 -0.077221446 -0.15754938
000270 a4 ee e9 bd 3f f3 37 3e 72 07 ab 3d b2 bc 0f be
       -0.1142247 0.17963885 0.083510295 -0.14036825
000280 e2 63 85 bd 43 2c 18 3e 3d ec 00 3e 26 92 20 3e
       -0.06513192 0.14860635 0.12590118 0.15680751
000290 42 80 d6 bd 36 85 ec 3c 9e 1e 9e 3d 48 10 27 3e
       -0.10473682 0.028872114 0.077206835 0.16314805
0002a0 05 c8 d3 3d 4f 89 b3 3d 06 42 50 3d eb e2 a2 3d
       0.10340885 0.08766424 0.050844215 0.079534374
0002b0 54 4a cc 3d 25 fc 24 be 0a 20 09 3d bb 5a 2c 3e
       0.099751145 -0.1611181 0.03347782 0.16831486
0002c0 17 86 cc 3c 5a 8e 10 3d fd 82 87 3d a8 64 15 3d
       0.024966283 0.035292007 0.06616781 0.036472946
0002d0 90 a8 96 bd 9f b4 dc 3b 8b 70 b8 3c e5 33 27 be
       -0.073563695 0.006735399 0.022514602 -0.1632839
0002e0 1d b6 8f bd 7c a2 2b 3e 64 e0 cb 3d 67 f3 df bc
       -0.07017157 0.16761202 0.099549085 -0.027337743
0002f0 0d 81 f5 bd a4 8a 86 3d 7b 9a 07 3d 69 56 04 bd
       -0.11987505 0.06569412 0.03310631 -0.03230897
000300 00 95 c6 ba 8c 76 05 be 6c af 02 3d 1a bc 46 3d
       -0.0015150607 -0.13033503 0.031905577 0.04851923
000310 cf 2c 92 bd eb 83 a9 bd ac ae 05 bd 3e f5 a5 3d
       -0.07137453 -0.082771145 -0.032637283 0.08103417
000320 19 a2 19 3e 43 07 67 3d a9 73 53 3e af c5 30 bd
       0.15003242 0.05640341 0.2064959 -0.043157276
000330 40 f1 2c bd 32 6b 91 3d d6 f6 0b 3e fb 69 4f be
       -0.04222226 0.07100524 0.13668379 -0.20255272
000340 b0 e6 42 3e cf 0c 32 be 2c 4d 95 3b 60 d8 6f bb
       0.19033313 -0.17387699 0.0045563187 -0.0036597475
000350 af 37 44 be 2b 17 cf bc 84 d4 20 3e 99 92 b5 3d
       -0.19161867 -0.025279602 0.15706068 0.08865852
000360 5b 6a 16 3e de db bc bc 32 74 24 3e 06 2f 5e 3e
       0.14689009 -0.02305406 0.1605995 0.21697626
000370 ae 1c b2 be 07 84 23 be f6 f1 3d 3d 42 60 b8 3c
       -0.34787506 -0.15968333 0.04637333 0.022506837
000380 2c a6 6f bd 2a 41 90 3d 8b a8 9a bd 49 b5 21 3e
       -0.058508083 0.07043679 -0.07551678 0.15791811
000390 82 23 e3 be 90 96 ca bd ed 83 aa be 37 18 62 3e
       -0.44363028 -0.09891999 -0.33303776 0.2207955
0003a0 1c 2f 1e be dc b9 0b be 41 38 c9 3e 52 0c 15 3e
       -0.15447658 -0.13645118 0.3930073 0.14555481
0003b0 e3 68 4d 3e 4e 55 84 3e 23 bd 07 bd 6d 7f a3 3d
       0.20059542 0.25846332 -0.03313936 0.07983289
0003c0 a7 b6 8c 3d b8 4f 83 3e 61 fe 92 3e 10 1d 98 3e
       0.06870776 0.25646758 0.287097 0.29709673
0003d0 6d 1b 23 3d ed 7a 66 bd a4 3c f7 3c 33 2e 85 bd
       0.039821077 -0.056269575 0.030180283 -0.065029524
0003e0 40 6c 9d be e2 08 84 3c 58 2a 8c 3e 9d 69 07 3e
       -0.3074665 0.016117517 0.27376056 0.13223882
0003f0 1a 01 57 3d 10 13 4c 3e 4d 70 fb 3d 88 b3 fd bc
       0.052491285 0.19929147 0.12277279 -0.030969396

bias f4 [11]
000000 88 c4 8b 3c 62 55 b7 3d 91 fa 81 3c b7 2b f8 bc
       0.017061487 0.08951832 0.01586655 -0.030294282
000010 6b 35 b8 bc 1a d5 8a 3d b5 fe 9a 3c f4 48 00 bd
       -0.02248641 0.06778927 0.018920282 -0.031319574
000020 4b 79 6b 3d 4b fa 56 3c 95 f6 84 bd
       0.05748872 0.013121198 -0.06492344

weight f4 [1, 50]
000000 ed ce 3d bd 1f aa eb bc bf d9 35 3e 44 c7 1b 3d
       -0.046339918 -0.028767643 0.17758845 0.03803183
000010 ce 16 0f 3e 1a be b6 3d f3 62 2a be 7e af 38 be
       0.13973543 0.08922978 -0.16639309 -0.18035695
000020 28 6f 9b 3e ae 06 89 be 44 98 1a 3e 45 70 82 3e
       0.30358243 -0.2676291 0.15097147 0.2547628
000030 c1 d1 3e 3d 74 d1 82 bc aa 2f c0 bd 06 1a 03 3e
       0.046586756 -0.015969016 -0.09384091 0.12802896
000040 eb 56 31 3e 9a 15 89 bc 24 56 d3 bc 9c b4 b1 bd
       0.17318313 -0.016733933 -0.025797911 -0.08677027
000050 86 08 a7 be 04 48 73 be 8f 9c 63 3d 71 2f 15 bd
       -0.3262369 -0.2375794 0.055569228 -0.036422197
000060 df 0b 4d bb 68 4c e4 3d 26 cd 80 bd 4d 79 44 be
       -0.0031287593 0.11147386 -0.06289129 -0.19186898
000070 e1 ef 91 3e e3 76 f5 bd 92 86 89 3e 2d 38 e1 3d
       0.28503326 -0.119855665 0.26860482 0.10997043
000080 1f d3 83 b9 98 fd 20 bd ce a1 74 3e bc 50 11 be
       -0.00025143565 -0.039304346 0.23889849 -0.14190954
000090 e5 29 8c 3d 23 73 d7 3d 57 1b 12 be 68 1a 62 bd
       0.06843928 0.105200075 -0.14268242 -0.055200964
0000a0 db 26 b8 3c fe 7d 57 3e dc 08 8c 3e 4b a8 bc 3e
       0.022479465 0.21044156 0.2735051 0.36847147
0000b0 7a 41 18 3e 89 d0 10 3d 50 29 33 be 0c c6 05 3d
       0.14868727 0.035355125 -0.17496228 0.032659575
0000c0 28 df 23 be c7 91 af be
       -0.16003096 -0.34290907
