result/models/dw_best.pth (torch, 69033 bytes, 12 tensors)

weight_ih_l0 f4 [200, 9]
00000000: b00f 01be 8444 b9bc 615f 9e3d 10f9 35bd
00000010: d3d0 e23d 5141 03be d562 f0bd aa11 123e
00000020: 464e 75bd fc61 043c fa46 17be 0865 113c
00000030: 0d56 4ebe ce60 fabb d78f 9dbd 0702 85bd
00000040: 72f0 8fbd 019b 3bbe a860 253d ed93 173d
00000050: d22d b1bb 6a3a 633d 012f eabd b605 853d
00000060: 145d 5f3d 4484 d53d 65cf 0e3d 196a a73d
00000070: e610 55bd 1c0d c7bd 8ef8 97bb 9e8a 0fbe
00000080: 1980 b33d a4fb 16bd aa85 033e e46e d03d
00000090: 6487 a3bd cbb4 49bd edcb a7bd 7d70 0bbd
000000a0: 4dfd 723d f132 6dbd f11e 103d c216 9bbd
000000b0: 1e6d fabc adbb 4bbd bca6 e5bd 595c e1bd
000000c0: bb86 32bd e4bf 933d 9315 bb3c 0bb1 44bb
000000d0: 3a4d e3bd b9c7 233e 8103 d03c 3b21 dbbc
000000e0: e2f4 f23d b16a f73d f1f6 1a3e ddac b03d
000000f0: f53f 353d 157f 7b3d bcd7 0bbe da34 e1bd
00000100: 3a9c a43c 99a5 45bd 6ac5 96bd 38b0 e5bd
00000110: 8003 e53c 38e4 593d 62d3 f43c a4c3 1d3c
00000120: fc9f e83d 3edb bf3c c40a 053d 85e6 80bc
00000130: e7f4 44bb 7378 d7bd 095e be3b fef2 983d
00000140: 2d8a 153e 3331 2fbe 5c74 17be acb7 363d
00000150: 5ea6 82bd 925f 13be b9e8 7dbd b404 3ebc
00000160: 23c9 903d f468 3ebe 9a27 cf3d 9733 b3bd
00000170: efb4 1d3a e97c 9cbd be01 ed3c a919 5a3c
00000180: 761a 603d 0d3a 153e e35e c5bd 46ac ad3d
00000190: ae5e 70bd 30b0 b93c a21d 71bd b6cb d1bd
000001a0: 1b89 ea3d 7d89 383e 403d 91bb 5008 bd3c
000001b0: beba 70bd 80cd e1bb 3162 20bc 5332 9e3c
000001c0: 35aa 14bc 2af7 fd3c d68f 9ebd 1993 41bd
000001d0: fbea 2d3d 376f 09bc 6627 e8bc 19b6 81bd
000001e0: 8dab 873c 5f4d 013c e735 913c 7a83 fd3b
000001f0: 63cf 083e dfdf 0d3e cb13 2b3d fe59 c63d
00000200: 8335 85bd d24a a4bc d1bf 8a3d cc3d 203d
00000210: 3d3e d73c befc 7bbd 80c1 d43d 9ea3 ddbd
00000220: 18a1 81bc b320 3b3e b6f2 d63c 0733 083e
00000230: 5ebc d7bd 2ecc aa3d 8726 cebd 2395 5cbd
00000240: bc58 1cbd d7da b8bd ad6c 1bbc 1410 32bd
00000250: 1a09 03be f2b1 d73d 99cb 9cbd 1c42 35be
00000260: b1ca 36bd dcf4 183d 60a9 a43c fcc9 04bd
00000270: 567a 40bd 41ac cb3d 020e 0ebe d534 743d
00000280: 7b46 9fbd 1856 2a3c a09f 7b3c 4510 b2bd
00000290: 9d3f 11be 34be c6bd a255 10be 0769 4c3d
000002a0: 2d7f 8ebd 7958 b8bd c843 84bd 7f81 48be
000002b0: e14d 0fbe 5886 173e b68e 263c e537 83bc
000002c0: acc2 59bb 74df 913d b1a1 cebd 14d8 47bd
000002d0: 4b1c a4bd 07d2 043e 523f ad3d 29e6 42be
000002e0: 7cfd 25bc 4ab4 53bd f0fd 073e c6e6 d53d
000002f0: a005 c43d 584a 8f3c 8ac4 5c3d 8696 273e
00000300: be2e 2d3d fa00 38bc 785b 9c3d 1d29 ebbd
00000310: c5fc 91bb 56eb ff3d 025e 1a3e 7357 ee3d
00000320: bde2 333e ef84 9cbc e46c fa3c bc05 143e
00000330: 6e3a 5e3d 2a8c ff3d df2b 15bd fc8b dabd
00000340: 3e98 f93b 9889 843d bc77 2ebe f8d6 a3bd
00000350: 2b62 903b 15ff b0bd 7f44 113e 047a 09be
00000360: d8eb 8cbd 40ff 69bd 720b 003e e033 e8ba
00000370: 37aa 97bd 6111 2dbc e401 3fbd fc65 1d3d
00000380: f657 063d 7edd 94ba 3866 9cbc e9c2 113d
00000390: 2bbf 203d ecd3 96bd 227b ea3a 4f8e 8ebd
000003a0: dade 4f3c 2608 843c 1475 98bd 99ce 4cbe
000003b0: 8b1b ab3d 0c9f 34be fcc9 c0bd ccf6 223d
000003c0: 65e1 4f3d 980d a43d 0f44 003e d7ec 353d
000003d0: 9ceb afbd 9384 94bd 40b4 f43d 6ea3 86bc
000003e0: cd47 a2bd cc18 26be 96fb 82bd fb5c 22be
000003f0: e3c4 3cbd 648b 0fbd 0099 16bc 2e00 96bd
-0.1260364 -0.022615679 0.07733036 -0.044426978 0.11074986 -0.12817885 -0.11737601 0.14264551
-0.0598891 0.008080002 -0.14773169 0.008874185 -0.20150013 -0.0076409345 -0.07693451 -0.06494527
-0.07028283 -0.18320848 0.04037538 0.037006307 -0.0054070735 0.05547563 -0.114347465 0.0649523
0.054532126 0.10425618 0.034865756 0.081745334 -0.05201807 -0.09719297 -0.0046377843 -0.14017722
0.08764667 -0.036861077 0.12843958 0.10177401 -0.07984808 -0.049244683 -0.08193193 -0.034042824
0.059323598 -0.05790991 0.035185758 -0.075727 -0.03056961 -0.04973953 -0.11213443 -0.11003942
-0.04358552 0.072143346 0.022837436 -0.0030012752 -0.11098714 0.15994157 0.025392296 -0.026749244
0.11863114 0.12080897 0.15133263 0.08626721 0.044250447 0.06140049 -0.13656515 -0.10996409
0.020094026 -0.04825363 -0.073618725 -0.11215252 0.02795577 0.053196162 0.029885951 0.009629164
0.113586396 0.023419973 0.03248097 -0.01573492 -0.00300532 -0.10521021 0.0058095497 0.07468222
0.14603491 -0.17108612 -0.14790481 0.044608757 -0.06379388 -0.14391926 -0.06198952 -0.011597801
0.07069614 -0.18594724 0.10114975 -0.08750074 0.0006016036 -0.07641012 0.028931495 0.013311782
0.054712735 0.14572926 -0.09637239 0.08480124 -0.058684044 0.02266702 -0.05886615 -0.10243933
0.11451932 0.18021198 -0.0044323504 0.023075253 -0.05877184 -0.0068909526 -0.009789036 0.019311106
-0.009073784 0.031001646 -0.07742278 -0.047259424 0.042460423 -0.008388332 -0.0283391 -0.063335605
0.016561294 0.007891982 0.017725898 0.0077366205 0.13360362 0.13854931 0.041766923 0.096851334
-0.06504347 -0.020055208 0.06774867 0.039121434 0.026274795 -0.06152033 0.1038847 -0.10822223
-0.015823886 0.18274193 0.02623878 0.13300715 -0.10533975 0.083397254 -0.10065942 -0.053853165
-0.03817056 -0.090261154 -0.00948636 -0.043472365 -0.1279644 0.10531987 -0.07656021 -0.17701
-0.044626895 0.03734289 0.020100296 -0.03241919 -0.04699167 0.09944964 -0.13872531 0.059620697
-0.07777115 0.010396503 0.015357882 -0.086945094 -0.14184423 -0.09704247 -0.14095166 0.04990485
-0.069578506 -0.0900125 -0.06458241 -0.19580649 -0.13994552 0.14797342 0.010165861 -0.016017864
-0.0033227606 0.071226984 -0.10089434 -0.048790053 -0.08013209 0.12970744 0.08459343 -0.19033112
-0.010131236 -0.05168561 0.13280463 0.10444407 0.095713854 0.017491505 0.05389837 0.16366014
0.042280905 -0.011230702 0.07634634 -0.11482451 -0.0044551813 0.12496059 0.15074924 0.11637773
0.17566963 -0.019106356 0.030569501 0.14455312 0.05425494 0.12477906 -0.03641879 -0.10671231
0.0076170256 0.064715564 -0.17037863 -0.079999864 0.004406234 -0.08642403 0.14186285 -0.13425452
-0.06880921 -0.05712819 0.12504366 -0.0017715655 -0.07405513 -0.0105632255 -0.046632662 0.038427338
0.03279873 -0.0011357514 -0.01909171 0.03558627 0.039244812 -0.0736464 0.001788948 -0.06960737
0.012687409 0.016117167 -0.07444206 -0.20000686 0.08354863 -0.17638797 -0.094135255 0.039786145
0.050752062 0.08010405 0.12525962 0.04441532 -0.08589861 -0.07251849 0.119484425 -0.016435351
-0.07923851 -0.16220397 -0.063956425 -0.15855782 -0.046086203 -0.035045043 -0.0091917515 -0.07324253

weight_hh_l0 f4 [200, 50]
00000000: 9a3d 12bd 0885 993d b98b 903d bc06 fb3d
00000010: 65bd ad3d 265f 203d 674b 8b3b 62e3 94bd
00000020: 9f01 1c3d a2e4 01be 6377 d53d 40d3 e53c
00000030: 2ddd 3abd 4d19 8a3c 4963 9a3c eee4 e8bd
00000040: c290 84bb b9f0 e4bd cdef 64bc b8da 493b
00000050: 9211 f3bd 9a0b eabd 84a9 02be 0e84 2dbd
00000060: 187d 903c 30dc 05be 8ec9 8cbd a5db 843d
00000070: af76 d23d 0dab a2bd 6436 6fbc a56b 033e
00000080: a57f 54bc a1c3 173d 1381 cdbd c054 913d
00000090: c1e4 f63d 7c7b 42bd 614d b3bd de5b e0bd
000000a0: 034b 653c 9706 a03d 5c4f 103e bba9 c63d
000000b0: ce6c 0bbe a602 b53d 8e8a 5fbd 7586 08be
000000c0: 16bf a1bc dd18 9dbc a4e8 a4bc 15e4 2bbc
000000d0: b8d3 d43d b0e0 e6bd 2d33 2cbe 0062 233c
000000e0: 385d 42bd fb96 d03d c624 f9bd f7d3 debd
000000f0: ac14 d03d 8bf3 c6bb 8a17 ec3c 32ab fcbd
00000100: fe20 f03d 6a55 ab3d 7007 adbd 36d0 90bd
00000110: da0b 303c ad01 ae3c 7abe 2d3d aee4 52bd
00000120: d2c2 a3bc a191 56bd 3e2c acbd cc48 dabd
00000130: 7707 033e 71c6 243e 4230 d0bd 3726 ba3c
00000140: 369a 933d a2b2 0abd 7d1a 253e 3435 e1bb
00000150: c1dd f6bd ffa3 d23d a6ac 6f3d b3c4 42bd
00000160: 3f66 423d a63d 993c 0420 36ba d7cf 253d
00000170: b186 823d b951 1f3e 78d7 403d 69fd 84bd
00000180: e59a bc3d 01f3 81bd 2da9 eabd a9ec 09be
00000190: 7eed 593d 6cf3 8e3c 814d dfbd 7a7c 84bd
000001a0: e7c0 063e b808 8f3c a125 9ebd 24ed 85bd
000001b0: 7007 293b b42c f43c ab79 0bbe 1595 1f3d
000001c0: 568b 113d 3536 86bd 2acf 64bd 6403 2cbe
000001d0: 2581 5f3d c394 463d 26f1 113e fe5e cdbc
000001e0: a4db 49bd ee23 fcbd d158 e9bd b213 0fbe
000001f0: 91c9 e53d a924 d4bd 0c16 103e c067 c738
00000200: 21c6 9c3d 0080 efbd 440b febd 01dd f23c
00000210: 59dd cdbd 2059 f2bd 850e cc3d 32d8 e2bd
00000220: c49c 063e 806d 023e 5837 313b 7dc5 c13c
00000230: 8405 aebd 9a1a 0c3c 8ca3 f8bd ded9 8a3d
00000240: 2ef2 0abd d541 6a3d aaa4 83bd 590a 1b3d
00000250: e631 53bd 5620 06bd 4bac f7bd b87e d2bd
00000260: 5783 bdbc 7cf0 863d d047 b0bd 8643 f23c
00000270: 59e4 13be d038 4abc c825 24bc d956 323d
00000280: 18af d9bc 0b9b c9bd 0ca4 92bc 5fb1 dcbd
00000290: 6f7f ebbd a8be 5fbd cc08 c2bd 9cd2 babd
000002a0: 29a5 b83d a795 a8bc 77a9 813d a03a f63d
000002b0: 4c7a a8bd bf85 20bb 1c81 ab3c 9c1e 903d
000002c0: 9191 c73d 4380 1d3e c578 c1bb 7e23 cb3d
000002d0: fa73 abbd 19f7 24bd b1a2 9b3d 382a 403d
000002e0: cee3 f4bc 5447 eabd 5f07 773c a7f1 5f3c
000002f0: 9e23 983d 08b1 19bd a4a0 a13d fead 4c3c
00000300: 6ac9 aabd cffe 8fbb 1a19 7b3d 8eab debd
00000310: 25d7 e53d af3d 343c 75dc f93d d620 9c3d
00000320: 341a 5c3c a0e1 d73c de0e e93c c40c c5bd
00000330: 6531 e8bd f853 ecbd 5d56 58bd 73fd d83d
00000340: cffe a93d 8431 b6bd 00db 0cbd 066b 393e
00000350: 65a5 9cbd 01f9 a4bd 0928 873d 096a cabd
00000360: 76b9 703b f161 fabd 169f 393e 57f8 d1bd
00000370: 615b e23d c24a fe3d f0a3 dc3d 946b dc3d
00000380: 1a81 953c 26cb 83bd a255 ddbc b6c5 8dbd
00000390: fb83 b9bd 2dec 933d 2583 253c b41a aa3d
000003a0: 2c5a 4cba 2846 073e 008d 09be 52d9 193e
000003b0: c2c0 02be 36de 68bd b717 c73d cd9e b83c
000003c0: c188 55bd cf90 83bc 5d64 23be ced1 7cbd
000003d0: da32 a4bd 0c13 5c3d af41 c5bc ebdd b63d
000003e0: d2c9 afbd 84ab d4bc 2183 ae3d 1e22 a3bd
000003f0: c738 c93d 64b1 663d ab43 7cbc a09a 6ebd
-0.03570328 0.07496077 0.070579 0.12257144 0.0848339 0.03915324 0.004250932 -0.07269932
0.038087483 -0.12684873 0.10423162 0.028054833 -0.045621086 0.016857767 0.018846171 -0.1137179
-0.004045577 -0.11178727 -0.013973189 0.0030800533 -0.11868586 -0.11427994 -0.12759978 -0.042362265
0.017637774 -0.13072276 -0.06874381 0.06487206 0.10276543 -0.079427816 -0.01460037 0.12834032
-0.012969886 0.0370518 -0.100343846 0.07096243 0.1205535 -0.047481045 -0.08754993 -0.10955022
0.013994935 0.07813757 0.14092773 0.09700342 -0.13615724 0.08838396 -0.054575495 -0.13332541
-0.019744437 -0.019176895 -0.020130463 -0.010491391 0.10391945 -0.112733245 -0.16816397 0.0099720955
-0.04745218 0.10185047 -0.12165217 -0.10880273 0.10160193 -0.006071513 0.028819818 -0.123373404
0.11725043 0.08365901 -0.08448684 -0.07070963 0.010745013 0.021241033 0.04241798 -0.051487617
-0.019990359 -0.052384976 -0.08406876 -0.10658416 0.12795816 0.16091324 -0.101654544 0.0227233
0.07207148 -0.033861764 0.16123386 -0.0068727974 -0.12054015 0.10285186 0.05851426 -0.04755087
0.04746079 0.018706154 -0.000694752 0.040481415 0.063733466 0.15558518 0.047080487 -0.06493647
0.09209231 -0.063451774 -0.11458049 -0.13469185 0.053205006 0.017450057 -0.109034546 -0.064690545
0.13159524 0.017460212 -0.07722021 -0.065393716 0.0025791787 0.029806472 -0.13620631 0.038960535
0.03553327 -0.06553308 -0.05586163 -0.16798168 0.05456652 0.048481714 0.14252147 -0.02506971
-0.04928173 -0.123115405 -0.113938935 -0.13972357 0.11220086 -0.10358555 0.1407091 9.5083844e-05
0.076549776 -0.11694336 -0.124044925 0.029646398 -0.10051984 -0.118334055 0.09963707 -0.11076392
0.13145739 0.12737083 0.0027041044 0.02365374 -0.08497146 0.008551264 -0.12140569 0.06779836
-0.033922367 0.05719169 -0.064278916 0.037851665 -0.05156126 -0.03274568 -0.12093409 -0.10278076
-0.023133917 0.065888375 -0.08607447 0.029573213 -0.14442576 -0.012342647 -0.010018773 0.043539856
-0.026572749 -0.09844025 -0.01790049 -0.10776018 -0.114989154 -0.054625183 -0.09474334 -0.09122202
0.09015877 -0.020579172 0.06331151 0.120229006 -0.08226451 -0.0024493781 0.020935588 0.07037088
0.097445615 0.15380959 -0.0059042894 0.09918879 -0.0837173 -0.040274713 0.0759939 0.046915263
-0.029893782 -0.11439386 0.015077441 0.013668454 0.074286684 -0.037522346 0.07891968 0.012492655
-0.08339198 -0.004394389 0.061303236 -0.10872565 0.11222676 0.011001035 0.12200252 0.076234505
0.013433982 0.026352704 0.028449472 -0.096215755 -0.11337546 -0.11539453 -0.052816737 0.105952166
0.08300554 -0.08896163 -0.034388542 0.18107232 -0.07648734 -0.08055306 0.06599433 -0.09883506
0.0036731637 -0.12225712 0.18127093 -0.10252445 0.110525854 0.12416603 0.10773456 0.107627064
0.018250037 -0.06435232 -0.027018372 -0.06922476 -0.090583764 0.07222781 0.010102068 0.083058745
-0.0007795419 0.13210356 -0.13432693 0.15024307 -0.12768844 -0.056852542 0.0972132 0.02253666
-0.05213237 -0.016060261 -0.15956254 -0.061723523 -0.08017512 0.053729102 -0.024079172 0.08929046
-0.08583416 -0.025960691 0.085211046 -0.07965492 0.098252825 0.056321517 -0.015396993 -0.05825293

bias_ih_l0 f4 [200]
00000000: d1fa a13d fab5 343e 915b 123e 08b9 6a3d
00000010: 3696 dd3d ba81 1e3d ff88 27bd 5adf 34bd
00000020: cfa3 b4bd 404b e1bc 952d ab3c 2fc3 b23c
00000030: 827c 163e 7027 c6bd 7b79 92bd 1c0e ce3d
00000040: c2b9 b83c b430 8bbd 2410 123e 8151 323e
00000050: 1f70 953d 3ebc 27bd bbd6 06bd ffb3 68bc
00000060: 9f1e f03d 9f6a 263d 5815 84bd d05e 453e
00000070: 2781 253e e878 4a3e 87c4 8ebd d441 5c3c
00000080: e0d9 d9bc 066c 063d 3053 3f3d 5e69 173d
00000090: 6e92 73bd d8ca e73d 2f38 da3d ae51 a2bd
000000a0: 4960 ebbd 85a8 953d ab84 e93c dbdb 283e
000000b0: 411a 903d 3197 e53d 4b90 073e f2f5 723d
000000c0: dc6a eabd 72d0 91bb 8993 01be 97e3 80bd
000000d0: 2c07 e2ba 31d7 94bd 71f7 bdbd 4521 aa3d
000000e0: 7140 c63c 6068 0dbe dea1 fa3d c66f f2bd
000000f0: c8ca 73bd 59bb 713d 139a 123d 5103 2e3e
00000100: 768e 223e 2a29 b03d 2960 943d a2fe abbc
00000110: 618c dabd 26fc a23d 222f a0bd e12f d7bd
00000120: f22b 8bbc 39cb 773d 37cc a03d d0db 013d
00000130: 8209 51bd 6ebd 14bd 115e 0bbd 4504 bfba
00000140: 723e 73bd d0d7 1c3d 9147 85bc 5f33 3cbd
00000150: ca7f 7fbd 53c3 653d a5fa 8f3d cb69 2b3e
00000160: ea2c 38be ac72 d0bd 5068 bd3d 33d4 a3bd
00000170: b0bc bcbd f404 b8bc f864 11be d76c ebbc
00000180: bd5b 183d 516d 0b3d 2eb3 25bd bcde 1bbb
00000190: 86d0 863d 55cf 19be 70e2 95bd fd6d 413d
000001a0: d583 5cbd ea12 71bd dc87 5bbd e75c ad3d
000001b0: ae7d e5bd 5752 103d 652a 92bd 92c1 4e3d
000001c0: 3a5e ca3c a8a2 113e ba70 e7bb f854 35be
000001d0: 094b 90bd c73a b3bd 31ed ee3d 5fa1 cdbb
000001e0: 419b a43d ad32 d8bd da1f c43d 63f0 f1bb
000001f0: 27b8 c93c 700d 88bc c028 fe3d 5d90 013b
00000200: 7e83 0d3d 5645 eabc 486a 84bd e9d7 a4bc
00000210: 7efd 123d 07e1 093e 13da 80bd e690 b2bd
00000220: 276d 9d3d 3cc3 f93d 6e04 803c 8b2f 993d
00000230: a6fb 023e 7f20 fabc 17eb 89bd 972e 223e
00000240: 6793 b23d c93b d43d 532d 27bc 6dbe 4cbd
00000250: 4fe6 e83c 9872 1dbd 8c32 a1bb 4f89 6fbd
00000260: f8e6 923d 41d7 303d d739 013d b94a e03d
00000270: d5fd 413d d7b0 a3bc 5e8f c3bd 5170 a8bd
00000280: 0fd0 aebd d42c f0bd 8d88 cebd dd6c 393e
00000290: 4f22 de3d e480 883d dbcc 313d 6295 063e
000002a0: 99cc 6e3d fe62 98bd c130 81bd 6cb9 78bd
000002b0: 153c 083c 6c42 433d 6c8c 9c3d 78fd 9cbd
000002c0: 3c5e 083e 8f9b 923d 8a7a 15bd 2cd3 86bc
000002d0: bfbf a23d f1c5 33bd 5b1a 72b8 489a 933d
000002e0: 958c 3d3e 2b72 1c3e f195 f83a 00f6 b4bd
000002f0: bf59 193d ed89 883c cc06 cc3c 2cee c5bb
00000300: e469 633d 275b 223e e940 a53d c88f a83d
00000310: 7995 74bc 300e ff3d 2958 e3bd 5e57 b2bd
0.079091676 0.17647544 0.14292742 0.057305366 0.10819666 0.038697936 -0.040902134 -0.044158317
-0.088203065 -0.027501702 0.020895759 0.021821586 0.14695933 -0.09675491 -0.07152077 0.10061285
0.022549514 -0.06796399 0.1426397 0.17413904 0.07296776 -0.040951006 -0.032919627 -0.014203071
0.117245905 0.040629026 -0.064493835 0.1927445 0.16162549 0.19772685 -0.06971078 0.013443429
-0.026593149 0.032817863 0.046710193 0.03696572 -0.059465818 0.11317986 0.106552474 -0.079257354
-0.11492974 0.07307533 0.028505644 0.16490118 0.070362575 0.11210478 0.13238637 0.059316583
-0.11446163 -0.0044498974 -0.12653936 -0.06293409 -0.0017244569 -0.07267607 -0.09275711 0.08307127
0.02420065 -0.13809347 0.12237905 -0.11837725 -0.05951956 0.05901656 0.035791468 0.16993453
0.15874657 0.086016014 0.072449036 -0.020995442 -0.106713064 0.0795825 -0.0782149 -0.10507179
-0.016988728 0.060496543 0.07851451 0.03170377 -0.051034458 -0.036313467 -0.034025256 -0.0014573416
-0.059385724 0.038291752 -0.016269477 -0.04594743 -0.06237773 0.05609448 0.070302285 0.16739576
-0.17985883 -0.10178122 0.09248412 -0.07999458 -0.09215677 -0.0224633 -0.14198673 -0.028738422
0.037196863 0.0340398 -0.040454082 -0.0023783883 0.065827414 -0.15020497 -0.0731858 0.047224034
-0.053836662 -0.05885593 -0.053596362 0.08464985 -0.11205612 0.035234775 -0.07136992 0.05047757
0.024703134 0.14222205 -0.0070629986 -0.17708194 -0.07045562 -0.08751445 0.116663344 -0.0062753404
0.08037425 -0.10556541 0.09576388 -0.0073833927 0.024623943 -0.01660797 0.12410116 0.0019769885
0.03454923 -0.028597515 -0.06465584 -0.020122485 0.03588628 0.13464747 -0.06291594 -0.087190434
0.07686835 0.12195441 0.015627112 0.07479771 0.12791309 -0.030533073 -0.06734293 0.15838085
0.08719521 0.103629656 -0.010203677 -0.04998629 0.028430132 -0.038439363 -0.0049193557 -0.058480557
0.0717296 0.043174032 0.0315493 0.10951752 0.047361214 -0.019981785 -0.095488295 -0.08224548
-0.08535778 -0.117273 -0.10084639 0.18107934 0.108463876 0.06665209 0.043408256 0.13142923
0.05830059 -0.07440756 -0.06308127 -0.060723707 0.008315106 0.047670767 0.07643971 -0.07665533
0.13317198 0.07158577 -0.036493815 -0.016458116 0.07946729 -0.043889944 -5.772184e-05 0.07207161
0.18510659 0.15277927 0.0018965584 -0.08835983 0.037439104 0.01666733 0.024905585 -0.006040355
0.055520907 0.15855084 0.08069021 0.08230549 -0.014928215 0.12453878 -0.111007996 -0.0870807

bias_hh_l0 f4 [200]
00000000: edb1 873c fb06 e5bc 638d 84bd 50d0 123e
00000010: 0a4e da3d b1dc 86bd c86a 753d abc4 f93c
00000020: 635a e13c 3a60 ed3d 128c 7fbd 6f53 03be
00000030: 893b 243e bce1 89bd ad81 6fbd 6a3e 8a3d
00000040: 1200 013e ac13 bc3d 9b57 213e 13da 3bbd
00000050: 3a6a a2bc 560b 373e 68fd 37bb f7f5 8dbd
00000060: 1dac f03d dddf a53d a349 5fbd 1c0f f03c
00000070: bfce 88bc b1ff d03c 216a 3a3d ce81 b63b
00000080: bc39 85bd a700 8bbd f656 913d a872 abbd
00000090: a040 1a3d d016 f7bc fe1b 90bd 9b7e 283d
000000a0: 2824 86bd c551 053e f938 a83d d456 bd3d
000000b0: 654a cb3d 012d 71bd 1761 16bc 6fd2 8ebd
000000c0: 09c3 c4bc f444 7abd c2f3 e7ba e0bb abbd
000000d0: 620b b4bd 59a1 55bb 0418 213d 21bd c0bd
000000e0: a76f f0bd 6d88 7cbd d689 843d d207 28be
000000f0: 6cb1 8ebd 8690 c13d 2a4e 6bbd 712a c7bd
00000100: bd5d d63d f55e 343e 4127 e2bd 6f37 babd
00000110: 48b6 babd 3c53 98bc 80f2 063e 81db 0b3e
00000120: f375 86bd c886 e53d d58e e33d d412 88bd
00000130: f161 b8bd 42f8 de3d 8a64 8a3b 5b5f 69bd
00000140: 05db da3d 05a5 363d 748d 873b 2a8b b5bd
00000150: bf01 cdbc 8681 603b ae9d 963d b97d c33c
00000160: b210 293d 4f08 f2bc 9670 0bbd 87be 1bbe
00000170: 5d80 8cbd fd47 373e e56d e83d 6ba0 1a3e
00000180: d2e1 d53d 50de 173e c065 0a3d 8fb8 9dbc
00000190: c7f7 173e d5c9 a03d a7d2 913d 91d3 f3bd
000001a0: e542 453d 0598 e23d 3da0 96bd 6508 893d
000001b0: 1f48 c5bc 57e5 033d b23c be3b 64e7 053e
000001c0: 3bdd 9f3d fd41 9c3d 5980 ea3b 6e23 c1bd
000001d0: ccb8 233e 5eac fa3c 70bc fbbc dd7e ce3a
000001e0: 4fab 1f3d e106 c93d 602e f0bd d225 d7bd
000001f0: e613 ea3d fd6d 723c 54ee 04be cf73 d5bb
00000200: b968 803d f3e3 06bd 1e71 19bd f9d2 9b3d
00000210: 0f67 a4bc 2c01 53bd d9f0 b9bd 3ad9 ab3d
00000220: d82a 03bd b75d 07bd d75a 003e 39bf 8dbd
00000230: dce5 d53d 1d35 233d 2ee6 93bd ea70 63bb
00000240: eedc 233d d488 8e3c 8eb3 973c 357e 5cbd
00000250: 9e18 0c3e 0d05 eb3d 6a36 e03d bc96 313c
00000260: a95e 2a3e 0f9e ca3d 297d 1b3e 6ddd f5bc
00000270: 09c3 633d 3cd3 bbbd 5c50 133e 4f49 c03b
00000280: 0a27 ee3b 8577 a23d 306f 91bd fb7a 103d
00000290: 0574 2d3e 91c6 5cbd 7eb4 113e 071c 993d
000002a0: 1773 46bc f033 f33d aa98 e4bb 5568 d93d
000002b0: 276a 153e 956c 113d 5d61 2f3d 3252 323d
000002c0: 3937 0c3e 7d9e f83c 189e f53c 384a d43d
000002d0: b2e9 3e3e 6595 90bc 4024 5dbd b68a ba3d
000002e0: 4d30 93bd e05a 3d3e 6538 b1bd 4051 1fbd
000002f0: 8e26 34bd 198e 753c e449 82bd 5563 363d
00000300: ae15 24bd bcf3 75bc 89a1 04bd e4e2 c3bd
00000310: 850a a73d 5cbc 3dbd 8022 8b3c a4df 6e3d
0.016564334 -0.02795743 -0.0647228 0.14337277 0.10659416 -0.06585062 0.059916288 0.030489286
0.02750892 0.115906194 -0.06238944 -0.12824796 0.16038336 -0.067325085 -0.058473278 0.06750186
0.12597683 0.091834396 0.15756075 -0.04586227 -0.019826043 0.17875418 -0.0028074626 -0.0693168
0.11751578 0.08099339 -0.054513585 0.02930408 -0.016700147 0.025512548 0.04551137 0.005569673
-0.065051526 -0.06787234 0.070966646 -0.08371478 0.037659287 -0.030162245 -0.07036589 0.041136365
-0.06549865 0.13019474 0.08213992 0.09245077 0.09926299 -0.05888081 -0.009178421 -0.06973731
-0.024018781 -0.061100915 -0.0017696547 -0.08385444 -0.087912336 -0.0032597391 0.039329544 -0.094110735
-0.11740046 -0.061653543 0.064716026 -0.16409233 -0.06967434 0.09451394 -0.05744759 -0.09724892
0.10467098 0.17614348 -0.11042643 -0.09092604 -0.09116799 -0.018594377 0.13178444 0.13657953
-0.06565466 0.11207348 0.111112274 -0.06644216 -0.09003056 0.10887195 0.004223411 -0.056975704
0.10686306 0.04459097 0.0041367356 -0.08864434 -0.025025247 0.003425689 0.07354294 0.02386366
0.041275688 -0.029544977 -0.034042917 -0.15209399 -0.06860421 0.17898555 0.11349086 0.15100257
0.104434624 0.14830899 0.033788443 -0.019253043 0.14840613 0.078509964 0.07120257 -0.119055875
0.0481595 0.11064152 -0.07354782 0.06691054 -0.024082242 0.032201137 0.0058055753 0.1307655
0.07805868 0.07629774 0.0071564135 -0.09430586 0.15988463 0.03059977 -0.030729502 0.0015754361
0.038981732 0.09815765 -0.11727595 -0.105052605 0.114295766 0.014796731 -0.1298154 -0.0065140496
0.06269974 -0.032932233 -0.037461393 0.07608599 -0.020068673 -0.05151479 -0.09079141 0.08391042
-0.03202328 -0.033048358 0.12534653 -0.069212385 0.10444233 0.039845575 -0.07221638 -0.0034704753
0.040005617 0.01739923 0.018518236 -0.053831298 0.13681266 0.11475573 0.10947879 0.0108391605
0.16637672 0.098934285 0.15184464 -0.03001281 0.055605922 -0.09171149 0.14386123 0.005868114
0.0072678374 0.07932953 -0.071012855 0.035273533 0.16938789 -0.053900305 0.14229009 0.07476049
-0.0121124005 0.11875141 -0.006976207 0.10615603 0.14591275 0.035503943 0.042817462 0.04353542
0.13692941 0.03034901 0.029982612 0.103657186 0.18643835 -0.017649362 -0.05398965 0.09108488
-0.07186947 0.18491697 -0.086533345 -0.038895845 -0.04398208 0.014987492 -0.0636175 0.044528324
-0.040059738 -0.015011724 -0.032380614 -0.0956476 0.08156303 -0.04632221 0.016984224 0.05831875

weight f4 [50, 50]
00000000: d41e 8d3d c580 eabd a9e5 963d 6e48 ee3d
00000010: d973 373d 1ba7 c73c 13d8 adbd 38b6 213e
00000020: 6cfb 403d b5c8 3dbd fcca df3d 533a d1bd
00000030: 8f99 9c3d a09d 56bd f837 2f3e c732 fe3c
00000040: a5c5 33be 1254 97bc e7f2 ec3c ecba 123d
00000050: a4a9 d4bd 4c61 96bd db87 933d 5846 a6bd
00000060: 6cf1 ebbc 833c cdbd 151b cb3d ee9e fe3d
00000070: 4669 8ebd 3cc9 833d 0b60 25be 3345 853d
00000080: f6c0 11be a443 b53d 83bb f3bd 627c c93d
00000090: 96cb 873d 1c5e 923d 0737 51bd ce2e 7f3d
000000a0: b036 fbbb 021d 903d f8d3 133e 62df b5bd
000000b0: ce2e 53ba 1185 e6bc 3240 20be 9ec5 d23d
000000c0: 950f ed3d d2c0 2e3d cf83 85bd fd0b 1dbe
000000d0: 0c6e 123e fbba 863d 94da 593e 77dd 773c
000000e0: 5fcb 963c bee5 7abd 0d58 2a3e 58b3 063e
000000f0: 27ee 27be 8a74 c23d bc27 6dbd b778 993d
00000100: 89e3 0abd 1103 efbd 7ff2 ffbc 7093 7cbc
00000110: 6d61 1d3d 438f 30be cfd2 0d3d f930 0ebe
00000120: be3d 4cbe c336 333e a366 36be 9e95 a7bd
00000130: 9ddc 2fbe 2273 70bd 5d69 02be 81ac ee3d
00000140: a886 bdbb d1c2 fe3b fe42 3b3d 7753 0e3e
00000150: 0e59 d4bc c3e0 d9bc 2897 9bbd 22ec fbbd
00000160: a020 cd3d bb79 493e e801 64bd 1a06 d5bd
00000170: 344d fa3b 5457 b6bd 0b5d ca3d 6f3b 9abd
00000180: e66c ffbc c0c2 08bd f5f8 9bbd bbe4 443e
00000190: a08f 3bbe 71cf d8bc a1cb 54bd ae9e 50bd
000001a0: 0771 223e ae3c e0bb 67fc c6bd 2712 2a3e
000001b0: 753b 143e 10c5 c8bc 41a9 d83d 05ce c7bd
000001c0: 25e4 36bd f557 dd3c 1f65 1b3e ea7b f03d
000001d0: ff88 57bd 5282 19be d2fd 663c ff7c abbb
000001e0: d6eb 23be 2cd6 433a abf2 c2bc 37ed 24be
000001f0: ac47 c13d 2a98 29be e333 10be abe8 163e
00000200: 4033 02bd a3e2 233d febb 5ebd 1547 cebc
00000210: 6de1 883d 2267 383e a251 d23c 740b ee3d
00000220: 8959 ebbd 832b aa3d eda3 873d 14ac c23d
00000230: 8e36 ec3d 136e c8bc 686a 74bd 3732 a7bd
00000240: de46 51bd 17b3 f5bd bb95 1c3d 51a5 89bd
00000250: f5bc 5b3d ccae 403d 1461 02be 8686 3ebe
00000260: d2b8 cb3d 4bc6 183e 9d0b 303e a323 27bd
00000270: b9c7 99bd 0d9e b03b 7fe1 87bc 2a71 be3d
00000280: e0ed bfbd 266c 483d 538b 713d fb40 ad3d
00000290: 61b4 813d 59ea 9a3d 4e11 8ebd a59c b23d
000002a0: a9f4 15bc aece c4bd f4d9 b8bd 82ad 92bd
000002b0: b625 9bbd 55f0 203d 9424 bf3a 77f4 a1bc
000002c0: 5b7a 09be 72a2 393c 5fa4 14be 9027 003d
000002d0: 9f3f 64bb 8e3c f6bd a09c 0b3c c3f2 563e
000002e0: 24d9 ebbc 746d a83d 149a 2fbe e6e2 93bd
000002f0: b661 04be a3ed 323c 399d 12bd 957b 1dbe
00000300: 3248 fcbc 3568 c03d 05f0 123e 19fd d03d
00000310: b36d e0bd 422c 173c e31c d93d b541 b6bd
00000320: 157d b53d 2dc8 2c3e fab8 333b 81ef e7bd
00000330: f441 19be 1f3c e93c 339b 52bc 294a f0bd
00000340: 90ea dbbc e1b2 8bbd da2d 57bc 90a6 b73c
00000350: 7110 53bd 1361 7d3c a8c8 4bbd 8b7f a9bc
00000360: 5d8c 4d3e fbaa 373e 8cd2 bcbd 4a71 15be
00000370: 9b31 b03d ec2a d3bd ae16 75bc 57a5 423e
00000380: 9688 efbd bc57 8dbd e5ae 983d 6be9 08bd
00000390: 8d90 d93d b70c 2cbc 2b15 063e 586b ea3c
000003a0: 83dc 433e eb33 fabb 3f7c 143e 46fb ac39
000003b0: ee1c 34be 5e43 e83d e8db 4c3d 6adf e3bd
000003c0: bd25 a5bd ced7 a5bc 62b0 cdbd 2eca 053e
000003d0: b4fa 10be 80c0 97bb 9515 05be 35dc d5bd
000003e0: 51af a03d 3b5b c73d 534e bc3d 3c89 22bd
000003f0: a13a 8b3d fe26 b5bc 6226 cbbd 2e9e b6bb
0.068906456 -0.11450342 0.07368023 0.116349086 0.044788215 0.024371674 -0.084884785 0.15792167
0.047114775 -0.046333987 0.10927388 -0.102162026 0.076464765 -0.052396417 0.17111194 0.031030072
-0.17555864 -0.018472705 0.028924419 0.035822794 -0.10383919 -0.07342777 0.07203647 -0.08118886
-0.028801642 -0.10021307 0.09917275 0.12432657 -0.06953673 0.06434867 -0.16149919 0.06507339
-0.14233765 0.08850792 -0.119009994 0.09838177 0.06630628 0.07146856 -0.05107787 0.062300496
-0.0076664314 0.07036783 0.14436328 -0.088804975 -0.00080559857 -0.028139623 -0.15649489 0.10291599
0.11575238 0.042664357 -0.06519281 -0.15336604 0.14299792 0.065786324 0.21274787 0.015128485
0.018407522 -0.061254255 0.16635151 0.13154352 -0.16399442 0.09494884 -0.05789922 0.07493728
-0.0339084 -0.11670507 -0.03124356 -0.015416011 0.03842299 -0.1724215 0.03462487 -0.13885869
-0.19945428 0.17501359 -0.1781259 -0.08182834 -0.17174001 -0.05870355 -0.12735505 0.11653996
-0.0057838745 0.007774689 0.045718186 0.13899027 -0.02592137 -0.026596433 -0.0759719 -0.12300898
0.10015988 0.19675343 -0.05566588 -0.104015544 0.007638598 -0.08903375 0.09881028 -0.07530867
-0.031179857 -0.033388853 -0.07615844 0.19227879 -0.18316507 -0.026466103 -0.05195201 -0.05093258
0.15863429 -0.006843171 -0.09716111 0.16608487 0.14475806 -0.02450803 0.105791576 -0.09756092
-0.04465117 0.02701948 0.15175293 0.11742385 -0.052620884 -0.1499112 0.014098601 -0.0052334066
-0.16007933 0.0007470574 -0.023797354 -0.16106115 0.094374985 -0.16561952 -0.14082293 0.14737193
-0.031787157 0.04001106 -0.054378502 -0.025180379 0.066836216 0.18008092 0.025673691 0.11623278
-0.11491687 0.083090805 0.06623063 0.095054775 0.11533843 -0.02446655 -0.05967179 -0.081638746
-0.051092975 -0.11997049 0.03822873 -0.06720985 0.053647 0.0470417 -0.12732345 -0.18606004
0.09947361 0.14919393 0.1719193 -0.04080547 -0.07508797 0.005389935 -0.016587017 0.09298928
-0.09371543 0.048931263 0.05897076 0.0845966 0.06333233 0.075642295 -0.06936894 0.08721284
-0.00915257 -0.096097335 -0.09025946 -0.07162 -0.07575552 0.0392917 0.0014583045 -0.01976989
-0.13425581 0.011330234 -0.14515828 0.03128773 -0.003482796 -0.12023269 0.008521229 0.20991044
-0.028790064 0.082240015 -0.1714862 -0.07221012 -0.12927899 0.010920915 -0.03579447 -0.15379174
-0.030796144 0.09394876 0.14349373 0.102045245 -0.109584235 0.0092268605 0.10601213 -0.08899251
0.08861748 0.16873236 0.0027423487 -0.113249786 -0.14966565 0.02847105 -0.012854385 -0.11732895
-0.026845247 -0.06821228 -0.01313349 0.02241829 -0.05152935 0.015465039 -0.049751908 -0.0206907
0.20073076 0.17936318 -0.09219846 -0.14593998 0.086032115 -0.10310921 -0.014959021 0.19008385
-0.116959736 -0.069015 0.074552335 -0.03342573 0.10623274 -0.010501078 0.13094012 0.028615639
0.19127087 -0.0076355836 0.14500521 0.0003299361 -0.17589161 0.11340974 0.050014406 -0.11126597
-0.08063839 -0.020244505 -0.10043408 0.13065407 -0.14158136 -0.004631102 -0.12996514 -0.10442392
0.07845939 0.09734198 0.09194627 -0.03968166 0.06798292 -0.02211332 -0.0991943 -0.0055730557

bias f4 [50]
00000000: 5c89 6ebd db02 7e3c 8ca3 f53d 6e50 cebc
00000010: a8ec ca3d af95 d1bd 9716 993d f89e db3c
00000020: bc1e 7b3c ff1f 043e 6b07 05be fd39 d9bb
00000030: 347c bd3d a886 acbd 2b82 9fbd 8aea dfbc
00000040: 8fee aa3d 1149 19be b2b3 afbc 1f87 03be
00000050: 9600 d13d abb0 86bd eae9 13be 8e3b 953d
00000060: 5dd6 e3bd f7dc c23d c3f5 da3d 53e0 07bc
00000070: b40c e6bb 2d40 4c3d 4ff3 ce3d 82f6 f73d
00000080: b027 b73d c591 1dbd 19d6 bd3d 6eb7 683b
00000090: c6cc 81bd ff81 f8bd c8b6 0fbd d66d cf3d
000000a0: 1cec d03d 23ff e7bd a460 83bc 3b86 febd
000000b0: 6dfe 10bc e6f5 fb3d 58d9 00be 0ecd 433d
000000c0: 2c16 c2bd 4ec0 a8bd
-0.058236465 0.0155036105 0.11994085 -0.025184836 0.0990842 -0.10233628 0.07475012 0.0268092
0.015327152 0.1290283 -0.12991111 -0.006629227 0.092522055 -0.08424121 -0.077884994 -0.027333517
0.08346283 -0.14969279 -0.02144799 -0.12844513 0.1020519 -0.065766655 -0.144447 0.0728675
-0.11124871 0.09514802 0.106914066 -0.008293229 -0.0070205573 0.04986589 0.10105001 0.121075645
0.08943117 -0.038469095 0.092693515 0.0035509723 -0.063378856 -0.1213417 -0.035086423 0.101283714
0.10201284 -0.1132796 -0.016037293 -0.12427946 -0.008849722 0.12302761 -0.1258291 0.047802977
-0.09476885 -0.08239804

weight f4 [1, 50]
00000000: e1cd cc3d 369b 183e 8d23 b8bd 0d93 d7bc
00000010: 38da 7ebd 6629 703d 99a2 9cba 4b1f 93bd
00000020: 9cec ddbc bbad 10be c9b8 83bb c147 0abe
00000030: f5aa dfbc c277 39bd a85a 7f3d d84b 97bc
00000040: 70f4 8c3d 45d5 e4bd 51ee 183d ae4f 033e
00000050: f36c 74bd a906 f9bd dd0a 20be 02c8 063e
00000060: 8cb8 8c3d 7e83 e63d 73af bdbc 029a c23d
00000070: d1d0 bd3d 50ee e93d 7bae 33be d90c 523c
00000080: bcaf bebd 264f 93bd e0f3 c13d f050 213c
00000090: de47 bc3d 524b d13d 43e8 363e 3c75 163b
000000a0: 69d3 d83d 82d7 0e3e 3685 863d 6b32 00be
000000b0: c21d 8a3d 2d44 333d 5d92 1c3d 73d0 7cbd
000000c0: f878 a8bc d28d b53d
0.10000206 0.14902958 -0.08991156 -0.026315236 -0.06221983 0.05863323 -0.0011950313 -0.07183703
-0.027090363 -0.14128773 -0.004019831 -0.13503934 -0.027303198 -0.045280226 0.062342316 -0.018468782
0.0688256 -0.111734904 0.03733665 0.12823364 -0.059674215 -0.121594734 -0.15629144 0.13162234
0.06871137 0.11255549 -0.02315495 0.09502031 0.09268344 0.114224076 -0.17547028 0.012820446
-0.093108624 -0.07192831 0.094703436 0.009845957 0.09193395 0.10219444 0.17862038 0.002295806
0.10587198 0.13949397 0.06568377 -0.12519233 0.06743957 0.04376619 0.03822552 -0.06172223
-0.020565495 0.08864941

weight f4 [1, 50]
00000000: d75c 65bd d721 d4bd 3be6 873d 9af4 eabd
00000010: ffd3 fd3d 022e 0cbe 38fc 1a3e 71a2 023d
00000020: edad a23d 9f47 63bb 01dc d53d 8347 2ebe
00000030: fabd 1fbd bf04 1a3d 49da 023e c929 0fbe
00000040: 808c df3d b64b 063e e4e8 b03d 7b16 c6bd
00000050: bade d13c 3830 5a3d 6371 c5bd 20b7 febc
00000060: b99d bcbd a37e 6dbd 1119 c3bd 192b 1b3c
00000070: 7868 2fbe 7ffa e63d 74e9 47bc fd05 073e
00000080: 3a6d cb3d 50d9 c03d c0b0 1d3e 321a 6e3d
00000090: 6329 293d 60be b6bd e8f2 d2bc 6888 253d
000000a0: dfa1 203e 09d2 bdbc cc1f 85bc 1b5b 9ebd
000000b0: b9c2 85bd 40ad 233d d0dc 973c 833d 52bd
000000c0: d764 bebd c60a 1f3e
-0.055996742 -0.10358017 0.0663571 -0.11472435 0.12393951 -0.13689426 0.15135276 0.031893197
0.0794333 -0.003468014 0.10442353 -0.17019467 -0.038999535 0.037602182 0.12778582 -0.13980784
0.1091547 0.13114819 0.0863817 -0.096722566 0.0256189 0.05326864 -0.096407674 -0.03109318
-0.09209771 -0.0579821 -0.095262654 0.0094707245 -0.17129695 0.11278247 -0.012201656 0.13185878
0.09932943 0.09416449 0.15399456 0.05813045 0.041299235 -0.0892303 -0.025750592 0.04041329
0.15686749 -0.023171442 -0.016250513 -0.07732221 -0.06531281 0.039960146 0.018537909 -0.051328193
-0.092965774 0.15531453

weight f4 [8, 50]
00000000: 6e76 2dbe 9ef6 31be ce02 c33d 0ac5 38be
00000010: 263a 173c c47b 0abd 03a5 37be 2eee 053e
00000020: 8c74 243d 06c4 a43d 0c9b c83b 7008 753c
00000030: 4c36 263e 07bd febd 6fdc 953c 7324 393d
00000040: 7216 9c3c 4e2f 4dbd c9eb 17be 997c 353d
00000050: 322f d6bd c6f8 d33c 0f52 923d ee58 adbd
00000060: d87f c8bd 7c24 5a3d f0fc b3bd 3335 13be
00000070: bb1a 41bc 5ad0 06be 15bb 943c e2b9 66bd
00000080: 178e 80bc 03a7 b33d aaf8 813d 9ca9 8dbd
00000090: 827b ee3d 228a 22be 6e25 ffbd 1851 bb3c
000000a0: 4081 10bd 5652 1bbe 2ece 1fbe da89 33be
000000b0: c865 5fbe b340 4fbd 9ed7 c4bd 3569 1dbe
000000c0: ed5f 9f3d 5568 fbbd ead4 6dbd 7e65 57be
000000d0: c7f3 3abe be67 19be f418 f63c 67f1 dc3c
000000e0: feca 353e 0b7f 62bd 665d 0fbe 3b07 103d
000000f0: 789e 15be 3443 e4bd fcda 67bd 4ede 06be
00000100: 3fc5 b23d 9369 ae3d 44df a53d fca6 46be
00000110: c65b 0f3d 0f77 81bb 1b59 fc3d 3a98 d7bd
00000120: d225 2dbd 809c 1b3e 9436 2dbe 5e74 c0bd
00000130: 3c0a 173e 9eb0 9e3d 2530 e6bc 0ca7 b93d
00000140: ac3d ab3d cd83 853b 8bb5 a43d 7d7e 683d
00000150: af3b 9b3c dbbb f73d acc3 35bb 0d36 29be
00000160: e8d8 2d3e 4d88 093e d512 17bd f265 55be
00000170: d36b d03c 607e 37be 076d 0ebe 9b84 87bd
00000180: e1a3 3fbc 49cb 52be d70d 203e 7868 2bbe
00000190: 442d cabd 5aa8 f33d 9c7e 0a3d a0ad 893d
000001a0: 96ac 703d ecba 11be b103 39bd ded0 77bc
000001b0: ba39 babd a432 8b3d 12d9 2bbe aada 40bd
000001c0: d333 4bbd b84c 49be 3cc1 1c3e 66db c83d
000001d0: 7788 293e 1642 debd d957 2bbe f0c7 d3bd
000001e0: ac03 ff3c 9756 c5bd b690 01be afc9 2d3e
000001f0: 3842 5e3c f717 a4bd 38a6 143e 602d 423e
00000200: c21f 7e3d b7bc 9f3d f082 a3bd 87a3 363e
00000210: 7fb0 253c 50ba 70bd 689f c83d 7f04 3bbd
00000220: dba1 2bbe 9f41 023e 852e c9bc 717d a5bb
00000230: 4edf 1dbd 9b10 453d 3170 c0bb cdbe 003d
00000240: 64f5 4cbd f5d1 f9bd 6722 38bd 2c3b d7bd
00000250: a0dc 683d a040 bfb8 b9c2 62bc 8f93 9abd
00000260: 4061 a8bd ad3e aabd 9d73 3bbd f0b4 ad3c
00000270: baa3 063e e5ec 82bd b1d6 723d 162b 8bbd
00000280: 3f5e 243d bba7 6a3d b657 d3bd 7772 253d
00000290: 5c2a fd3d db28 f1bd 26ed adbb c576 cd3d
000002a0: 1b9e 083d 89b4 95bd 84d9 953c d0d4 65bd
000002b0: 573f d6bd 8ed1 6cbc 3bbe b0bd 1c6b 00bd
000002c0: fe8f ec3d 396d da3d c264 a2bd 8b68 003e
000002d0: db02 193e b7d8 c43d 15ea 963d ea46 953c
000002e0: 99dc 453e 2973 31bc fd84 98bd a09a a9bd
000002f0: ce8c b93d 70dc cc3d 4019 1539 408d 5ebd
00000300: bfa3 2bbd 8141 c5bd 9a14 bb3d 3235 603d
00000310: e730 0b3b cc2e 64bd b191 8c3d 5bdd 0d3d
00000320: 2db6 1bbd 0276 fb3d 693d 1bbe 0ea4 cebc
00000330: 0d2b a7bd 4440 b5bd 7553 563e 159b df3d
00000340: 6507 09bd a512 813d 4c15 c43d 514b 2d3d
00000350: 54e3 82bd 61ac 70bd 836e 2e3e 1dd4 8e3d
00000360: 6e03 8d3c fbb6 c13d 4613 1dbd 6045 9c3d
00000370: d592 ea3d 8902 bf3d 3080 11bd 0080 e4bb
00000380: a031 7739 c881 793d ebc5 c53d c397 6d3d
00000390: 9916 adbd 1d49 3c3e 659f 0b3e 550f 7d3d
000003a0: 700f ca3c 854b b23b beba e63d 3ce3 afbd
000003b0: 27f1 793d 0e0a 91bd a709 d13d f8a9 26bc
000003c0: 422d 123c 21dc 943c 53da 3a3e f41e dc3d
000003d0: 517c f73d 52fc a6bd d3e4 38bd 4627 e0bc
000003e0: de13 cd3c 0a87 63bd 5aea 63bd 2f7b a2bd
000003f0: b398 ccbd 8d9d a73d c5f7 e23d 448a 183d
-0.16939709 -0.17379233 0.09522019 -0.18043914 0.009230172 -0.03380944 -0.1793404 0.1307914
0.04015021 0.08045201 0.0061219987 0.014955625 0.1623165 -0.12438398 0.018293587 0.045200776
0.019053672 -0.05009394 -0.14836039 0.04430828 -0.104582205 0.02587546 0.07144558 -0.084642276
-0.09790009 0.05325745 -0.087884784 -0.14375763 -0.011786158 -0.13165417 0.018155614 -0.056329615
-0.015692754 0.08772089 0.06346257 -0.06917116 0.11644651 -0.15873006 -0.12458311 0.022865817
-0.035279512 -0.15168127 -0.15605995 -0.17533055 -0.2181617 -0.05059881 -0.09611438 -0.15372165
0.07781968 -0.12275759 -0.05806438 -0.2103481 -0.18257056 -0.14980981 0.030041195 0.026970578
0.17753217 -0.05529694 -0.14000472 0.035163146 -0.14611232 -0.111456305 -0.056605324 -0.1317074
0.08729028 0.085162304 0.08099225 -0.19399637 0.03499963 -0.0039509605 0.12321683 -0.10527082
-0.042272396 0.15196419 -0.16915351 -0.09397195 0.14749998 0.07748531 -0.028099129 0.09065065
0.08361372 0.00407455 0.08042439 0.056761254 0.018949358 0.120963775 -0.0027735038 -0.16524525
0.16977274 0.13430901 -0.036883194 -0.2083967 0.02544204 -0.17919302 -0.13908778 -0.06617089
-0.011696787 -0.2058536 0.1563028 -0.1673907 -0.09871915 0.11897345 0.03381215 0.067225695
0.05875834 -0.14231461 -0.045169536 -0.015125481 -0.09093042 0.06796768 -0.16782025 -0.047083534
-0.04960997 -0.19658172 0.15308088 0.09807472 0.16555963 -0.10852449 -0.1673273 -0.103408694
0.03112968 -0.09635656 -0.12652859 0.16971467 0.0135655925 -0.080123834 0.14516532 0.18962622
0.062042005 0.077996664 -0.07983959 0.17835818 0.010112881 -0.05877143 0.09796029 -0.045658585
-0.16760962 0.12720345 -0.024558315 -0.005050354 -0.038543038 0.04811154 -0.0058727493 0.03143196
-0.05003871 -0.12198249 -0.044954684 -0.10509333 0.05685103 -9.119627e-05 -0.013840371 -0.07547676
-0.08221674 -0.08312736 -0.045764554 0.021204442 0.13148394 -0.0639284 0.059286777 -0.06795327
0.040128943 0.057288866 -0.10319464 0.040392365 0.12361595 -0.11775371 -0.0053078113 0.10032419
0.033353906 -0.07309825 0.018292196 -0.056111157 -0.104613 -0.014454259 -0.086300336 -0.031352147
0.11550902 0.10665364 -0.07929374 0.1253988 0.14942496 0.096116476 0.07368866 0.018222291
0.19322433 -0.010830679 -0.074472405 -0.082814455 0.090600595 0.100029826 0.00014219154 -0.054333925
-0.041904207 -0.096316345 0.09134789 0.05473823 0.0021238865 -0.05570869 0.06863726 0.03463493
-0.038015533 0.122783676 -0.15160145 -0.025224712 -0.08162508 -0.08850148 0.20930274 0.109182514
-0.033454318 0.06302384 0.095743746 0.042308155 -0.06391016 -0.058758143 0.17034344 0.06974051
0.01721355 0.09458729 -0.03834846 0.0763042 0.11453787 0.093266554 -0.03552264 -0.0069732666
0.00023574242 0.060914785 0.096568905 0.05800606 -0.08451576 0.18387266 0.13635023 0.0617822
0.024665564 0.0054411315 0.11266087 -0.085882634 0.061020996 -0.07081996 0.10206919 -0.01017236
0.008921923 0.018171372 0.18247347 0.10748091 0.12084258 -0.08153595 -0.0451401 -0.027362477
0.025033887 -0.055548705 -0.055643417 -0.07933652 -0.099900626 0.08184347 0.110824145 0.037241235

bias f4 [8]
00000000: 0657 eabd 8a29 92bd 866d f0bd 228d afbd
00000010: 9bfe f4bc e01a 853c c663 d43d 0732 313d
-0.1144238 -0.07136829 -0.1173964 -0.08571841 -0.029906562 0.016248167 0.10370593 0.0432606

weight f4 [1, 50]
00000000: c121 323e 779c 563d 4f7e 123e fb4c 043e
00000010: a931 a4bd 9bc8 84bd ec40 c93d 254d 73bc
00000020: f1f5 ddbd ad77 79bd 75c1 28bd c014 bfbd
00000030: 21e3 dabc 7067 ccbd ca24 263d e08d 0dbd
00000040: 2218 e73d 20b1 143e 2455 c13d 6761 eb3d
00000050: c0ee 053d 0377 cf3d cc77 b3bd f8c1 7ebd
00000060: 3bdd f43d 3344 b5bd e989 cd3b 44de d7bc
00000070: 66a5 91bd fccc 903c 845c b43d f11e 333e
00000080: cf24 183e 496c c1bd 279d c73d 9c33 213e
00000090: 1c95 19be 3ccd 283d 7089 0a3d 8815 23bb
000000a0: dfc6 0e3e d1bd e73d d2fc 293e 59fb 183e
000000b0: e246 333e e8bc 4ebd 74de 07be 89bd 64bd
000000c0: 4adc 82bd 5bac 92bd
0.17395689 0.05239531 0.14305995 0.1291999 -0.080172844 -0.06483575 0.09826836 -0.014849936
-0.10837925 -0.060905147 -0.04120012 -0.093301296 -0.026719632 -0.09980667 0.04056243 -0.03455913
0.112839 0.14520693 0.094400674 0.114931874 0.032698393 0.101301216 -0.08763084 -0.0621967
0.11956259 -0.088508986 0.0062725437 -0.026351102 -0.071116254 0.01767587 0.088067085 0.17492272
0.14857791 -0.09444482 0.09746771 0.15742344 -0.14998287 0.04121135 0.033822477 -0.002488466
0.13943051 0.113155015 0.1660035 0.14939632 0.17507508 -0.050473124 -0.13268453 -0.055844817
-0.06389673 -0.071617804

params f4 [2]
00000000: 44c9 773f 6eaf 793f
0.9679148 0.9753331
