result/models/dw_best.pth (torch, 69033 bytes, 12 tensors)

weight_ih_l0 f4 [200, 9]
000000 1d e0 e7 bd 44 6f 63 bc d9 9f 8a 3d 68 97 0f bd
       -0.11322043 -0.013881508 0.0676877 -0.0350565
000010 25 52 fb 3d e6 d8 e3 bd c8 c7 00 be 1e 4d 08 3e
       0.12271527 -0.111253545 -0.1257621 0.13310668
000020 84 dd f7 bc 38 9f fb 3c 5d 1d ff bd dc 0d 1a 3d
       -0.030256994 0.03071557 -0.124567725 0.037610874
000030 2b 1b 32 be 29 a9 b2 3c 75 4e 54 bd cb 11 13 bd
       -0.17393176 0.021809177 -0.051832635 -0.03590564
000040 ff 19 27 bd 10 7f 17 be 3b 33 63 3d c8 f7 46 3d
       -0.040796276 -0.14794564 0.05546878 0.048576146
000050 5a 0d d9 ba cc 65 87 3d 54 ba d1 bd 36 23 9a 3d
       -0.0016559765 0.06611213 -0.102406174 0.07526247
000060 79 b5 6e 3d 29 c8 de 3d b8 50 06 ba 21 f1 a0 3d
       0.058278535 0.10878021 -0.00051237224 0.07858492
000070 64 59 5f bd 87 5a d5 bd 24 fd d4 3b 28 b1 0a be
       -0.05452861 -0.10417657 0.0064999033 -0.13544142
000080 10 a5 af 3d 75 54 31 bd 0b 59 f9 3d 84 87 ec 3d
       0.08576405 -0.043293435 0.12175187 0.11549285
000090 2e e3 73 bd 6e 97 c5 bc 3b 27 8d bd b5 9a 8c bb
       -0.059542827 -0.024120059 -0.06892248 -0.0042909035
0000a0 5b e3 b7 3d 30 56 e2 bc d2 31 43 3d 6b b8 7e bd
       0.089789115 -0.027628988 0.047654934 -0.062187593
0000b0 c0 b6 bb b8 74 0c 8d bc 64 c2 9d bd 06 6d c7 bd
       -8.950895e-05 -0.017217852 -0.07703093 -0.097375914
0000c0 a4 7c c7 bc 67 0d c5 3d b2 dc 71 3d d5 ce 22 3c
       -0.024351425 0.09621697 0.059048362 0.009937008
0000d0 a2 54 c8 bd 3e db 16 3e 53 08 c4 3b 71 b9 44 bd
       -0.097817674 0.14732072 0.0059824376 -0.048028413
0000e0 6c fa d2 3d c9 7f cf 3d df 11 08 3e 1d 82 81 3d
       0.103016704 0.10131795 0.13288067 0.06323645
0000f0 36 8b eb 3c 75 c5 39 3d b0 d5 de bd b2 01 ac bd
       0.028752904 0.045354325 -0.108806014 -0.08398761
000100 85 3c f3 3c c4 85 76 bd 67 e4 81 bd f9 78 d1 bd
       0.029691944 -0.060186163 -0.063423924 -0.10228152
000110 9a 54 3b 3d 27 1a 2b 3d 72 b2 8f 3c d9 8d fc bb
       0.04573498 0.041772988 0.017541144 -0.0077073392
000120 fd 47 f6 3d d9 f9 cf 3c 10 4a 83 3c 1f 51 41 bc
       0.120254494 0.025387691 0.016026527 -0.011799126
000130 8c 44 d1 ba 0f 92 d2 bd e4 f7 29 bc f7 54 6f 3d
       -0.0015965863 -0.10281765 -0.010374043 0.05843064
000140 71 fa 13 3e 25 f2 1a be 80 a9 03 be 19 4d 54 3d
       0.14451005 -0.15131433 -0.12857628 0.05183134
000150 42 99 24 bd 8d cd f5 bd 46 74 24 bd 46 1f 87 bb
       -0.04018522 -0.12002096 -0.04014995 -0.004123601
000160 59 a5 9e 3d 06 2f 16 be ab 95 e8 3d 6e 68 b2 bd
       0.07746381 -0.14666376 0.11356672 -0.08711325
000170 eb f8 31 bc f3 ee 77 bd 34 e3 37 3d 64 ee 07 3d
       -0.010862569 -0.060530614 0.044894412 0.03318633
000180 ec f6 32 3d 5f 52 09 3e 86 9d c5 bd 7f ca ce 3d
       0.043692514 0.13410328 -0.09649186 0.10097217
000190 ad 66 5f bd d1 28 63 3b ae 5f 8b bd 39 95 d9 bd
       -0.05454128 0.003466178 -0.06805359 -0.10624165
0001a0 b1 ca eb 3d 2f 56 27 3e a3 b7 be bc 8b fb be 3c
       0.1151327 0.1634147 -0.023280924 0.023313304
0001b0 f3 26 f2 bc 99 c2 b6 3c 71 d9 d4 3c 30 32 ad 3c
       -0.029559588 0.022309588 0.02598259 0.021142095
0001c0 76 f2 1c 3b ac 42 73 3d 10 1a 23 bd 35 3f 5e bc
       0.002394823 0.059389755 -0.039819777 -0.013564874
0001d0 77 f5 8c 3d b7 30 2a bc 9a db 0d bd 64 56 a4 bd
       0.06882756 -0.010387591 -0.034633256 -0.0802429
0001e0 2c 70 82 3c c8 e3 df 3b c7 f4 5f 3c 2a 09 12 bc
       0.015922628 0.0068325736 0.013669199 -0.008913318
0001f0 c1 c1 ef 3d c8 37 10 3e 26 21 79 3d 55 ee d6 3d
       0.117068775 0.14083779 0.06082263 0.10494677
000200 cc 84 a0 bd c3 b8 41 bc 4d 13 a1 3d 54 7a 73 3d
       -0.07837829 -0.011823836 0.078650095 0.059442833
000210 c3 18 59 3c 3d a1 99 bd 41 ec 03 3e f1 6a dd bd
       0.013250533 -0.07501457 0.12883092 -0.10811413
000220 82 b3 9a bc 5e 47 2b 3e ff a0 de 3c ab 66 0d 3e
       -0.018884424 0.16726443 0.027176378 0.13808696
000230 f7 4e d3 bd c3 9a 8c 3d 17 07 eb bd df ba 7f bd
       -0.10317796 0.06865456 -0.11475962 -0.062434074
000240 d1 1a f0 bb b0 5d 65 bd b2 c0 a9 3c 88 aa 11 bc
       -0.0073274155 -0.05599755 0.020721767 -0.0088907555
000250 ce 04 be bd a1 ee 0d 3e 10 08 3b bd 30 fd 16 be
       -0.0927826 0.13860561 -0.045661986 -0.14745021
000260 9a b3 fe bb 3c 24 57 3d 70 9f 16 3d de 31 17 bd
       -0.007772875 0.05252479 0.036773145 -0.03691279
000270 63 ab ed bc aa eb fa 3d 25 61 ec bd 01 4e 67 3d
       -0.029012388 0.122519806 -0.11541966 0.056470875
000280 60 66 aa bd 56 d1 30 3d 39 b3 1d 3d 9a 2a 82 bd
       -0.08320308 0.04316839 0.038501 -0.06355782
000290 23 05 05 be 22 12 91 bd 7f 22 ee bd b3 c1 90 3d
       -0.12990241 -0.07083537 -0.11627673 0.07068195
0002a0 0c cb 65 bd a8 c2 a3 bd 7f f1 fe bc a3 00 31 be
       -0.056101844 -0.07996112 -0.031121014 -0.17285399
0002b0 3a ac 03 be 79 8d 0e 3e be 9e 8e 3c 04 2f d4 bb
       -0.12858668 0.13921155 0.017409679 -0.0064753313
0002c0 4d 10 32 3c 5b 4a 80 3d 11 55 e0 bd bf e3 a6 bd
       0.010868144 0.06264182 -0.10953725 -0.08148908
0002d0 6a 26 85 bd bd 33 0c 3e 5d af 91 3d a3 85 28 be
       -0.065014675 0.13691612 0.07113526 -0.16457228
0002e0 88 30 73 3a b6 59 1d bd 7c 65 f5 3d 41 21 ba 3d
       0.0009276946 -0.038415633 0.11982247 0.09088374
0002f0 04 1b e7 3d cd 1e f0 3c 2a a3 6a 3d d5 ef 1b 3e
       0.1128445 0.029311562 0.05728451 0.15228207
000300 31 92 46 3d d9 85 2a bb 53 11 ac 3d 05 e7 00 be
       0.048479263 -0.002601972 0.08401742 -0.12588127
000310 c7 ca 7e bc 26 7c cb 3d 81 7c 1b 3e c1 77 ed 3d
       -0.015551276 0.09935789 0.15184213 0.11595107
000320 c3 9e 25 3e 9b 73 b6 bc 19 08 07 3d a1 64 14 3e
       0.16173844 -0.022271922 0.032966707 0.14491512
000330 7e bb 27 3d d7 d9 e2 3d 00 de be bc 9c 27 a7 bd
       0.04095029 0.11076706 -0.023299217 -0.08161852
000340 d1 21 ea 3c 7b 1f 5a 3d 34 11 1a be f2 c6 5b bd
       0.028580578 0.05325268 -0.15045625 -0.053656526
000350 c8 a7 f7 3c d3 b4 c7 bd 6e f9 04 3e ea 2f ee bd
       0.030231372 -0.09751286 0.12985775 -0.11630233
000360 0e 13 9c bd a6 1e 59 bd d3 c5 02 3e 7b a0 a3 3c
       -0.07620822 -0.053007744 0.12770776 0.019973984
000370 fc c7 4e bd d4 79 08 3c 2d aa 33 bd e7 a3 30 3d
       -0.05048369 0.008329827 -0.043863464 0.04312506
000380 b7 31 97 bb 85 cf ed 3c 3c d4 2a 3c 76 3b 6b 3d
       -0.004614081 0.029029617 0.010426577 0.057429753
000390 be fe 90 3d c3 f7 20 bd 22 7b cc 3c 45 8d 44 bd
       0.07079838 -0.039298784 0.024961058 -0.047986288
0003a0 9b 1f 0e 3d c5 35 29 3d 06 1a 44 bd b0 4a 2e be
       0.03469811 0.041311044 -0.04787638 -0.17020679
0003b0 bd a2 be 3d ec 7d 1d be 59 8e 8f bd 5f 02 99 3d
       0.093083836 -0.15380067 -0.070095725 0.074711554
0003c0 1b 2c 75 3d 29 00 b8 3d c9 94 c1 3d fc df 5b 3d
       0.059856515 0.089844055 0.09452207 0.053680405
0003d0 34 f0 92 bd 4a 9d 2b bd 7f d0 08 3e 70 54 4c ba
       -0.07174721 -0.04189805 0.13360785 -0.00077945646
0003e0 a0 78 6e bd 4c 58 06 be 35 25 08 bd bf b3 0e be
       -0.058220506 -0.1311962 -0.03323861 -0.13935755
0003f0 82 7f 2c bd 16 69 f5 bc d9 13 c5 bc 22 5f 54 bd
       -0.04211379 -0.029957335 -0.024057316 -0.05184854

weight_hh_l0 f4 [200, 50]
000000 87 ad 14 bd 3b 16 a5 3d 5a cc 8f 3d bf c7 f9 3d
       -0.0362983 0.08060881 0.07021399 0.12196302
000010 33 2a 97 3d f1 e0 24 3d 76 24 42 3c 2f 1d 8c bd
       0.07381096 0.040253583 0.011849513 -0.06841504
000020 a8 db 26 3d 43 e6 07 be d6 7d e0 3d 5d 7e da 3c
       0.040736824 -0.13271432 0.10961501 0.026671583
000030 d3 a0 2a bd ca 78 6f 3c 2c 5e ab 3c 08 dc e3 bd
       -0.04165728 0.014616201 0.020918928 -0.11125952
000040 4e 7b ec 3b 87 01 df bd 28 04 c8 bc 10 21 e1 3b
       0.0072168475 -0.10888963 -0.024416044 0.0068703964
000050 d0 53 f8 bd de 8d e2 bd 91 09 ff bd de 20 2b bd
       -0.12125361 -0.11062215 -0.124529965 -0.04177939
000060 3c 20 9f 3c b4 9c 01 be 37 13 76 bd 0f ac 88 3d
       0.01942455 -0.12657434 -0.06007692 0.066734426
000070 41 88 cb 3d 7a 67 91 bd a2 1b d7 bb c9 3f 01 3e
       0.09938098 -0.07099815 -0.0065645734 0.12621988
000080 b2 90 6e bc e0 60 7d 3c 23 bd ce bd 52 bb 96 3d
       -0.014560865 0.015464991 -0.10094669 0.07359947
000090 4a 7d 01 3e 07 40 42 bd f2 d8 c7 bd 49 57 e0 bd
       0.1264545 -0.047424342 -0.09758176 -0.10954148
0000a0 32 5e 2d 3c 7c 52 97 3d c7 5e 1b 3e 8b a8 c2 3d
       0.01058154 0.073887795 0.15172873 0.09504803
0000b0 78 12 0f be d4 1f b2 3d b2 00 4e bd f2 55 05 be
       -0.13971889 0.08697477 -0.05029363 -0.13021067
0000c0 6f 84 bd bc 6f 90 b4 bc b1 95 24 bd b3 56 a2 bc
       -0.023134438 -0.022041528 -0.04018182 -0.019816732
0000d0 47 d5 d2 3d 72 25 c8 bd 18 ca 18 be 69 0f a9 3c
       0.10294586 -0.09772767 -0.14920843 0.020637231
0000e0 48 2c 0b bd 35 dd c0 3d 0a 6e db bd 9a 57 ec bd
       -0.033977777 0.09417192 -0.10714348 -0.11540146
0000f0 06 fa d3 3d 92 9a eb bc f8 1c 99 3b 4d cb 0b be
       0.103504226 -0.028760228 0.004672643 -0.13651772
000100 f2 a1 00 3e d2 9c da 3d 37 cc d4 bd 50 23 a3 bd
       0.12561777 0.10674442 -0.103905134 -0.0796572
000110 9c 85 40 3b 71 b7 da 3c dc 5a d2 3c 92 6d 43 bd
       0.0029376512 0.0266988 0.02567809 -0.047711916
000120 50 e1 56 bc 79 b5 2e bd d3 c0 e1 bd 1b e6 d6 bd
       -0.013115242 -0.042653535 -0.110231064 -0.10493108
000130 e3 9c d6 3d 61 a2 17 3e 0e a2 fa bd 9a bc 05 3d
       0.104791425 0.14808036 -0.12237941 0.032650568
000140 a5 0d bc 3d 51 13 28 bd 71 66 13 3e d1 62 c8 bb
       0.0918229 -0.041034047 0.14394547 -0.0061152955
000150 ea 46 e6 bd 21 4c d6 3d 72 01 6a 3d 67 13 7a bd
       -0.112439945 0.10463739 0.057130285 -0.06105366
000160 bc e6 11 3d 49 76 a1 3c bb 6c a8 bc 36 1c 05 3d
       0.035620436 0.019709723 -0.02055966 0.032497607
000170 b1 98 a7 3d 18 7d 0b 3e a5 32 08 3d 5b 07 aa bd
       0.081834204 0.13621938 0.033251423 -0.08302184
000180 65 e8 a9 3d e6 09 32 bd 0b 6b 08 be 3a 00 13 be
       0.08296279 -0.04346647 -0.13322084 -0.14355555
000190 e2 76 43 3d 8a 07 c2 3c 5a 10 e4 bd 6f 77 74 bd
       0.047720797 0.023685236 -0.11135931 -0.059684213
0001a0 ad b0 11 3e c9 03 a2 3c 9f 2d 8f bd aa a8 85 bd
       0.14227553 0.019777196 -0.069911234 -0.06526311
0001b0 d5 77 d2 3b 4c d7 2f 3c 7f 93 07 be 02 ef 16 3d
       0.0064229765 0.010732483 -0.13239859 0.03684903
0001c0 23 a3 08 3d 7a b7 8d bd 61 ee 5c bd e9 a4 26 be
       0.033358704 -0.06919761 -0.053938273 -0.16273846
0001d0 04 bf 79 3d a8 29 4c 3d 61 6e 02 3e 33 95 aa bc
       0.060973182 0.049844414 0.12737419 -0.020823097
0001e0 d4 d8 59 bd 8f e3 f4 bd 6b 53 e5 bd d3 a0 06 be
       -0.0531853 -0.11957466 -0.11197551 -0.13147287
0001f0 fd ec ca 3d 34 33 d6 bd 45 f5 02 3e 3c aa 98 bb
       0.09908483 -0.10458985 0.12788875 -0.0046589654
000200 6a ea 90 3d 9e e0 dd bd c3 0c be bd e3 bd 03 3d
       0.07075961 -0.10833858 -0.09279778 0.032163512
000210 2d 4b ce bd 98 fa 05 be 1f ac dc 3d 9b db dd bd
       -0.100729324 -0.13083875 0.10775017 -0.10832902
000220 69 a3 09 3e ca 79 ff 3d 16 5b c4 bc 93 89 c7 3c
       0.13441242 0.12474401 -0.023969214 0.024357593
000230 ba e3 b7 bd b2 01 1e 3a d4 fc bc bd 5c 28 83 3d
       -0.08978982 0.00060274743 -0.09227911 0.06404182
000240 1a b9 58 bd 98 01 60 3d 64 68 89 bd ef af 2b 3d
       -0.0529109 0.05468902 -0.06709364 0.04191583
000250 0b 40 62 bd 59 81 13 bd 29 3b f6 bd c4 f2 c9 bd
       -0.055236857 -0.036012027 -0.12023003 -0.09860757
000260 0c de 8a bc c4 28 83 3d 01 a7 a8 bd 83 bc 2a 3d
       -0.016951583 0.0640426 -0.082349785 0.041683685
000270 3b cf 0c be cb 8f 6a bc 6c f1 17 bc b1 ac f9 3c
       -0.13750927 -0.0143165095 -0.009273868 0.030477853
000280 68 4b c8 bc d1 79 cb bd 34 86 52 bc e3 30 de bd
       -0.024450019 -0.09935344 -0.012849379 -0.10849168
000290 34 e9 eb bd 4b 00 58 bd b8 9b b3 bd f2 e1 ae bd
       -0.11519089 -0.052734654 -0.08769935 -0.085391894
0002a0 c0 a0 97 3d df 40 a7 bc 32 75 7a 3d 0e d2 f4 3d
       0.074037075 -0.020416675 0.061146922 0.11954127
0002b0 90 60 a7 bd 56 2e ef 3b cb 94 b3 3c 89 78 8b 3d
       -0.08172715 0.007299225 0.021921536 0.068101
0002c0 51 cb a8 3d 29 53 26 3e 85 ae 18 bc f8 de f7 3d
       0.082419045 0.1624266 -0.009318952 0.12103075
0002d0 3b 1b 87 bd 6d 09 2f bd 6d 78 9a 3d 3e 94 1a 3d
       -0.06596991 -0.0427336 0.07542501 0.03773903
0002e0 3c 5f c1 bc 87 fc ed bd b8 00 80 3c e0 dc 7b 3c
       -0.023604982 -0.116204314 0.015625343 0.015372485
0002f0 dd 1f 5e 3d 6e d7 2c bd fb b0 9b 3d 47 53 26 3c
       0.054229606 -0.042197637 0.07602116 0.010151691
000300 37 c1 89 bd c8 b9 bc bb 85 f8 4f 3d 9e fe de bd
       -0.06726306 -0.0057594515 0.050774116 -0.10888408
000310 44 47 dd 3d c6 f2 7e 3c ee 02 f6 3d 18 49 9b 3d
       0.108046085 0.015560811 0.120122775 0.07582301
000320 62 72 8d bb f9 c2 81 3c b4 7b c8 3c 13 be b1 bd
       -0.004316614 0.01584004 0.024473049 -0.08678832
000330 06 78 ef bd 23 f6 e6 bd 55 b9 02 bd 38 24 e9 3d
       -0.116928145 -0.112774156 -0.031915028 0.11383861
000340 07 af c7 3d 2e d6 ce bd 80 b8 a9 bc 30 40 24 3e
       0.09750181 -0.10099445 -0.02071786 0.1604011
000350 3c 73 be bd ac d3 c4 bd de 85 9f 3d f7 5f 9e bd
       -0.09299323 -0.09610686 0.07789205 -0.077331476
000360 cf 6a a5 3b f1 cf fe bd f4 ba 2f 3e 70 90 b9 bd
       0.005048133 -0.124420054 0.1716116 -0.090607524
000370 ae 0e c1 3d 90 0d 0b 3e 20 a7 f8 3d 64 f6 dd 3d
       0.09426628 0.13579392 0.121412516 0.10838011
000380 f8 3d d6 3b fc c4 6c bd cd f2 14 bd 47 94 8c bd
       0.006538149 -0.057805046 -0.036364365 -0.06864219
000390 75 62 df bd ef 37 b8 3d ca d7 b7 3c 4a a2 8b 3d
       -0.10907451 0.089950435 0.022441763 0.068180636
0003a0 67 6f 7d bc eb b0 e2 3d 36 e4 0b be ab 62 1f 3e
       -0.015468455 0.11068901 -0.13661274 0.15564983
0003b0 70 2d ef bd 0b da 8d bd b1 cd ac 3d 20 d8 b5 3c
       -0.116785884 -0.06926354 0.0843767 0.022197783
0003c0 e5 f8 91 bd 92 fe 81 bc e8 48 17 be a7 b8 a0 bd
       -0.07127551 -0.015868459 -0.14773905 -0.0784772
0003d0 aa 8f ac bd fb 62 1d 3d b2 9f a0 bc 3d 30 db 3d
       -0.08425839 0.038424473 -0.019607399 0.1070256
0003e0 b9 15 d5 bd 9b 93 20 bd b8 50 a3 3d 5e 69 9e bd
       -0.10404534 -0.039203268 0.0797438 -0.07734941
0003f0 fa bd c6 3d 14 59 6b 3d 78 8d 03 bc 05 7f 5d bd
       0.09704204 0.057458 -0.008029334 -0.054076213

bias_ih_l0 f4 [200]
000000 09 6c 97 3d 28 fb 18 3e bc 0d 00 3e 9d 2e 62 3d
       0.07393653 0.14939559 0.12505239 0.055220235
000010 a9 23 99 3d 34 af 3a 3c f3 57 1b bd 7d 9f 52 bd
       0.07477505 0.011394311 -0.03792567 -0.05142163
000020 a2 a7 c8 bd 9a bd 16 bd 5b 11 c4 3b 01 fc 8a 3c
       -0.097975984 -0.036801912 0.0059835142 0.016965868
000030 e2 93 04 3e df e8 d8 bd 09 84 af bd 04 8e ae 3d
       0.12947038 -0.10591292 -0.085701056 0.08523181
000040 80 a2 7f 38 7e 64 a2 bd 9d a6 fe 3d 00 e2 23 3e
       6.0948078e-05 -0.079293236 0.12434123 0.16004181
000050 83 6e 82 3d 09 8a 6b bd 53 24 34 bd 3a 47 03 bd
       0.06368735 -0.057504687 -0.043979954 -0.03205035
000060 6c c3 d2 3d b8 d8 1d 3c 2b 98 c7 bd b7 31 2f 3e
       0.1029118 0.009634189 -0.097458206 0.17108808
000070 13 b3 10 3e 07 f9 2b 3e 92 72 a9 bd 9b a2 77 bc
       0.14130811 0.16794215 -0.08273806 -0.015114452
000080 0b 4a 2a bd ca 90 f8 3b 36 50 fa 3c d1 d5 b2 3c
       -0.04157452 0.0075856196 0.030555826 0.021830471
000090 7f ba a2 bd bf 8b c8 3d 88 9c c1 3d 5c c5 c4 bd
       -0.079457276 0.097922795 0.09453684 -0.09607956
0000a0 07 da ee bd 8c a4 3e 3d 5a 40 d7 3c 09 a6 1c 3e
       -0.11662679 0.046543643 0.026275802 0.15297712
0000b0 6b f0 70 3d d9 58 d7 3d 69 41 cd 3d 37 78 10 3d
       0.05882303 0.10514993 0.100222416 0.035270896
0000c0 eb 10 00 be 2b bf 57 bc 1a 9c 02 be e7 4f 6c bd
       -0.12506454 -0.013168137 -0.1275486 -0.05769339
0000d0 78 92 86 bb d2 94 94 bd 12 ff e2 bd d4 09 ac 3d
       -0.004106816 -0.07254948 -0.11083807 0.08400312
0000e0 b7 f2 99 3c d2 4f 0e be 46 db e5 3d 21 f8 d5 bd
       0.018792493 -0.13897637 0.11223464 -0.104477175
0000f0 85 92 8b bd b8 ee 38 3d 1e aa 09 3d 3e 9d 23 3e
       -0.06815056 0.045149535 0.033609502 0.15977952
000100 5f 28 1a 3e 4e 5b 97 3d d7 71 ad 3d 3c 43 97 bc
       0.15054463 0.07390462 0.08468979 -0.018464677
000110 6e 1d ba bd e0 67 94 3d e6 3e af bd 47 57 e0 bd
       -0.090876445 0.07246375 -0.08556919 -0.10954147
000120 37 48 ca bc e4 22 4e 3d b9 b3 8f 3d 1a c5 28 3d
       -0.024692638 0.050326243 0.07016701 0.041203596
000130 9a 48 71 bd f9 9d 92 bc 47 e0 44 bd ca d7 fa 3b
       -0.05890713 -0.017897593 -0.04806545 0.0076551186
000140 fe 82 57 bd 4a 66 d3 3c f7 d1 e1 bc 9b 8d e2 bc
       -0.05261516 0.025805611 -0.02756594 -0.027655413
000150 56 fd 8b bd 33 9b 3a 3d b5 b1 61 3d 9c aa 25 3e
       -0.06835429 0.045558166 0.055101115 0.16178364
000160 1a e7 1e be 27 c9 ca bd dd 25 b0 3d 6a 2f 90 bd
       -0.15517846 -0.09901648 0.08600972 -0.070402935
000170 e9 16 9c bd 26 5f 0a bd 45 fd 13 be eb b2 18 bd
       -0.07621557 -0.033782147 -0.14452083 -0.037280004
000180 fc 20 8a 3c 34 b0 8f 3c fe 0d 3e bd 0a 38 23 bc
       0.016861431 0.017540075 -0.046400063 -0.009962091
000190 aa 2b 86 3d 35 bc 09 be a0 ba ad bd 21 e4 51 3d
       0.06551297 -0.13450702 -0.084828615 0.05124295
0001a0 6b 4c 65 bd 6d d0 69 bd 0e af 63 bd 5e f0 bc 3d
       -0.05598108 -0.057083536 -0.055586867 0.09225534
0001b0 55 d7 e1 bd 18 a7 19 3d 38 8c 7f bd 83 c0 11 3d
       -0.110273995 0.03751287 -0.062389582 0.035583984
0001c0 bc 48 84 3c 8c 2e 0b 3e 5e 9c c4 3b 70 7d 29 be
       0.016147964 0.13591975 0.0060000857 -0.16551757
0001d0 5a 94 aa bd 90 a3 d0 bd bf 4a ec 3d 26 8f 21 3b
       -0.08329077 -0.10187447 0.11537694 0.0024651974
0001e0 9a a9 98 3d 47 5e ca bd 08 1b da 3d b1 36 a0 bc
       0.07454224 -0.09881263 0.10649687 -0.019557329
0001f0 bd f5 cb 3c 0a 9c 3d bc 4e 51 ff 3d 1c 75 58 ba
       0.02489745 -0.011572847 0.124666795 -0.0008257197
000200 4f 89 c9 3c 60 e5 05 bd 6a 79 85 bd 92 b4 ec bc
       0.024601607 -0.032689452 -0.065172985 -0.028894696
000210 54 f6 cd 3c 2b 85 0c 3e a5 32 92 bd 7d d4 9e bd
       0.025141872 0.13722675 -0.07138566 -0.07755373
000220 2e eb a2 3d 93 46 e0 3d 63 66 a4 3c ad b5 a6 3d
       0.07955013 0.10950961 0.020068353 0.08140121
000230 8f d0 ff 3d dc 14 62 bc 05 89 94 bd 61 46 17 3e
       0.12490951 -0.013798919 -0.07252697 0.14772941
000240 65 e3 c3 3d 79 a5 be 3d 89 95 5d bb 5c 6a 3c bd
       0.095648564 0.09308905 -0.0033811054 -0.04599987
000250 59 1d 8d 3c a2 44 30 bd 6c 9c 30 bc df 8d af bd
       0.017225908 -0.043034203 -0.010779481 -0.08571982
000260 c7 60 6a 3d ef 41 2a 3d f8 cc ff ba 97 ae a9 3d
       0.0572212 0.041566785 -0.0019516042 0.082852535
000270 56 7c 3b 3d f9 75 f2 bc de b9 da bd cf 2a c4 bd
       0.045772873 -0.02959727 -0.106799826 -0.095784776
000280 25 8e cf bd 0a 0d 00 be 76 de ed bd ee ac 2d 3e
       -0.10134534 -0.12504974 -0.11614697 0.16960499
000290 54 ac c1 3d d0 b1 4f 3d f1 76 bd 3c e7 83 f5 3d
       0.09456697 0.050706685 0.023128005 0.11988049
0002a0 46 01 21 3d 5b 6a b6 bd c9 46 95 bd a8 57 9c bd
       0.039307855 -0.089070044 -0.07288892 -0.076339066
0002b0 56 23 9e bb ea 7a e6 3c 33 37 81 3d 02 a7 da bd
       -0.0048259897 0.028134782 0.063093565 -0.106763855
0002c0 81 3f ce 3d 48 e7 45 3d 26 7b 6b bd 4d 29 3c bd
       0.10070706 0.04831627 -0.05749049 -0.045937825
0002d0 1f 3d 8e 3d 8c 8d 90 bd 58 b2 89 bc da 34 4c 3d
       0.06945252 -0.07058248 -0.016808674 0.04985509
0002e0 55 6e 2c 3e a8 13 0d 3e d9 24 88 bc 5c 89 c9 bd
       0.16838963 0.1377703 -0.016619133 -0.09840652
0002f0 8c 8a ed 3c c0 e3 61 b9 90 7c a2 3c 3a 88 b2 bc
       0.028996728 -0.00021542516 0.019834787 -0.021793474
000300 aa 51 5a 3d 36 65 17 3e 57 c7 8a 3d bf 34 96 3d
       0.053300537 0.14784703 0.06776302 0.07334279
000310 90 2b 21 bd 70 17 cf 3d 26 fc f4 bd 4b e1 c8 bd
       -0.039348185 0.10111892 -0.11962156 -0.09808596

bias_hh_l0 f4 [200]
000000 aa ed 3a 3c cc 6e 61 bd 0e 29 a9 bd b6 ad 10 3e
       0.011409203 -0.055037305 -0.08259784 0.14128765
000010 7d db 95 3d a8 c7 be bd ea cd 80 3d 68 44 be 3c
       0.07317255 -0.09315425 0.06289275 0.023225978
000020 17 4b 91 3c 3e 54 da 3d 59 50 9e bd 55 4c 08 be
       0.017736001 0.10660599 -0.07730169 -0.13310368
000030 eb 52 12 3e 2b a3 9c bd 64 cb 94 bd a5 7c 55 3d
       0.14289443 -0.07648309 -0.07265356 0.052120823
000040 aa f1 d3 3d e4 df a4 3d c5 9a 0e 3e 1a 98 75 bd
       0.10348828 0.08050516 0.13926227 -0.05995951
000050 ab 70 ee bc e4 17 26 3e bc 35 63 bc 13 83 b2 bd
       -0.029106459 0.16220051 -0.013867792 -0.08716407
000060 ea 50 d3 3d 4a cb 4c 3d a4 27 b3 bd 4c 99 fa 3b
       0.103181675 0.04999856 -0.08747795 0.007647669
000070 b2 9f 17 bd 4c fd 8b bb 08 0e 05 3d c4 51 bc bc
       -0.03701753 -0.0042721387 0.032484084 -0.022988208
000080 49 e8 a3 bd 9e ad be bd d8 82 60 3d e3 71 ca bd
       -0.08003289 -0.093104586 0.054812282 -0.098850034
000090 27 bc 90 3c 98 09 3a bd a5 b7 a8 bd 7c 2e c7 3c
       0.017667843 -0.045419306 -0.082381524 0.024314158
0000a0 e6 9d 89 bd 4b 4d d4 3d e4 a7 a3 3d 32 eb a4 3d
       -0.0671957 0.10366305 0.07991007 0.080526724
0000b0 59 a8 b3 3d d8 d4 86 bd a3 56 29 bd 4c 11 c0 bd
       0.08772344 -0.065835655 -0.04134239 -0.09378299
0000c0 7a cf 0d bd 58 fd 8e bd 17 1e 36 bb 3c 00 a1 bd
       -0.034621693 -0.06981915 -0.002778893 -0.07861373
0000d0 6d ec b8 bd 66 55 4d bb 7f 11 ae 3c 92 d4 be bd
       -0.0902947 -0.003133142 0.021248577 -0.09317888
0000e0 16 83 fb bd 19 13 80 bd 79 86 5f 3d ff cb 19 be
       -0.12280862 -0.062536426 0.054571602 -0.15019225
0000f0 8c 5e a0 bd 36 2a a5 3d 1e 3e 74 bd 97 f6 db bd
       -0.078305334 0.08064692 -0.059629552 -0.10740393
000100 90 91 c5 3d 06 f8 27 3e 92 15 c9 bd 96 08 b5 bd
       0.096469045 0.16403207 -0.09818567 -0.08839528
000110 55 47 9a bd 57 a4 d2 bc 3a d5 fe 3d cd 47 07 3e
       -0.07533137 -0.025713129 0.124430135 0.13210984
000120 05 3d 96 bd 9d b2 d0 3d 57 76 d2 3d 5e 3c 69 bd
       -0.07335857 0.10190318 0.10276478 -0.056942336
000130 7b 81 c8 bd bd 57 02 3e 8f d6 20 bc 3f 0c 44 bd
       -0.097903214 0.12728782 -0.00981678 -0.04786324
000140 bf b8 e8 3d 5c 80 03 3d 28 9c ea bb e2 14 90 bd
       0.113633625 0.032104835 -0.0071597286 -0.07035233
000150 82 f7 fd bc 3a 00 e9 bb c9 f7 6e 3d 48 84 95 3c
       -0.03100181 -0.0071106227 0.058341775 0.018251553
000160 f8 13 87 3d 41 62 db bc 7d f5 25 bd 21 ec 11 be
       0.065956056 -0.02678025 -0.04051732 -0.14250232
000170 2d b5 57 bd d2 b0 2b 3e 4a 3d e3 3d 4c e1 11 3e
       -0.052663017 0.1676667 0.11095674 0.142461
000180 32 3c ac 3d 03 f9 06 3e df 15 e4 3c bd d8 db bc
       0.08409919 0.13180928 0.02784246 -0.026836747
000190 59 a5 17 3e 16 f0 c0 3d ec f4 73 3d 7f 98 eb bd
       0.14809169 0.09420793 0.059559748 -0.11503696
0001a0 4f 7a 3c 3d 43 39 e6 3d d6 b3 9a bd dc 9b 98 3d
       0.04601508 0.112413906 -0.07553832 0.07451603
0001b0 bb ae b6 bc 18 3a 0d 3d af 40 72 3c 44 4e ed 3d
       -0.022300115 0.03447923 0.01478593 0.115871936
0001c0 dc 57 8e 3d c7 59 8f 3d 5d a3 a5 3c 5a 74 a9 bd
       0.069503516 0.069995455 0.0202195 -0.082741454
0001d0 23 94 16 3e 3b 09 85 3c 1c 23 03 bd 56 04 29 3c
       0.14704947 0.016239753 -0.032015905 0.010315975
0001e0 ff c7 07 3d 46 db d6 3d 32 33 da bd 78 14 f0 bd
       0.033149716 0.10491042 -0.10654296 -0.11722654
0001f0 4c a3 ea 3d 6a 76 a2 3c 0c 5a 04 be 50 a5 18 bc
       0.11456928 0.019831855 -0.12924975 -0.009316757
000200 9b 12 58 3d a8 a6 17 bd 64 8f 1b bd ce db 89 3d
       0.05275212 -0.03702417 -0.037978545 0.067313775
000210 b8 6b fc bc 99 70 48 bd 6b 49 cb bd a3 95 bf 3d
       -0.030813083 -0.048935506 -0.09926113 0.09354713
000220 94 5d f0 bc 05 57 3a bd 16 e7 04 3e 17 39 80 bd
       -0.029341497 -0.045493145 0.12978777 -0.06260889
000230 1f bf cf 3d 26 c0 67 3d 1c 84 9e bd a6 5f 67 bc
       0.10143875 0.05657973 -0.077400416 -0.014121925
000240 eb 7c 46 3d 4c be e0 3b 87 97 cf 3c 24 2a 4c bd
       0.048458975 0.0068586227 0.025340809 -0.049844876
000250 7e 9f 00 3e 08 9c e1 3d 04 36 d4 3d 7e 59 86 bc
       0.12560841 0.11016089 0.10361865 -0.016400095
000260 5f 83 1b 3e 67 53 c7 3d 32 5e f2 3d fb 26 68 bd
       0.15186833 0.097327046 0.118343726 -0.0566778
000270 89 41 5d 3d 84 84 cf bd 1b bb 07 3e 89 5e fb bb
       0.054017577 -0.10132697 0.13254969 -0.0076711816
000280 29 dd 0e bc 45 8a 92 3d 1a c5 b0 bd 7b f6 c2 3c
       -0.008719721 0.07155279 -0.08631344 0.023799172
000290 07 39 1f 3e 45 0b 8f bd 4c e0 f9 3d 2a 75 81 3d
       0.15549098 -0.06984571 0.12200984 0.063211754
0002a0 30 d0 fe bc 93 2c d5 3d 4d 7e 89 bc 62 6d b9 3d
       -0.03110513 0.104088925 -0.016783858 0.09054066
0002b0 4a f5 07 3e 3b cf 82 3c d6 6d f1 3c 77 fc 5b 3c
       0.13277164 0.015967956 0.02947132 0.0134268915
0002c0 7e f1 d5 3d 51 fb e7 3b c1 39 13 3c 5c ea 97 3d
       0.104464516 0.00707952 0.008985938 0.074177474
0002d0 64 a8 34 3e da 9f 35 bd 72 e0 90 bd db 0a 8d 3d
       0.17642361 -0.0443419 -0.070740595 0.06886836
0002e0 cf 6c b5 bd 5d fc 2d 3e f2 23 d7 bd f7 77 48 bd
       -0.08858644 0.169908 -0.10504903 -0.048942532
0002f0 06 bb 56 bd 68 6a f8 ba 73 ac 8c bd fe b9 eb 3c
       -0.052424453 -0.001895261 -0.068688296 0.028775211
000300 e9 2d 2d bd 63 a9 d2 bc ae 94 39 bd ed 3d d6 bd
       -0.04228011 -0.025715536 -0.045307808 -0.1046103
000310 d9 0e 6a 3d f0 d4 8e bd 1b 25 09 3c cc cb 41 3d
       0.057143066 -0.06974208 0.008370663 0.047313496

weight f4 [50, 50]
000000 6e 21 bf 3d 12 1a ad bd 46 1d ad 3d 1c fc ca 3d
       0.09332548 -0.08452238 0.08452849 0.09911367
000010 26 fb 9f 3c 44 86 3a 3a 84 e2 b5 bd 1d 34 12 3e
       0.019528937 0.0007115344 -0.08881095 0.14277692
000020 5c b0 b0 3c fe c0 7e bd 92 a1 db 3d f5 35 9d bd
       0.02156847 -0.06219577 0.107241765 -0.07676307
000030 ae 98 cc 3d fe d0 00 bd 82 1c 16 3e 68 54 d3 3b
       0.09990059 -0.03144931 0.14659312 0.006449271
000040 a4 ee 11 be cf 66 82 3b b0 9f 79 3b 70 85 91 3c
       -0.1425119 0.003979541 0.0038089566 0.017763823
000050 38 b0 a3 bd 21 a8 b0 bd ea 46 96 3d f8 2d 76 bd
       -0.079925954 -0.08625818 0.073377445 -0.060102433
000060 8f e5 f8 bc b8 87 98 bd 72 ce f2 3d 1e 6f d1 3d
       -0.0303829 -0.07447761 0.118557826 0.10226272
000070 53 e8 33 bd 5a d9 51 3d 8c 52 17 be dd 28 bb 3d
       -0.043922734 0.051232673 -0.14777583 0.091386534
000080 d8 bf e9 bd d1 01 6f 3d d0 92 be bd 08 f0 9e 3d
       -0.114135444 0.05835134 -0.09305346 0.07760626
000090 9d 3d 67 3d 8c 1a c7 3d 42 0a 5e bd f4 7e 17 3d
       0.056455243 0.0972186 -0.054209 0.036986306
0000a0 0a d4 ae 3b 15 56 c5 3d ff d6 12 3e 45 7b 94 bd
       0.0053353356 0.096355595 0.14339827 -0.07250074
0000b0 4d f5 d3 bc 1a a9 8b bb 59 b9 13 be ea 7b 9c 3d
       -0.025873804 -0.004262102 -0.14426173 0.07640822
0000c0 96 2b e6 3d d3 a1 75 3d 4f 7e 66 bd e3 2f e9 bd
       0.11238782 0.05996878 -0.0562728 -0.11386087
0000d0 6d 67 e9 3d 59 0b 95 3d 47 00 32 3e d0 09 cb bc
       0.1139668 0.07277555 0.17382918 -0.024784952
0000e0 a9 41 21 3d 6e 1d 02 bd 15 6f 29 3e 69 e0 de 3d
       0.03936926 -0.031766348 0.1654628 0.108826466
0000f0 11 3c 09 be 72 8e d3 3d 56 9d ba bc a6 84 63 3d
       -0.1340182 0.10329904 -0.022780102 0.055546425
000100 3e 2b ba bc a1 24 e8 bd cf 27 13 3c 7b cc 10 bc
       -0.022725698 -0.113351114 0.008981659 -0.008837814
000110 d6 ed c6 3b b1 9e 17 be 5f 98 e4 3c 42 a4 e1 bd
       0.0060708327 -0.1480663 0.027904687 -0.11017658
000120 d1 a2 32 be 56 5c 27 3e 68 e5 12 be 60 51 31 bd
       -0.17444922 0.16343817 -0.14345324 -0.043290496
000130 5f 3d 06 be 97 5c c8 bd c8 54 df bd 2b b9 a7 3d
       -0.13109349 -0.09783285 -0.109048426 0.08189615
000140 61 97 08 bd 73 1a df 3c 54 83 4f 3d 70 fa ca 3d
       -0.03334749 0.027234292 0.050662354 0.099110484
000150 fa 5c 50 bc c1 24 05 bc f5 44 4d bd a0 12 db bd
       -0.01271748 -0.008126439 -0.05011459 -0.10696912
000160 5d 68 ff 3d 7e 9b 2d 3e ec d2 9a bd e2 47 87 bd
       0.124710776 0.16953847 -0.075597614 -0.066055074
000170 f2 b5 bd bc cb bb dc bd 67 84 a1 3d 2c d1 a6 bd
       -0.023158047 -0.10778006 0.07886582 -0.08145365
000180 98 b4 be 3a 6e 81 4e bd 53 16 d7 bd b5 dd 2b 3e
       0.0014549671 -0.050416403 -0.10502305 0.16783793
000190 7e d5 29 be d2 6d 53 bb c7 59 36 bd 15 b3 80 bd
       -0.16585347 -0.0032261503 -0.044519212 -0.06284157
0001a0 c5 78 01 3e dc e3 9b bc ce 9a 99 bd 8d 26 25 3e
       0.12643726 -0.01902955 -0.0750023 0.16127987
0001b0 5d fe 05 3e 3a a5 21 bd 7d 69 f3 3d 66 da b6 bd
       0.13085313 -0.039464213 0.11885355 -0.08928375
0001c0 61 c6 c6 bc f5 13 15 3d c9 c2 0e 3e 1b b9 d6 3d
       -0.024264516 0.036395986 0.13941492 0.10484525
0001d0 bf 69 bc bc a6 05 0a be ca d0 73 bb 6c c0 7f bc
       -0.022999642 -0.13478717 -0.0037203305 -0.015609842
0001e0 52 fc 19 be 26 f9 7e bb 30 b6 26 bc 6c 76 17 be
       -0.15037659 -0.0038905828 -0.010175273 -0.14791268
0001f0 c7 24 c9 3d 8d 94 09 be 70 f1 fe bd d9 d9 0f 3e
       0.09821468 -0.13435574 -0.12448394 0.14047946
000200 5b ab 80 bc 9b 58 28 3d 23 03 41 bd 58 8a de bc
       -0.015706709 0.041100126 -0.047122132 -0.027165577
000210 a2 e6 a1 3d 93 5d 1e 3e d2 38 2c 3d e5 82 d2 3d
       0.07905318 0.15465383 0.042046376 0.102788724
000220 32 fa e3 bd 6e 6e cd 3d ec cd 74 3d 24 a0 9c 3d
       -0.11131705 0.100308284 0.059766695 0.07647732
000230 79 00 e6 3d 5d 0e 9b 3b 45 47 6c bd 91 bd 9e bd
       0.11230559 0.004731937 -0.057685155 -0.07751001
000240 9f f2 88 bd c4 83 df bd 7a 35 72 3d 32 18 9e bd
       -0.06686901 -0.10913804 0.05913303 -0.07719459
000250 66 6e 22 3d df 72 5c 3d a2 1b dd bd 44 73 1c be
       0.039656065 0.053820487 -0.10796286 -0.15278345
000260 b6 24 b4 3d 0e 20 1b 3e 3c 2d 10 3e 79 c1 9c bd
       0.087960646 0.15148947 0.14079756 -0.076540895
000270 04 89 7e bd 1b a2 08 3c b3 c2 0c bd 08 de a3 3d
       -0.062142387 0.00833943 -0.034365367 0.080013335
000280 08 5a 89 bd f2 7d 7d 3d b1 55 ae 3d d1 e5 b9 3d
       -0.06706625 0.06188769 0.08512438 0.09077037
000290 a1 b0 42 3d cc c9 7f 3d 81 0f 04 bd d6 9f d1 3d
       0.047531728 0.062448308 -0.03224135 0.102355644
0002a0 73 3f 11 bd f3 cd c4 bd 09 56 a2 bd 06 01 54 bd
       -0.0354609 -0.09609594 -0.07926566 -0.05175879
0002b0 20 ed 37 bd e0 68 64 3d d8 16 77 b9 88 65 71 3c
       -0.044903874 0.05576408 -0.00023564266 0.01473368
0002c0 1a 24 d7 bd 7c 31 a5 bc c6 66 05 be 76 13 9e 3a
       -0.10504933 -0.020165198 -0.13027486 0.0012060243
0002d0 5a a4 f5 3a 79 15 c6 bd 95 cd f2 3c 53 4f 35 3e
       0.0018740997 -0.09672064 0.029639045 0.17706041
0002e0 07 33 b7 bb 02 87 9b 3d 04 fc 11 be 1f 23 46 bd
       -0.0055907997 0.0759411 -0.14256293 -0.048373338
0002f0 a2 0b 01 be c9 54 42 bc 16 80 2d bd 31 e8 f3 bd
       -0.12602094 -0.011861035 -0.04235848 -0.11909521
000300 96 94 27 bd 54 d8 a4 3d 71 d0 f3 3d 9e 6e e6 3d
       -0.040913187 0.08049074 0.119049914 0.11251567
000310 a1 a7 96 bd b2 66 09 bc 14 0a b0 3d 06 04 bd bd
       -0.073561914 -0.008386301 0.08595672 -0.09229283
000320 46 e2 86 3d d4 bb 10 3e fe a0 61 bc b9 f5 bd bd
       0.06586127 0.1413415 -0.013771294 -0.092753835
000330 13 58 00 be e9 8e 49 3d 5c 1a cd ba 0c 6c cb bd
       -0.12533598 0.049208555 -0.0015648114 -0.09932718
000340 40 3f e5 ba 4a 6b 56 bd 43 4f 04 3b c0 4c 46 ba
       -0.0017490163 -0.052348413 0.0020188845 -0.0007564537
000350 09 3e 92 bd aa 3f 8e bb 08 d1 d6 bc 90 32 bf 3a
       -0.071407385 -0.0043410854 -0.02622272 0.0014587212
000360 4c d6 2f 3e dd b9 20 3e 6b 14 8e bd 8f 6d 00 be
       0.17171592 0.15695901 -0.06937488 -0.12541793
000370 32 5d 7e 3d e6 6f aa bd f9 21 34 3b 32 f9 2c 3e
       0.062100597 -0.08322124 0.002748607 0.16891935
000380 a5 e3 f4 bd 79 90 b3 bd f5 c8 68 3d bb a4 4e bc
       -0.11957482 -0.0876779 0.056832273 -0.012612517
000390 4f 23 a2 3d 29 6d 06 bc 2c 5f eb 3d 50 c7 21 3b
       0.07916891 -0.008204737 0.11492762 0.002468545
0003a0 ac 05 2a 3e 27 b6 af 3c 2c 47 f6 3d 0b bd bc 3c
       0.16603726 0.021449162 0.12025294 0.023039361
0003b0 5b 57 1e be ea a5 b7 3d 69 66 55 3d 5f 7b ae bd
       -0.15463011 0.089671925 0.05209962 -0.08519625
0003c0 df 36 c4 bd 8f fe 1c bd af 7b cd bd 56 63 e1 3d
       -0.09580778 -0.038328703 -0.100333564 0.11005275
0003d0 1d cb f6 bd 95 61 e0 bc fa 09 ed bd 42 f8 9e bd
       -0.120504595 -0.02739028 -0.115741685 -0.07762195
0003e0 3e 67 9c 3d be 6c a0 3d 77 c1 de 3d 16 40 89 bd
       0.076368794 0.07833241 0.10876744 -0.067016765
0003f0 69 0e c3 3d f0 35 30 bd 3b 26 8f bd 20 f7 d2 3c
       0.09524233 -0.04302019 -0.06989714 0.025752604

bias f4 [50]
000000 46 3c 84 bd 1e 54 ba 3a 55 fc e1 3d d9 b3 11 bd
       -0.06456809 0.0014215743 0.11034457 -0.035571907
000010 c0 62 d2 3d 79 15 c2 bd 1d c1 91 3d af 43 08 3d
       0.10272741 -0.09476752 0.071169116 0.033267673
000020 7e 57 c4 3c 38 9e 07 3e 8c 98 f4 bd 4e 6d 6f bb
       0.0239675 0.1324395 -0.119431585 -0.0036533657
000030 68 c4 db 3d 22 3c a1 bd 94 98 a8 bd 48 88 2c bd
       0.10730821 -0.078727975 -0.08232227 -0.042122155
000040 33 cd 97 3d 7e 5a 1a be a0 78 aa bc 4c d7 05 be
       0.074121855 -0.15073583 -0.020809472 -0.1307041
000050 1d ea cd 3d 05 27 8e bd e9 5c 09 be 9d b1 90 3d
       0.10054419 -0.06941036 -0.13414349 0.07065127
000060 2a d6 f7 bd 03 58 df 3d 08 b4 d5 3d 4e ac 3c bc
       -0.121013954 0.10905459 0.10434729 -0.01151569
000070 b7 00 3a bc 3d 7f 2c 3d 8e 98 ce 3d 8f 93 ea 3d
       -0.0113527095 0.04211353 0.10087691 0.11453926
000080 f1 2e af 3d 99 0f f4 bc eb 30 b1 3d 10 cf 05 ba
       0.08553875 -0.029792594 0.086519085 -0.0005104402
000090 62 31 6b bd 84 f4 08 be a7 7b 16 bd 13 b6 f6 3d
       -0.057420142 -0.13374525 -0.036739018 0.12046447
0000a0 ef 2d cd 3d 79 61 f8 bd 59 f1 9f bc 6c 0c 0a be
       0.10018527 -0.121279664 -0.019524263 -0.13481301
0000b0 17 18 7d bc 98 fe 06 3e c0 37 f6 bd 85 ab 5f 3d
       -0.015447638 0.13183057 -0.12022352 0.054606933
0000c0 8f 0b bf bd ae d3 a1 bd
       -0.093283765 -0.07901703

weight f4 [1, 50]
000000 bf aa dd 3d c2 07 12 3e e3 8c a2 bd f7 69 1c bd
       0.10823583 0.14260772 -0.07937028 -0.038186993
000010 d0 2e 93 bd 5a a5 89 3d 33 cc ee bc 2b 35 a6 bd
       -0.07186663 0.067209914 -0.029150104 -0.0811561
000020 12 43 8d bc bf fa 08 be 4c 51 a5 3b 47 02 00 be
       -0.017243896 -0.13376902 0.0050450917 -0.12500869
000030 76 74 13 bd f3 ab 16 bd f4 f5 59 3d 5c f1 cb bc
       -0.035999738 -0.036785077 0.053213075 -0.024895363
000040 c6 49 6f 3d 85 b2 03 be 45 e0 3c 3d 44 8b e5 3d
       0.058419965 -0.12861069 0.046112318 0.112082034
000050 54 69 a3 bd 1d 4d e7 bd b3 52 16 be 91 a2 fc 3d
       -0.07979074 -0.11294005 -0.14679985 0.123356946
000060 4e f9 a0 3d 21 b4 e1 3d d7 ac 04 bd ab 78 af 3d
       0.07860051 0.11020685 -0.032391395 0.085679375
000070 28 6a d2 3d 2e 71 d5 3d f6 b1 2d be 84 fd 70 3b
       0.10274154 0.10421978 -0.16962418 0.00367722
000080 00 a7 d7 bd b3 44 8a bd ef 15 bf 3d 71 83 1c 3c
       -0.105298996 -0.067513846 0.093303554 0.009552822
000090 a9 2b cf 3d 91 76 c0 3d d9 ff 2d 3e f4 0d f2 bb
       0.101157494 0.09397615 0.1699213 -0.0073869172
0000a0 36 d4 d5 3d f9 df 06 3e 0d 37 4b 3d 43 6d 08 be
       0.10440867 0.13171376 0.049613047 -0.1332293
0000b0 26 33 57 3d ab a5 57 3d 5b fe 01 3d 58 ba 59 bd
       0.052539013 0.052648228 0.031736713 -0.053156227
0000c0 7c 49 f0 bc 0d 5c a8 3d
       -0.029331915 0.08220682

weight f4 [1, 50]
000000 76 d4 78 bd b5 30 e4 bd 63 aa a5 3d 03 14 fb bd
       -0.060749494 -0.11142103 0.08089139 -0.12259676
000010 bc f4 e5 3d 15 c1 02 be 81 0b fb 3d c4 de 95 3c
       0.1122832 -0.12768967 0.122580536 0.0182947
000020 68 06 c9 3d 82 c1 2d 3b f1 32 eb 3d 87 07 1e be
       0.09815675 0.0026513045 0.11484326 -0.15432559
000030 22 d4 0d bd 00 de 45 3d 19 03 e9 3d 5e 26 16 be
       -0.034626134 0.04830742 0.11377544 -0.14663073
000040 62 47 c5 3d e0 f6 e6 3d c6 2c bc 3d e9 ac e8 bd
       0.09632756 0.112775564 0.09188227 -0.11361105
000050 b5 01 0c bc db af 82 3d 28 e6 a3 bd 2e f6 34 bd
       -0.008545329 0.06381198 -0.08002883 -0.044180088
000060 e9 70 a8 bd 8b 3a 5f bd 54 e2 df bd 7d ec a0 bb
       -0.08224661 -0.05449919 -0.109318405 -0.004911004
000070 af 61 1e be 61 7f cb 3d 36 67 e3 bb d6 1a ee 3d
       -0.15466951 0.09936405 -0.006939794 0.11626212
000080 30 12 a1 3d be 2a e4 3d 71 18 0d 3e b4 d0 86 3d
       0.07864797 0.11140965 0.13778855 0.06582776
000090 02 78 5c 3d ab 4e d5 bd 07 b0 1c bd 20 8d dc 3c
       0.053825386 -0.10415395 -0.03825381 0.026922762
0000a0 5e e4 18 3e ea f5 14 bd e3 3c 16 bd a8 e7 bc bd
       0.14930865 -0.036367334 -0.03667916 -0.092238724
0000b0 d3 fb 7d bd 5a aa 56 3d 7a 8a 66 3c bb 20 0f bd
       -0.062007736 0.052408554 0.014071101 -0.034943324
0000c0 c2 0b cd bd 38 9d 13 3e
       -0.10012008 0.14415443

weight f4 [8, 50]
000000 e9 5b 0b be 87 0b 0b be e9 bc 01 3e c8 a5 0e be
       -0.1360928 -0.13578616 0.1266972 -0.13930428
000010 94 dd 51 bc 60 99 08 bd 42 0b 15 be 95 dd e8 3d
       -0.012809176 -0.033349395 -0.14555076 0.113703884
000020 1f 40 21 3d 59 a2 74 3d 9c e5 a8 3c 8e ab af 3c
       0.03936779 0.05972514 0.020617299 0.021444108
000030 0b 2c 00 3e 94 ef d7 bd dc 5a 51 3c 3c 3f 13 3c
       0.12516801 -0.10543743 0.01277801 0.008987244
000040 5e ea d4 3b 16 fc 3d bc d7 59 f4 bd 23 f9 58 3d
       0.0064976653 -0.0115957465 -0.11931198 0.05297197
000050 23 75 9d bd d8 9e 58 3d b2 38 7b 3d db 9a c4 bd
       -0.07688358 0.05288586 0.061333366 -0.09599849
000060 9c 77 a2 bd 98 71 2d 3d 83 a3 c9 bd f7 fc 18 be
       -0.0793297 0.04234466 -0.098456405 -0.14940248
000070 e1 16 91 bc 99 84 fb bd 7d 95 40 3d 34 da 1f bd
       -0.017711105 -0.1228115 0.047017563 -0.039026454
000080 3e 25 83 ba a6 8d 98 3d 72 d4 cf 3d cc 56 0f bd
       -0.0010005606 0.07448892 0.101479426 -0.034994885
000090 69 f0 e6 3d a9 c7 15 be fe cb 0b be fa dd 83 3b
       0.11276323 -0.14626946 -0.13652036 0.0040242644
0000a0 a2 50 3c 3b 79 99 e6 bd 29 3a f5 bd e4 37 13 be
       0.0028734584 -0.11259741 -0.11973984 -0.1437679
0000b0 ba f5 35 be b0 1f 9d bc 85 1e 04 be a3 ed f7 bd
       -0.17769518 -0.019180149 -0.12902267 -0.121058725
0000c0 b0 1c 30 3d 24 47 03 be 5d 89 51 bd a8 d4 2c be
       0.04299611 -0.12820107 -0.05115639 -0.16877997
0000d0 63 e1 29 be ab 28 de bd bd c3 ba 3c d0 98 cd 3b
       -0.16589884 -0.108476005 0.022798413 0.00627432
0000e0 a4 14 33 3e 35 d2 6f bd 24 cb 17 be d3 72 0f bb
       0.17488343 -0.05855008 -0.14823586 -0.002188851
0000f0 f0 7d 13 be 57 6f e8 bd 24 25 9b bd e4 94 02 be
       -0.1440351 -0.113493614 -0.075754434 -0.1275211
000100 20 08 d9 3d 82 07 9d 3d 67 e4 a5 3d 6e 91 1f be
       0.10597253 0.076674476 0.08100205 -0.15582821
000110 64 a3 1d 3d 7f f1 c9 3c 02 69 d4 3d e4 88 bd bd
       0.0384859 0.024651287 0.10371591 -0.092546254
000120 29 83 5b bd f1 9d 1c 3e 23 d8 25 be 2d 5f ad bd
       -0.05359188 0.15294625 -0.16195731 -0.08465419
000130 fb 21 16 3e f4 65 c4 3d fa 80 32 bd 96 f2 e2 3d
       0.146614 0.095897585 -0.043580033 0.11081426
000140 c5 72 c5 3d 15 b8 05 3d 6b e8 a3 3d bf f7 54 3d
       0.09641031 0.032646257 0.080033146 0.05199408
000150 6c 41 14 3d f5 0f 08 3e c7 b0 9b bc 49 78 06 be
       0.036195204 0.13287337 -0.019005192 -0.13131823
000160 be a4 35 3e 61 64 e8 3d 2f 35 ad bc 7c 36 2c be
       0.17738625 0.11347271 -0.021143524 -0.16817659
000170 38 6c 68 3d 72 08 11 be e4 12 cc bd fe c8 6e bd
       0.05674383 -0.14163378 -0.099645406 -0.05829715
000180 51 97 4d bc 62 b9 38 be 61 2c 15 3e 8b b5 07 be
       -0.012548284 -0.18039468 0.1456771 -0.13252847
000190 7e 56 a1 bd 6e a1 cc 3d d6 73 79 3d 4d ba 26 3d
       -0.07877825 0.09991728 0.060901485 0.040705014
0001a0 df a5 08 3d 66 fc f3 bd ec f3 7d bd bc ab 26 bd
       0.033361312 -0.119133756 -0.0620002 -0.040691122
0001b0 91 52 80 bd 21 2f 96 3d ec 2b 13 be ac 37 a2 bc
       -0.06265748 0.07333208 -0.14372224 -0.019801937
0001c0 46 9b 8e bd bc 36 30 be db 85 02 3e 0e 82 b9 3d
       -0.0696321 -0.1720838 0.12746374 0.09058009
0001d0 5b b9 0f 3e b9 b0 d6 bd 74 68 13 be bc 74 d4 bd
       0.14035551 -0.10482926 -0.14395314 -0.10373828
0001e0 f0 bc a3 3c b4 d4 9b bd 9b 3d d3 bd fc 51 15 3e
       0.019987553 -0.07608929 -0.10314485 0.14582056
0001f0 9f 3f 13 3d c4 a6 b9 bd 0b 0f f6 3d cb fe 26 3e
       0.035949346 -0.09065011 0.12014588 0.16308133
000200 a0 d9 b8 3d 0d 3c 58 3d 3b b1 98 bd 64 f1 1c 3e
       0.09025884 0.052791644 -0.07455679 0.15326458
000210 11 ac 92 bc b5 86 17 bd 74 a7 b9 3d bf 04 34 bd
       -0.017904313 -0.0369937 0.09065142 -0.04394984
000220 9f cc 11 be 5d 62 dc 3d d0 84 51 bd 07 1d d2 bc
       -0.14238213 0.10760949 -0.05115205 -0.025648607
000230 50 49 35 bd 54 ee b5 3c d3 ea 03 bd 0d 13 fc 3c
       -0.04425937 0.02220837 -0.032206368 0.030770803
000240 a2 6e 01 bd 3b 81 d9 bd cc 75 4e bd 7c 68 aa bd
       -0.03159965 -0.10620352 -0.05040531 -0.0832071
000250 15 ad 0a 3d 4a 0f b7 bc de ac 2e bd 5d 2e bc bd
       0.03385647 -0.022346158 -0.042645328 -0.091885306
000260 84 6f c2 bd 7d 1a f1 bd f4 59 09 bd 1e ae 58 3c
       -0.09493926 -0.1177263 -0.03353305 0.0132251065
000270 19 ca ce 3d 46 09 60 bd 09 02 80 3d 12 fb 6a bd
       0.10097141 -0.054696344 0.06250388 -0.057368346
000280 22 cd d1 3c 2e 59 5b 3d 3e e3 a3 bd 6d 9d d3 3c
       0.02561051 0.053551845 -0.080023274 0.025831902
000290 39 a9 04 3e 83 52 b5 bd 75 12 64 3b 02 28 90 3d
       0.12955178 -0.088536285 0.003480104 0.07038881
0002a0 4b 5b 25 3c bc c3 b5 bd a2 d0 36 3c c0 ab 9f bd
       0.010092567 -0.08875224 0.01115814 -0.077964306
0002b0 d0 1f e1 bd 40 74 8f b9 19 ba d9 bd 0c dd 52 bc
       -0.10992396 -0.00027361698 -0.106311984 -0.0128700845
0002c0 33 5b 00 3e 93 08 e4 3d 15 d1 a1 bd fe 13 00 3e
       0.1253479 0.11134448 -0.07901207 0.12507626
0002d0 1d 5e 08 3e 70 d6 bf 3d 68 72 90 3d 60 dc ad 3c
       0.13317151 0.093670726 0.07053071 0.021223247
0002e0 66 c2 2c 3e 12 66 e2 bc df c4 a1 bd cb 2c aa bd
       0.16871032 -0.027636562 -0.07898878 -0.08309325
0002f0 28 13 cc 3d 76 79 f8 3d b6 ca eb bc 2c 3b 9f bd
       0.09964591 0.12132542 -0.028783184 -0.07774958
000300 c4 f3 97 bd b6 f6 e2 bd 1b a0 6b 3d 67 f8 2e 3d
       -0.074195415 -0.110822126 0.057525735 0.042717364
000310 94 8a 96 3c 3b 45 93 bd 1b 7c b1 3d 60 71 26 3d
       0.018376626 -0.07190939 0.08666249 0.040635467
000320 17 5a 86 bd 84 fd cc 3d 55 30 27 be ab 2b 81 bd
       -0.06560152 0.10009292 -0.16327031 -0.06307157
000330 43 4a 9f bd 94 4c b8 bd bf a4 30 3e 0f c1 eb 3d
       -0.07777836 -0.08998981 0.17250346 0.115114324
000340 d6 c8 99 bc f6 de a7 3d e2 fd bb 3d 18 27 3f 3d
       -0.018772524 0.08196823 0.09179284 0.046668142
000350 7d 26 23 bd 01 ce 80 bd 66 1a 2d 3e 35 6b cc 3d
       -0.039831627 -0.06289292 0.16904601 0.099813856
000360 5c f3 8f 3c 1b 47 76 3d 95 f2 6d bd d8 c9 73 3d
       0.017572097 0.060126405 -0.058092672 0.059518665
000370 4b f1 cd 3d 03 e5 a1 3d de 49 d0 bc e0 23 d9 38
       0.100557886 0.07905009 -0.025425848 0.000103540486
000380 48 c3 3f bc e7 27 ab 3d 45 ce c5 3d 0a 6d 68 3d
       -0.0117042735 0.0835722 0.096584834 0.056744613
000390 c2 a8 a0 bd a6 97 2d 3e 22 f6 f3 3d c5 82 41 3d
       -0.07844688 0.1695238 0.119121805 0.047243852
0003a0 12 66 28 3c ec ab 7d 3c fa ff a5 3d 5d 80 bc bd
       0.010278242 0.015482884 0.08105464 -0.09204171
0003b0 ef eb 81 3d a6 32 9a bd 6e 67 d7 3d a0 3d e0 ba
       0.06343829 -0.07529192 0.105177745 -0.001710821
0003c0 25 08 c8 bc 9e 74 34 bc ba 66 15 3e 24 c2 c0 3d
       -0.024417946 -0.011014132 0.14589968 0.094120294
0003d0 ed f7 b4 3d 19 a7 b5 bd 0b 70 bd bc 72 13 e2 bc
       0.088363506 -0.08869762 -0.023124715 -0.027597163
0003e0 ee fb 1d 3d 60 7d 56 bd 2f c5 3f bd 6c 73 28 bd
       0.038570337 -0.05236566 -0.04681891 -0.0411257
0003f0 4b 3e a0 bd 5c 58 ec 3d 00 5d ba 3d 80 e1 e2 3c
       -0.078243814 0.11540291 0.090997696 0.027695417

bias f4 [8]
000000 2d 1d d1 bd 48 1c 97 bd c1 f6 02 be 00 13 a2 bd
       -0.10210643 -0.07378441 -0.12789442 -0.0791378
000010 18 4d 03 bd 68 e7 6a 3c c3 e9 df 3d 0d ec 2e 3d
       -0.032055944 0.014337398 0.109332584 0.042705584

weight f4 [1, 50]
000000 e1 55 22 3e 8d 29 e3 3c a6 2b 06 3e e1 67 da 3d
       0.15853073 0.027729774 0.13102588 0.106643446
000010 8f a1 8d bd 72 8c 7b bd e5 67 b4 3d 1e 3a a1 bb
       -0.069155805 -0.061413236 0.08808879 -0.004920258
000020 cb 27 e3 bd 3c 12 80 bd 13 57 3c bd fb 61 c2 bd
       -0.11091574 -0.06253478 -0.045981478 -0.094913445
000030 be f0 04 bc 60 26 df bd 0b 0b 2b 3d 78 1e 93 bc
       -0.008114038 -0.10895991 0.04175858 -0.017958865
000040 b7 f3 f2 3d 65 52 04 3e 38 da a0 3d 5e 43 f3 3d
       0.11862891 0.12922056 0.07854122 0.11878084
000050 27 e8 c5 3c 52 fa bc 3d 98 95 a0 bd e6 b9 7b bd
       0.02415855 0.09227432 -0.07841033 -0.061456583
000060 2a 0e ec 3d d0 fe b6 bd 88 ce 29 3c b8 ee cf bc
       0.11526139 -0.089353204 0.010364182 -0.025382385
000070 5a d3 8d bd bc aa 2b 3c 42 62 a8 3d c7 47 25 3e
       -0.06925078 0.010477718 0.08221866 0.16140662
000080 f0 02 11 3e ec 65 c5 bd 26 f2 a3 3d 7f 89 10 3e
       0.14161277 -0.09638581 0.080051705 0.1411495
000090 7a bc 12 be 94 0a 16 3d 57 7d 24 3d d8 fd cf 3b
       -0.1432971 0.03663118 0.040158596 0.006347399
0000a0 7e 17 fb 3d 30 65 be 3d ba 74 18 3e 96 b8 10 3e
       0.1226034 0.09296644 0.14888278 0.14132914
0000b0 a4 67 1b 3e 8d 46 84 bd fb 84 f8 bd b5 3b 95 bd
       0.15176255 -0.06458769 -0.12134739 -0.07286779
0000c0 de 7a 42 bd cb 03 95 bd
       -0.047480457 -0.07276114

params f4 [2]
000000 9b 67 7e 3f f6 f3 7c 3f
       0.9937684 0.98809755
