result/models/fixed_best1.pth (torch, 67563 bytes, 11 tensors)

weight_ih_l0 f4 [200, 9]
00000000: 7d3c f4bc 24b6 793d 3b21 4fbd a608 63bd
00000010: 7557 a0be 995d 5bbe 0fa2 c43d 90a2 833d
00000020: a24e 82be 57ef 91bb 3754 903d 1529 9abd
00000030: a062 41bd b33e 26be 814b 0d3e 5ce1 5c3e
00000040: 0d7e 38bd 6908 babd 71d6 fcbd 5bc2 debe
00000050: 39c5 01be 0f58 d7bc 5289 f1bd f3db 25bf
00000060: 443f 9abe ae25 50be 3bd0 11be 9e0c b7be
00000070: 1d9e 9fbe 5f63 9cbd 1862 853c b9d6 b8bd
00000080: ba52 82be 4b46 a53d 31ab 403d d32d 233c
00000090: fdd9 0fbe 9a87 20be 250a 033d 18c6 5abe
000000a0: a5b9 583d 84a5 b0bd 9992 343d f155 a5bd
000000b0: 29d2 ebbe 0ecc de3d b805 893e 4713 d2bb
000000c0: 435e f43d b652 bdbc 6a8f 30be 8fee 3e3e
000000d0: 909a 033d 5801 c8be b2c8 823d e350 e53b
000000e0: b81c 043e e9ce 193e 11c6 d8bb a9b7 0e3d
000000f0: 3468 ca3d 212d 1d3d 244f c83d c741 d1bd
00000100: 2c2d ab3e b4e9 7ebd 1e62 8d3e dfc4 1f3d
00000110: 7647 5c3e cfc7 a2bc 04ca c0bc 95ce 0fbc
00000120: 90a6 33bd 82c2 3ebe b3a6 983d d985 b63d
00000130: 3770 803e 1d5b 183d e40f e8bd 18cb 36be
00000140: 8100 98be 971e 8f3d 35f4 1fbe 3dfc f93d
00000150: 976e 603d 5a1a fcbd 74b5 cb3d de93 c2bd
00000160: 9a2b f0bd 6118 08bf b984 1dbe 3e5f 0abe
00000170: 8ff9 7abe edbe be3e 9349 f93e 14ee 9c3e
00000180: e6fd 14be 94c2 5bbd e89c 503e 5019 003e
00000190: ed94 1c3e 547e f93a 419b 043d a2a2 c5bd
000001a0: 713d 50be 04cc 6abc a3b3 f9bc 72b0 0bbe
000001b0: 4a0b 93be 8e5a 8abd d2bf e83c 6106 cbbd
000001c0: 77c8 87be 9ef1 46be da35 c73d edd3 57bd
000001d0: a021 a7be b39b 26bd dd8e 6fbe 9d67 e83d
000001e0: 8b09 413e 9858 10bc 5409 c2bd a4c0 00be
000001f0: 909a 9dbd 0073 0bbe 0f18 733e 9dfb d13d
00000200: 6d4a 76be f0f5 d5bd 9e76 fcbd 96c7 f63d
00000210: b36a 79be 0a35 57be cd7d d8be bee3 e43b
00000220: ca9d f2bd 6ad0 e9bc 075e 8dbd 11ba 24be
00000230: 3478 03be d5a8 8ebd e291 75bd 27cd 033f
00000240: 9aef 14be bf6f 753b 57fb bf3c fd24 043e
00000250: 9bf5 713d f131 783e adc3 10be 578a 5bbd
00000260: 275a bf3e 403c 923d 0600 70bd 7a50 343e
00000270: d150 b13d cf2b 4ebe 5bdd 0cbe e072 cc3c
00000280: 6369 7bbd cbaf a3be 75b4 bb3e dee2 753c
00000290: e0a0 15be 2787 183e 649a e03c 3998 8a3d
000002a0: 1670 50be 3077 e3bc 3d3d 173e 3ee5 a93e
000002b0: 128f 5dbd d06d 75bd 48a3 ae3c 57a9 87bd
000002c0: 38b2 cabc 3f69 10bc fb9d 473d c341 48be
000002d0: 28a4 5ebd 0817 92bd 0821 0439 2b43 2cbe
000002e0: e591 51be d48e 9dbd 6d21 ecbd 2851 28be
000002f0: 7067 00be 454a 41be 8ecc 66be 66cf 60bd
00000300: 75fb 73bd e1ea e33c 9458 d9bc 488e 83bd
00000310: 7e31 d1bd 8b4b 91bd 4c18 e83d 6fdf 053e
00000320: 5267 083d 5be6 563e e199 b93c 78a9 553e
00000330: eb2c da3d 99ca 9cbc db1e e9be b018 3e3d
00000340: 9984 193e c282 cb3d 75dc 093e 272c af3d
00000350: 0ff2 9f3d 572d cc3b 5fcc 95bd 7308 6bbd
00000360: b09a c33d b421 2d3d 5959 4d3d e5f1 61be
00000370: 5522 163d 196b 243e ed0d 903c 92ac 8b3d
00000380: 69ae 01be 54e3 d4bc 52a5 2dbc 77a8 a33d
00000390: 2981 5c3d b94e 633d dcfd 803e b862 a43d
000003a0: c9c4 85bd 0ac1 29bb d528 68be 6a13 21be
000003b0: 2358 0c3e 9177 28be 1c83 5abe 5dba a5bd
000003c0: 9250 e73c d775 c5bd 5dcd babc 4a0c e1bd
000003d0: 53b3 4e3d da50 de3d 7662 54be a1e0 31be
000003e0: 0f60 65bd e152 48bd 72ff e13d 13c4 a1be
000003f0: f9ac d23d 538b fa3d b4c1 ea3d 70a6 aebc
-0.029814 0.06096472 -0.0505688 -0.05542817 -0.31316724 -0.21422423 0.09601223 0.06427491
-0.25450617 -0.0044535804 0.07047313 -0.07527367 -0.047213197 -0.16234855 0.13798334 0.21570343
-0.045042086 -0.09083635 -0.12345589 -0.43507656 -0.1267289 -0.026287107 -0.1179377 -0.6478874
-0.30126393 -0.20326874 -0.1423959 -0.35751814 -0.31175318 -0.07636141 0.016282126 -0.0902533
-0.2545374 0.08070048 0.04703826 0.009959656 -0.14048 -0.15676728 0.031992096 -0.2136463
0.05291142 -0.086253196 0.04408512 -0.08073033 -0.46058777 0.10878764 0.26762176 -0.0064109894
0.119320415 -0.023110729 -0.17242208 0.1864569 0.032129824 -0.39063525 0.06385936 0.006998168
0.1290158 0.15020336 -0.006615408 0.03484312 0.098831564 0.038373116 0.0978072 -0.10217624
0.334329 -0.062234595 0.2761392 0.03900611 0.21511635 -0.019870667 -0.023533829 -0.00877728
-0.04386002 -0.18628886 0.0745367 0.08912248 0.25085613 0.037196267 -0.11331156 -0.17850912
-0.29687884 0.069882564 -0.15620501 0.12206314 0.054792967 -0.12309714 0.09946719 -0.0950086
-0.11727066 -0.531622 -0.15382661 -0.13512895 -0.24509262 0.3725504 0.48688945 0.3065039
-0.1454998 -0.05365236 0.20372355 0.12509656 0.15291186 0.0019034841 0.032374624 -0.0965016
-0.20335938 -0.014330868 -0.030481165 -0.13641527 -0.2871955 -0.06755553 0.02841178 -0.09913326
-0.2652013 -0.19428107 0.09727068 -0.052692343 -0.3264284 -0.04067583 -0.23394342 0.11347888
0.18851297 -0.008810185 -0.094744354 -0.12573487 -0.07695496 -0.13618088 0.23739646 0.102530695
-0.24051829 -0.104472995 -0.12327312 0.12049787 -0.24357109 -0.21016327 -0.42283478 0.006985157
-0.11846502 -0.028541762 -0.069027 -0.16086604 -0.12838823 -0.06965796 -0.059953578 0.5148491
-0.14544526 0.003745064 0.023435278 0.12904735 0.05907212 0.24237801 -0.14137144 -0.053598728
0.37373468 0.07140398 -0.058593772 0.17608824 0.08657993 -0.20133899 -0.13756315 0.02495712
-0.0613798 -0.31970057 0.36661115 0.015007703 -0.1461215 0.14895307 0.02741737 0.067673154
-0.20355257 -0.027766794 0.14769454 0.3318271 -0.05409152 -0.05991918 0.021318093 -0.06624096
-0.024743184 -0.008814155 0.048734646 -0.19556336 -0.05435577 -0.07133299 0.00012600806 -0.16822498
-0.2046581 -0.07693258 -0.11529813 -0.16437209 -0.12539458 -0.18875988 -0.22538969 -0.05488529
-0.05956598 0.02782196 -0.026531495 -0.06423622 -0.10214518 -0.07094487 0.11332759 0.13073514
0.03330166 0.20986311 0.022656383 0.20865428 0.10653099 -0.019139575 -0.45531353 0.046410263
0.14991988 0.099370494 0.13463004 0.08553343 0.07809841 0.006230991 -0.07314371 -0.057381105
0.09550989 0.04226847 0.050134037 -0.22064932 0.036653835 0.1605648 0.017584765 0.068200245
-0.12664188 -0.025987305 -0.010598497 0.079911165 0.053834114 0.055494998 0.2519368 0.080266416
-0.065316744 -0.0025902414 -0.22671826 -0.15730062 0.13705496 -0.16451861 -0.21339077 -0.080921866
0.028236661 -0.09641617 -0.022803003 -0.10988672 0.050463986 0.10855265 -0.20740685 -0.17370845
-0.05599981 -0.048907164 0.110350505 -0.31594905 0.10286898 0.12233605 0.11462727 -0.021319598

weight_hh_l0 f4 [200, 50]
00000000: 20bc 0cbe c415 783d c821 f13d b937 e7bc
00000010: cd77 b93d 2cef a639 152c dd3e 78db 223d
00000020: 6270 873d bba2 a33d 2cab 363e b1d2 a33d
00000030: bde5 ad3d aea1 f7ba a6b2 c63d 962a 58bd
00000040: 81c5 d6bb b628 90bd c1e5 a5bd 782a f53d
00000050: 00ff 35bd 133e 1c3e 3098 d2bb 3544 70be
00000060: e93a b1bd a841 f93d 88e9 4d3c 21e5 203e
00000070: 2a58 e53d 252b 48bc 6180 e8be f564 b2bd
00000080: 2393 08be 5499 e03d 6729 7fbe fadc 0bbe
00000090: 1dcc a5bd 4d29 953c 8a92 c3bc 4d8f 223e
000000a0: 0861 bcbb e48a 953e 902d febc d596 8abd
000000b0: 215b e0bc 64a0 943d 4450 9f3d e450 95bd
000000c0: e9b5 9abe 7e07 433e 1b9c 43bb 9f86 c73c
000000d0: 7f76 b4bc 099d 333d e779 0f3d 26b0 4abe
000000e0: 9b8e 213d 9d08 42be 6a68 d7bd c255 b7bd
000000f0: 9b78 d1be 2551 48ba 108c 273d 9632 533e
00000100: 4ea7 af3e 0a1a 123e 931f 8a3d bdb7 3cbe
00000110: 67a7 673e c52f 163d 9769 8f3d 4a3b 50be
00000120: d044 4dbd 654e 56bd 1e81 8f3d b840 6f3e
00000130: dcbd 02be 5853 e1bd 7156 a6bd 6e01 fabd
00000140: 2787 ebbd fe7d 6e3d ad2c fb3b a19e 0d3d
00000150: 71af 44bd 088d 73be 4181 49be 153a 6e3e
00000160: 103c 7c3d d3c6 1fbe ea1a 09be a886 683e
00000170: b2ef 0b3d 0d37 1abd 69bd 5dbe ecd8 cd3d
00000180: 48f8 f03d 6a6f 243d 908b 89be 56ab 8b3c
00000190: b83c febd 5120 53be aa1c 5ebe cb40 e6bd
000001a0: 023e a9bd 1f13 b0bd 4f42 06bb 0b22 df3e
000001b0: 5bc3 e6bc b79d 2a3d df8b 62be 8d39 2b3e
000001c0: 8826 143e 3142 acbd 7cde 42be fa98 1cbe
000001d0: d955 9e3d 1774 b6bd 25c0 37be 21f6 63be
000001e0: 0338 b03d 835f 3bbd c65a 52be 56d6 adbd
000001f0: 27a7 e5bc e48c 3bbe 3ac8 493e 88f5 27bd
00000200: de6d 523e b329 2cbd 2a5a b43d 9b7d b73e
00000210: 17eb 073f 80e7 e5be dfea 2a3d a114 4cbe
00000220: be1e 3e3d a4eb c1be e4e3 d3bd 1e01 aebc
00000230: 2e36 67bd 8ad0 8abc da67 8abe 7e4a 65bd
00000240: d20c 633c 6992 5cbe f069 c4be 7a51 dd3c
00000250: c007 1b3c 6848 ab3d 9302 10bd be12 113e
00000260: 458d 9fbe 02d4 0dbc 4abe 8b3a 48e1 2b3e
00000270: 4df4 ccbd 2b5c fc3e aed4 213d af83 253e
00000280: d09c 443e b364 a53d 195e b4bd 6bc2 24be
00000290: 68e4 9fbe 85d0 d13c 4c8b 73bd d17a 673d
000002a0: a5ff 1fbd b603 9abd ac59 60bb 41e2 f3bd
000002b0: be5a d2bb 3cb1 5b3e e126 50be 326b f3bd
000002c0: 35e4 ffbc aeb6 10bd 9775 5abe 0d1f 14bd
000002d0: ca10 593e ec3c 063e 96fa 983e bc22 8cbe
000002e0: 3899 9f3e efa9 573e dca6 c73d f16d 5dbd
000002f0: 30f1 a2bb 2be6 85bc 5198 79bd ec64 bdbc
00000300: b520 253e 2437 15be c05f cc3d d567 efbd
00000310: b76b 7c3d 6b58 71bd f63d 623e 4125 97bd
00000320: 77a1 70bd d98e 9c3d 2246 60bd f7ae da3d
00000330: 3373 853d 8211 d33e d6b3 a53c 9104 183d
00000340: a317 69be aae5 b93d 6d89 22be 14a3 2bbe
00000350: fe86 40be b8b6 adbd e06d 363e 57e6 4c3e
00000360: 648e 35bd 18b1 fc3d a686 153e ffea abbd
00000370: d59d 1fbe 40a6 96be c641 bebe ea3c 113e
00000380: ca0f cd3d 43f8 0e3d edde 2fbe e8d4 61be
00000390: af18 373d d824 4c3e 8e43 fb3d 1a42 d4bd
000003a0: 6ef0 843e fb68 553d a77f 82bd 830f 3bbe
000003b0: 7e0c b6bd 3d0a b03e b08f ef3d 1399 90bd
000003c0: 4abb 213e a64b 2ebc d4bc 543e e2fe ac3b
000003d0: 6ee9 dbbd 03e6 00be e1fd 1ebe de96 8abd
000003e0: c697 e73d a5a6 2fbe 1f5e 84be ff25 133e
000003f0: 5f61 ee3e 125f 383d b811 9d3e afea 47be
-0.13743639 0.060567632 0.117740214 -0.028224813 0.09056053 0.00031840184 0.43197694 0.039760083
0.06613232 0.07990023 0.17838734 0.079991706 0.08491085 -0.0018892789 0.09702043 -0.052774988
-0.006554306 -0.07039015 -0.08100463 0.11970991 -0.04443264 0.15258054 -0.0064268336 -0.23463519
-0.08653814 0.12170726 0.012567885 0.15712406 0.111984566 -0.012217318 -0.45410445 -0.08710662
-0.13337378 0.10966745 -0.24918137 -0.13658515 -0.08095572 0.01820817 -0.023873586 0.15874977
-0.0057488717 0.29207528 -0.031027585 -0.0676705 -0.027387204 0.072571546 0.07778981 -0.07290819
-0.3021691 0.19045827 -0.0029847685 0.024356185 -0.02202916 0.043850932 0.035028365 -0.19793758
0.03944264 -0.18948598 -0.10517962 -0.08951904 -0.40912327 -0.0007641486 0.04090506 0.20624766
0.3430733 0.14267746 0.067443036 -0.18429466 0.22622453 0.03666665 0.070025615 -0.20335117
-0.050114453 -0.052320857 0.07007049 0.23364532 -0.12767738 -0.11002225 -0.08121956 -0.12207304
-0.11500388 0.058225624 0.007665238 0.03457511 -0.048018876 -0.23784268 -0.19678213 0.23264344
0.061580718 -0.15603189 -0.13389173 0.22707617 0.03416414 -0.037650157 -0.21654285 0.1005114
0.11766106 0.040145315 -0.2686429 0.017049473 -0.12413925 -0.20617796 -0.21690622 -0.11242827
-0.0826378 -0.08597397 -0.00204863 0.4358066 -0.028169325 0.041654315 -0.22123669 0.16721173
0.14467824 -0.084110625 -0.19030184 -0.15292731 0.07731218 -0.08908861 -0.17944391 -0.2226186
0.086044334 -0.045745384 -0.2054244 -0.08488147 -0.028033806 -0.18315464 0.19705287 -0.04100564
0.20549724 -0.042031955 0.0880626 0.35838017 0.53093094 -0.44903183 0.041727897 -0.19929744
0.046416037 -0.37875092 -0.10346201 -0.021240767 -0.056448154 -0.016945142 -0.27032357 -0.055979244
0.013858037 -0.21540226 -0.38362074 0.02701639 0.009462297 0.0836342 -0.035158705 0.14167306
-0.31162468 -0.008656504 0.0010661569 0.16785157 -0.10007534 0.4928907 0.039509468 0.16163515
0.19200444 0.080758475 -0.0880701 -0.1608979 -0.31228948 0.025612125 -0.059459016 0.05651361
-0.03906216 -0.07520239 -0.0034233136 -0.11908389 -0.0064195087 0.21454328 -0.20327331 -0.1188568
-0.031236747 -0.035330467 -0.2133392 -0.036162425 0.21197811 0.13109177 0.29878682 -0.2737025
0.31171584 0.21060918 0.09748623 -0.054059926 -0.0049725994 -0.016345104 -0.060936276 -0.023119412
0.16125758 -0.14571816 0.099792 -0.11689726 0.061626162 -0.058922213 0.22093949 -0.073801525
-0.058747735 0.076444335 -0.054754384 0.10677903 0.06516113 0.41224295 0.020227354 0.03711373
-0.22762923 0.09077008 -0.15872736 -0.16761428 -0.18801495 -0.084821165 0.17815351 0.20009743
-0.044325247 0.123384655 0.14602146 -0.08394431 -0.15587552 -0.29423714 -0.37159556 0.14183393
0.10012777 0.03490473 -0.17174883 -0.22053874 0.044701274 0.1993593 0.122687444 -0.1036417
0.25964683 0.05210207 -0.06372004 -0.18267636 -0.088891014 0.3438281 0.11697328 -0.070604466
0.15794101 -0.010638153 0.20775157 0.005279408 -0.107378826 -0.12587743 -0.15526535 -0.06767057
0.11308245 -0.17153414 -0.2585306 0.14369963 0.46558663 0.04501254 0.3067758 -0.19523118

bias_ih_l0 f4 [200]
00000000: 6834 e4b9 480c 63bd d027 e33c bf8f 1cbd
00000010: 9cd1 84bd d63f 4b3e b44b d33d 300a 0dba
00000020: 9666 043e bb93 bcbc a64b a33e d8da 39bd
00000030: 8644 85bc 823c 083e 3c9f 5e3e 20d4 673d
00000040: 8bef 293d 7f0c a33d 1936 5b3e 6e9a 20be
00000050: 495f fcbc 2e71 703b 1bef 1c3e cf1c dbbd
00000060: a448 1c3e 6e76 4abc 27b7 963d 0858 c2bd
00000070: 81fe a93d fa66 b23d f593 8d3e 6fda 293e
00000080: 4a33 a33e 59e4 873e 486f cc3d a15f 793d
00000090: 3ed2 cb3d eb3d 743e bc2f 47bd 5881 153d
000000a0: 55d0 6abd bf65 2cbd 120a 3d3e 5fa2 683e
000000b0: 5604 193e ecb2 93bb d917 6f3c 0b12 6b3d
000000c0: d790 34bd 3ae9 c63d c011 6e3d 9181 b4bd
000000d0: e38e b03d 4627 3e3c af42 e33d 0616 13be
000000e0: 118c 2bbe 76ee 5cbe 6198 aabb 4b3f 52bd
000000f0: fa8a 003e 3757 953d e084 cfbd e170 5ebe
00000100: 5527 b9be deec 95bd 4a33 fb3d 9c4a e53c
00000110: 5406 d3bd 7da1 4dbd 001d 943d 7448 f73a
00000120: 2e9d d23c f0a7 ba3b b589 50bd 1432 a1bd
00000130: 6375 0bbe db63 a5bd a0b1 2c3d 9d3e 903d
00000140: 9d04 91be f69d 9ebe cafd 123e b852 19be
00000150: c69c c4bd 014c c13d 500c 43bd 6b1e 95be
00000160: 3502 b53b 50b0 eb3d 8281 0dbe f617 f1bd
00000170: ca3b f7bd 672c 85bd 176c 86be d9b5 113e
00000180: 4657 eabd fe3b b53d 2d2c 32be 03cb 2bbe
00000190: 5922 45bb 10ba 783d 122d 903d 28ae c6bd
000001a0: 447a 003e 8876 463d bd59 e63c 6e58 dcbd
000001b0: ead6 6ebd 946e 95bc 46be 743e 1a6a 733d
000001c0: 8142 86bd bea6 67bd b3a6 e4bd a61b 6dbc
000001d0: 730e 1f3e fd05 a1bd 61c0 ddbd 225f 143e
000001e0: a437 08bd cd37 473e 74a0 81bc 10c0 ecbd
000001f0: 1a75 283e d67f 8b3d 6622 2abd afd2 a53d
00000200: 8bb7 8fbb dfc3 a23b e7e4 383d 88b4 123d
00000210: fee5 8cbd 6b1b f6bd b262 bd3d a6ad f6bd
00000220: 1b2f babd 9484 84bd bd8e 0c3e 60fb 813d
00000230: 2a5b 843d e7d8 bf3d 7441 e53c 6310 a3bc
00000240: 73ec 063e e045 0e3e b9b8 ad3c b1df e93d
00000250: 11df 573d 03d2 093e 41e9 8dbb 2035 4dbd
00000260: fb38 e5b9 28e7 f83d 5bce 1d3d 658e 993d
00000270: fe9c d8bd 43e9 153d 55e9 f93d e7bc 45bc
00000280: db67 a83e 9cdf 87bc 03e3 173d dcb0 ffba
00000290: 6693 173e 7423 fa3b b31b 0ebd 2bfe 0b3e
000002a0: fbd9 253e ad49 22bc ea78 9d3d af1e 79bd
000002b0: cfe1 c7bc 8c77 4c3d 14a2 eebd e72c 553e
000002c0: 8412 c9bc 7630 353d a532 a73d 14c4 e9bd
000002d0: f852 a93e 8c7c 9a3e a0f1 043e 332e 573e
000002e0: 00d0 73bb 0b17 6a3e 5fb3 d5bc f7bc c53e
000002f0: 8068 fc3d d255 a43d a318 9a3d 5a62 943d
00000300: 5ae5 283e ae4d 943e cc28 423e 1f88 ddbd
00000310: d689 f83c 3e6f 22bd b0dd f93d c97f ff3d
-0.00043526595 -0.055431634 0.027728945 -0.038223024 -0.06485292 0.1984857 0.103171736 -0.0005380241
0.12929758 -0.023019662 0.31893653 -0.04537472 -0.016268026 0.13304332 0.2174043 0.056598783
0.04148821 0.07961368 0.21407355 -0.1568391 -0.030807154 0.0036688554 0.15325586 -0.10698854
0.15262085 -0.012357337 0.07359152 -0.09489447 0.08300496 0.087110475 0.27651945 0.16587232
0.31875068 0.26541403 0.09982163 0.060882214 0.0995221 0.23851745 -0.048629507 0.036500305
-0.057327587 -0.04208922 0.18460873 0.2271819 0.1494306 -0.004507413 0.014593088 0.057390254
-0.044083443 0.09712453 0.058122396 -0.08813775 0.086210035 0.011606043 0.11096703 -0.1436387
-0.1675265 -0.2157534 -0.0052061533 -0.051329892 0.12553015 0.072920255 -0.10132766 -0.21722747
-0.3616282 -0.073205695 0.12265642 0.027989678 -0.10303941 -0.050202835 0.07232094 0.0018866197
0.025709715 0.0056962892 -0.050912578 -0.0787088 -0.13618998 -0.080756865 0.042161584 0.070431925
-0.28323832 -0.3097989 0.14354625 -0.14972961 -0.09600215 0.09438325 -0.047619164 -0.2912477
0.0055239447 0.11508238 -0.13818935 -0.11772148 -0.12071951 -0.0650261 -0.2625434 0.14229526
-0.11442427 0.08849333 -0.17399664 -0.16776662 -0.0030080287 0.060724318 0.070398465 -0.097011864
0.1254664 0.048452884 0.028118962 -0.10759054 -0.058310427 -0.018241204 0.23900709 0.05942736
-0.06555653 -0.056555502 -0.11164608 -0.014471924 0.15532856 -0.0786247 -0.10827709 0.14489415
-0.033256188 0.1945488 -0.01582358 -0.115600705 0.1645092 0.06811492 -0.04153671 0.08096825
-0.0043858937 0.0049671973 0.045140173 0.0358167 -0.06879805 -0.12016948 0.0924734 -0.120448396
-0.09091016 -0.064706 0.13726325 0.06346774 0.06462701 0.09367543 0.027985312 -0.019905275
0.13176136 0.13893843 0.021206247 0.11419619 0.052702967 0.1345902 -0.0043307845 -0.050099492
-0.00043720737 0.121534646 0.038526874 0.07497863 -0.10576819 0.03659941 0.12202708 -0.012068964
0.32891735 -0.016586117 0.03708173 -0.0019507664 0.14802322 0.007633621 -0.034694385 0.13671176
0.16196434 -0.009905261 0.07689078 -0.060820278 -0.024399666 0.049918696 -0.11652008 0.2081791
-0.024544962 0.04423567 0.081639566 -0.11414352 0.33071113 0.30173147 0.12982798 0.21013717
-0.0037202835 0.22860353 -0.026086507 0.3862073 0.12324619 0.080241814 0.0752423 0.072453216
0.1649374 0.28965515 0.18960875 -0.10816979 0.030339163 -0.03965687 0.12200487 0.12475545

bias_hh_l0 f4 [200]
00000000: c029 09be 1c80 353b dc98 d13d 15ca 1abd
00000010: a049 d5bd 0e12 f63d b4c9 953d 491b 1c3e
00000020: 79f6 40bd 8cd2 863d 8b03 d63e 265f 473e
00000030: 4270 833d 322f 793e 1f34 9d3e a307 a03d
00000040: 6268 c03d 9fca 063e 2cf3 033e cef5 d8bd
00000050: 1d96 53bc a3c9 fa3d bc34 cc3d a63f 23bd
00000060: 3024 e4bc 0567 d53d 2520 c43c 3f43 67bd
00000070: 18ae 8d3e c3a9 fcbd 27b9 553e 361e a83d
00000080: 29f7 013e 44fa 303e f266 c93d 6883 143e
00000090: b108 23bd e290 6d3e 0ff3 883d 758b 3a3e
000000a0: e248 8b3d 62af 283e 8bb1 cd3d c9a3 033e
000000b0: 91f1 813e 590e edbd eaac 603d 5c70 afbd
000000c0: fbdd 343d a99b 963d 463c d1bd 49d4 1cbd
000000d0: c1ab a73d 338b 02bc 2221 a5bd 3c47 77be
000000e0: a1c2 2fbe 2259 3abe a494 42be 7229 4abe
000000f0: 07ad b4bd 1052 04be 1423 97bd bc08 a4be
00000100: 1d17 0ebe 4d84 0f3e c6c4 113d 6e07 06be
00000110: 6b46 33be 82e3 e6bd e240 1d3d c089 17bd
00000120: 38e9 4ebd 4f41 babd 27ee e4bc 919c 55be
00000130: e31f 993d 0970 283d 1b4c ea3d 062e dc3b
00000140: 842c 7abe 53f8 b5be 019f cabd 98a9 6dbc
00000150: 26e0 0dbe b592 a5bd cf9a 383c 15b2 a4be
00000160: b03d aabb 4194 28bd 7f09 35be b853 28bc
00000170: f576 af3c e2ff 8dbd c1ed 5cbd 99ad 413d
00000180: 2b5f 82be b4c3 9d3d 2e55 8abc ba2a b2bc
00000190: c22c d6bc 08a4 6c3d afc0 283c a56d 44be
000001a0: 2790 0a3d bb69 09be 7312 80bd 99d0 23be
000001b0: b5e4 e5bb 7a0f a03d 86fc e53c b5d2 cebd
000001c0: 343b 4fbe 3ae8 36be 0364 6a3d 0e1e 343e
000001d0: 8c86 193c 7d5c cd3d 6361 c93d be0c edbd
000001e0: a60a b1bd 47a9 02bd 02dd a8bd 842f a6bd
000001f0: ccb1 a5bd 3005 c7bd ae3d b13d 8afa 5fbd
00000200: 3d72 75bd 7b60 073d 5d86 04be 1bb1 b23d
00000210: 3831 16bd 493d ed3b c076 0ebe 5cf6 fc3d
00000220: fc10 a4bd f02d f5bc f6d6 ed3d 6262 0fbe
00000230: a8c7 103e c62f 17be 01df e3bc d12e 9f3d
00000240: 8624 ce3d 6e2c fe3d 18ed d63d b3ba 61bd
00000250: 1a9d c93d 4247 04be 822f de3d 0ae4 c3bd
00000260: 5c14 7ebd 1071 fb3d aaa7 7b3d 1fe6 423e
00000270: b1b1 ae3d b00d 8dbd eba7 da3c 904b 09bc
00000280: 858a 803e 7761 823d 0309 0a3e 3e9f 6b3e
00000290: ee7a 543e 4c38 68bd 7190 c6bd 615a 0abe
000002a0: 034e 693e 3699 48be c695 203d b66e 8e3c
000002b0: 49da 253e a342 b23d 809c 9cbd e8ef b43d
000002c0: 4724 9c3c 7a60 cebd f565 8ebc fb21 3cbd
000002d0: c2e3 d63e d253 763d 40ac 603e d8f2 a83c
000002e0: 76b0 5dbd 8944 103e b084 3dbd 900e 9a3e
000002f0: e5d5 143d 9862 0e3e 7339 68bd b5f3 323e
00000300: 6367 91bd dc2d 5c3e f3b5 5e3e f376 fcbc
00000310: 8a65 153d 42f9 5e3d acc8 633e 7a99 b1bd
-0.13394833 0.0027694767 0.10234234 -0.037790377 -0.104144335 0.120151624 0.073138624 0.15244783
-0.047110055 0.065831274 0.41799578 0.1946989 0.06417896 0.2433441 0.30703828 0.078139566
0.093949094 0.13163231 0.12885731 -0.105937585 -0.012914208 0.122454904 0.09970996 -0.03985562
-0.027849287 0.1042004 0.023941109 -0.056460615 0.27671885 -0.12337067 0.20871411 0.08208887
0.1269194 0.17282969 0.098340884 0.14503253 -0.03980321 0.231998 0.06686985 0.18217261
0.06801011 0.16473153 0.10043629 0.12855448 0.25379613 -0.11575002 0.054852404 -0.08566353
0.04415701 0.073539086 -0.10216574 -0.03828839 0.08187056 -0.007967758 -0.0806296 -0.24148268
-0.17164089 -0.18198064 -0.19002014 -0.19742373 -0.08822065 -0.1292193 -0.073797375 -0.32037914
-0.13876005 0.14015312 0.03558805 -0.13088772 -0.17507331 -0.112738624 0.038391955 -0.036996603
-0.050515383 -0.09094488 -0.027945591 -0.20860507 0.07476785 0.04112247 0.11440297 0.0067193536
-0.24431044 -0.3554102 -0.09893609 -0.014505766 -0.13855037 -0.08084623 0.011267378 -0.32167116
-0.005195342 -0.04115701 -0.17679404 -0.010273866 0.021419028 -0.069335714 -0.053937677 0.047284696
-0.25463232 0.07703343 -0.01688632 -0.02174889 -0.026144389 0.05777362 0.010299846 -0.19182451
0.03382888 -0.13419239 -0.06253519 -0.15997542 -0.0070157894 0.07815452 0.028074514 -0.10098783
-0.20237428 -0.17862025 0.057224285 0.1758959 0.009370457 0.10027406 0.09833028 -0.11574696
-0.08644609 -0.031899717 -0.08245279 -0.08114532 -0.08090553 -0.09717786 0.086543426 -0.054682292
-0.0599234 0.033050995 -0.1294188 0.087251864 -0.036668032 0.007239972 -0.13912487 0.12351677
-0.08011052 -0.029929131 0.11613266 -0.14002374 0.14138663 -0.14764318 -0.027816297 0.077726014
0.1006556 0.12410818 0.10494441 -0.05510969 0.09844418 -0.12917808 0.10848905 -0.095649794
-0.062031135 0.12277424 0.061439194 0.19033097 0.08529986 -0.06887376 0.026691398 -0.008379832
0.25105682 0.06366246 0.1348 0.23009965 0.20750019 -0.056694314 -0.09695519 -0.1351104
0.22783665 -0.19589695 0.039205335 0.017386775 0.1619655 0.08704116 -0.076470375 0.08834821
0.019060267 -0.10076995 -0.017382601 -0.045930844 0.4197064 0.06013853 0.21940708 0.02062361
-0.054123364 0.14088644 -0.04626912 0.30089235 0.0363368 0.13904798 -0.056695413 0.1747578
-0.070997976 0.21501869 0.21749096 -0.030818438 0.03647379 0.05443693 0.22244519 -0.086718515

weight f4 [50, 50]
00000000: f045 d83a 8a75 57bd f735 91bd 9e50 28be
00000010: b824 c4bd 1a1e b2be d412 d93d fd69 99be
00000020: 7146 ae3d 95bd 90be a78c 86be 0345 98bd
00000030: abb4 363e 110e 0f3e 5a79 dd3d 73eb b73d
00000040: d18f 233d f456 08be 961f 283d c863 113c
00000050: 5814 e6bd 8c11 a73c 6134 533d 1944 a43c
00000060: 4747 823e 6364 e83d bef3 5b3d cada 893d
00000070: 3432 153e 30b4 8f3d 1e64 2fbe 1f51 a0bd
00000080: 105d 0cbd fc02 673d 3703 c0bb b266 e4bd
00000090: 7372 64be e7c6 9a3e 81b0 e6bd 6fb8 b73d
000000a0: c615 fdbc cb9b 1bbe 01b1 1fbd e822 8d3d
000000b0: 814b 8c3d f0d1 163e 9913 203e ea6c 0fbd
000000c0: aa42 5fbe 2808 1e3c 51dd edbb fd63 6c3e
000000d0: adfa 073e 164d 893e cb9e 743e b23b 553e
000000e0: 20f8 143d 8f47 abbb d0e1 e83d 9bb5 153e
000000f0: f1b9 20bd a653 2bbd f1ca 94be ab89 a43d
00000100: 08d7 843e e409 1abe 4ae8 04be b3b3 833e
00000110: 92f0 1abe 6af1 2fbd bcc0 753e 170e 2abe
00000120: 86f6 133e e0e7 b03d 6b3c 20be fe40 0dbe
00000130: 4682 d5bd 2dbf 92bd c408 7cbd 6136 44be
00000140: d611 033e 405d 143c f07d a8bd 37d9 21be
00000150: b33e 2e3e fe10 15be 5006 653e c649 b6bd
00000160: 2219 923e bf5f 16be 4132 2fbe 313b 6d3d
00000170: 174b 423e 024d b93d e7a6 7cbe f281 94be
00000180: 9f53 283e c5c8 833e 1ccb f8bd 6e30 45be
00000190: 8a57 f73d 18df cd3c aa49 223e b766 6d3c
000001a0: 96bc de3d 96d9 693e 56ad 563e 8638 0f3e
000001b0: fd43 fcbd 865b 273e da92 c9be b9be 393d
000001c0: 0a6b 9cbd 55b5 79bd 5c13 953e a7e8 013e
000001d0: cb09 ef3d 6ad1 88ba 9e02 e63d fe19 523e
000001e0: 6b11 a83d 18dc 213e 09fc 8bbe 9e51 993d
000001f0: ca24 d2bd d1de 853d 971d 143e 77f8 083e
00000200: 854e a8bd 1655 ef3d a158 863d e9cc 11bd
00000210: 27f8 90be 1150 b4bd 4bdd 1ebd a48e c4be
00000220: b61f 6ebd 233e ac3c 6338 253e fb36 883d
00000230: bd1f 283e 7929 9abd 075e 81bd 0932 80bd
00000240: 7da1 28be ab91 3a3d 06ac 273d 4da7 a8bd
00000250: ee52 53bd 2f93 36bd ac77 8ebc 2c7c 95bd
00000260: e5f0 83be 219b 06be 49bd 77be 52f8 03bc
00000270: 8364 d93d bb26 0ebe 2b35 81bc 420e 903d
00000280: bf63 383e 9557 0ebe 7a57 02bc 1e3e f03a
00000290: a091 973e ce4a 2dbe 225d febc b52a 6d3c
000002a0: eadc 783d e8b3 0c3e e93b b43d 6d2c 093d
000002b0: 93f8 093e c800 9fbd 65a6 c53d 407f 9a3d
000002c0: 0845 00bd f9da 163e 34aa b83d c3eb c93d
000002d0: d4f0 343d f33a babc 82e5 e2bd 8a8b fa3d
000002e0: cc6f 77bd 986a 4dbd 22fd 8b3c d537 063f
000002f0: 09da 6bbe 7fc0 543e 56af 99bd ab23 353e
00000300: d3a4 c53c ec15 48be e977 bbbc d3c5 133e
00000310: d39e e0bc baef 09be 0808 d13c a7ae 943d
00000320: 59f6 983d 9618 73bb b7e7 8c3d 36bb d83d
00000330: 5b3d 183d 4a84 74be 3bbc c7bd b55e a8be
00000340: 12ce 593e 54fa 03be 802b f1bd fd2c 333d
00000350: 160a 05be 3aac 033e 03c9 2abd 2b41 d0bd
00000360: 6a6e 16be d5ff b5bd c947 90bd 3ccc 38be
00000370: e412 a0bd 6737 7cbd 0799 253e 6264 bdbd
00000380: f368 9dbc ac35 133d 7dda 1e3e d8d4 1bbd
00000390: e830 9c3c 6ff9 52be 17df 43be e8b3 c63d
000003a0: 875d 9cbd 4f87 973d 58a5 5dbd 2f59 a23e
000003b0: 2bb4 82bd 749d cdbd 3e75 1a3e 6252 43be
000003c0: 5cbf 9bbd 5bdc 893e 4a54 e0bb 09f9 593e
000003d0: a56e 773d 2919 37bc e61b bb3d 7c9b 733d
000003e0: 1b01 8dbd d89d a83d efd7 573d f0c3 c8bd
000003f0: 6a61 223c 2557 e13d 267d cd3b 466e fd3d
0.0016500335 -0.05260233 -0.07090371 -0.16437003 -0.09577316 -0.3478859 0.10599294 -0.29963675
0.085095294 -0.2826964 -0.26279184 -0.07435038 0.17842357 0.1397021 0.108141616 0.08980455
0.039932076 -0.1331442 0.041045748 0.008873887 -0.11234349 0.02039411 0.051563624 0.020052003
0.25445005 0.11347272 0.053699248 0.06731184 0.14569932 0.0701679 -0.17128035 -0.078279726
-0.03426844 0.05639933 -0.0058597582 -0.111524 -0.22309284 0.30229875 -0.11264134 0.08970725
-0.030894171 -0.15196149 -0.038987163 0.068914235 0.06850339 0.14728522 0.15632476 -0.035015978
-0.21802774 0.009645499 -0.007259049 0.23085018 0.13279219 0.26816624 0.238887 0.20823553
0.036369443 -0.0052270363 0.11371195 0.14620058 -0.039239828 -0.04182782 -0.29061082 0.080340706
0.25945306 -0.15042835 -0.12979236 0.25723037 -0.15130833 -0.04295484 0.23999304 -0.16606937
0.1444951 0.08637977 -0.15648048 -0.13794324 -0.10425238 -0.0716537 -0.061531797 -0.19161369
0.12799773 0.009055436 -0.08227146 -0.15805517 0.17016105 -0.14557263 0.2236569 -0.0890079
0.285348 -0.14684962 -0.17109014 0.057917777 0.18973957 0.09047891 -0.24673043 -0.2900539
0.16438149 0.25739112 -0.12148115 -0.19256756 0.120772436 0.025130793 0.15848413 0.014489821
0.10875814 0.22836909 0.2096456 0.13986406 -0.12317655 0.16343507 -0.3936985 0.045347903
-0.076376036 -0.060963947 0.29116333 0.12686406 0.1167179 -0.0010438387 0.11230968 0.20517728
0.08206447 0.15806615 -0.27340725 0.0748627 -0.10260923 0.065366395 0.14464413 0.13376032
-0.082181014 0.11686151 0.06559873 -0.03559581 -0.28314325 -0.08804334 -0.03878526 -0.38390076
-0.05813571 0.021025723 0.16134791 0.06651112 0.16418357 -0.075274415 -0.063167624 -0.062595434
-0.16467853 0.045549076 0.04093554 -0.08235035 -0.05159276 -0.04457396 -0.017391048 -0.072990745
-0.25769725 -0.13145114 -0.241933 -0.00805481 0.10614874 -0.13881962 -0.015772423 0.070339695
0.180068 -0.13900597 -0.007955426 0.0018329059 0.2960329 -0.16923067 -0.031050269 0.014475514
0.060757555 0.13740504 0.088004895 0.033489633 0.1347373 -0.07763821 0.09650878 0.07543802
-0.031315833 0.14731969 0.09016839 0.09859421 0.044174984 -0.022733187 -0.110789314 0.12233646
-0.060409352 -0.050150484 0.017088477 0.5242894 -0.23032393 0.20776556 -0.07504146 0.17689388
0.024126446 -0.19539613 -0.022884326 0.14430933 -0.027419483 -0.13470355 0.025516525 0.07259875
0.07468862 -0.0037093512 0.068801336 0.10582583 0.037167888 -0.2387859 -0.09752699 -0.32884756
0.21270016 -0.12888461 -0.11775875 0.043744076 -0.12992129 0.12858668 -0.041695606 -0.1016868
-0.14690557 -0.08886687 -0.07044942 -0.18046659 -0.07816103 -0.061576273 0.16171657 -0.09247662
-0.019215083 0.035939857 0.15513034 -0.03804478 0.019066289 -0.20602964 -0.19128071 0.09702283
-0.076350264 0.07398855 -0.054112762 0.31708667 -0.063820206 -0.100397974 0.15083787 -0.19074395
-0.07604858 0.2692593 -0.0068459855 0.21286406 0.060408253 -0.011175432 0.091361806 0.059474453
-0.068849765 0.08233231 0.052696165 -0.09802997 0.009910921 0.110029496 0.0062710224 0.123745486

bias f4 [50]
00000000: 0896 3a3d 492b e03d 17e8 b0bd 426e a8bd
00000010: 3a6f e8bd ca57 0b3d 20c9 2cbd c316 2e3c
00000020: b75f 0b3d d4fb b13b 76ea 22bd a1f2 8dbd
00000030: 4ad3 5b3d b91b ae3c 7432 783d e90f 103b
00000040: 41b3 b7bd 8cb8 c9bd 9f5d 8fbd 641e 873d
00000050: 19be ef3c 0871 2a3e b410 4a3d cc6a e13d
00000060: 2bf3 d0bc ecd8 ba3d bb3d afbc f50c af3d
00000070: 7851 833d d50b 12be d50a 47bc 9e48 95bd
00000080: 22ba 6dbd 0bf4 083e 95e9 a03d 46aa f5bc
00000090: 3e3d f13d 8600 87bd 900e a63d c411 a4bc
000000a0: c63a b0bd 3e7c 773d 0494 293d e380 923d
000000b0: 6419 d4bd e9ad 5d3a 3d40 ee3b f0ce e93c
000000c0: 5305 35bd b503 993d
0.045553237 0.10945756 -0.086380176 -0.08224155 -0.1134934 0.03401927 -0.042183995 0.010625544
0.034026828 0.0054316316 -0.03977438 -0.069310434 0.053668298 0.021253454 0.06059499 0.002198214
-0.08969737 -0.09849653 -0.07000279 0.065975934 0.02926545 0.1664468 0.049332336 0.11006698
-0.025506577 0.09123406 -0.02139174 0.08547393 0.06412023 -0.14262326 -0.012148579 -0.07289241
-0.05803884 0.13374345 0.07857052 -0.02998842 0.11779259 -0.06591897 0.08108246 -0.020028003
-0.0860496 0.06042122 0.041400924 0.071534894 -0.103564054 0.00084563956 0.0072708414 0.028541058
-0.04419453 0.0747141

weight f4 [1, 50]
00000000: b10e 18be 162b cc3e 6c6e 193c cb27 5fbd
00000010: ddd1 473e df19 453e 06d0 10bd ca05 46be
00000020: 19d5 23be ca47 83be 898b 53bc 85d3 cdbe
00000030: 1234 283d 8d68 653b 33d2 51be 8c01 443e
00000040: b707 ec3c 85ff 28bd 0e4b 14be 75e0 54bd
00000050: 96d3 853e 21c1 f4be a5a8 46bd 7052 723e
00000060: 3b8e 07be 410b 29be 5448 293e 27a8 92be
00000070: 9b8a 12be 9d23 41be 460c b1be 834a 62be
00000080: 84e8 0c3e f5ba 4d3e c0a9 73bd 2986 463d
00000090: 10b3 b13e fe56 fbbd 0c33 04be 2ffc 413e
000000a0: 6aa0 22bd e6c5 c9bd 2d2e 893e 9ba4 cb3b
000000b0: 69fa b23d 8540 60bd 40b3 8ebd 98a3 733e
000000c0: b98d 923e dd6a 9ebd
-0.14849354 0.39876622 0.0093647055 -0.05448131 0.1951365 0.1924815 -0.035354637 -0.19338146
-0.15999259 -0.25640708 -0.012911686 -0.4020044 0.041065283 0.0035004944 -0.20490341 0.19141215
0.028812272 -0.041259307 -0.14481756 -0.05197187 0.2613799 -0.47803596 -0.048500676 0.2366426
-0.1323785 -0.165082 0.16531497 -0.28643915 -0.14310686 -0.18861242 -0.34579676 -0.22098736
0.13760573 0.2009085 -0.059488058 0.04846779 0.34706926 -0.12272452 -0.12910098 0.18943857
-0.039703764 -0.09852199 0.26793042 0.006214691 0.08739168 -0.05474903 -0.06967783 0.23792875
0.2862375 -0.07735226

weight f4 [1, 50]
00000000: 8dd8 2abe 6b66 aa3e 6df7 0e3e ff51 a7be
00000010: 0f3a 26bd b137 69bd ffe0 86bd 5587 d03b
00000020: c235 16be a95c 84be 5697 9d3d 71b9 93be
00000030: cdfe 07bf a13a 80bd afc4 7ebe c007 983e
00000040: 03b6 a83e da2c b5bc b6ec afbe 7c94 c9bd
00000050: 9de1 363e 8a40 02bf a299 503d 8d24 61bd
00000060: 2187 f33c e7de 10be b259 aa3e ca2b b6bd
00000070: 41b9 c1bd 66ce 0ebe e028 b2ba fc76 36be
00000080: 4fcf b0bd 4f37 623e 3f31 be3d 14c5 2dbd
00000090: 82ec af3e 6149 30bc c9c4 9f3d d46f 583d
000000a0: baa3 2dbd a246 10be bfbf 6d3d e7c2 89bd
000000b0: f4b4 f2bd 31f0 b03d 404c 15be a2bf 253e
000000c0: befe ac3e cf16 f43d
-0.1668417 0.33281264 0.13961573 -0.32679746 -0.040582713 -0.056937877 -0.06585883 0.006363789
-0.14668944 -0.25851944 0.07694881 -0.28852418 -0.5312317 -0.062611826 -0.24879716 0.29693413
0.32951364 -0.022116113 -0.34360284 -0.09842774 0.17859502 -0.5087973 0.050927766 -0.0549665
0.02972752 -0.1414753 0.33271557 -0.08895071 -0.094591625 -0.13945922 -0.0013592504 -0.17818826
-0.08633291 0.22091411 0.09286737 -0.042424276 0.3436013 -0.010759682 0.07801206 0.052841023
-0.04239247 -0.14089444 0.05804419 -0.06726628 -0.1185092 0.08639563 -0.14579868 0.16186383
0.33788103 0.11918413

weight f4 [8, 50]
00000000: 3fef 8e3e e1e1 113d 84af 6d3d 50be 3abe
00000010: c713 8e3e 5edc 71bd 0934 adbc 607e 9cbd
00000020: 3fe6 173e 5622 98be 54fd 8e3e d6e2 afbd
00000030: 3996 e7bc 8799 d93e 0151 65bd 3382 fabd
00000040: 7613 973d a39f 3a3e 2547 c8bd 874a 343e
00000050: b9c0 26bc f00a 483e 02e3 363e 790c 233e
00000060: 2677 e8bd ebf0 58be a58f 873e 9344 da3d
00000070: 2348 a83e f6ae b9bc ba0d fe3d c408 0a3d
00000080: d81e ccbd 0f1d 603d 6eea adbc 85d4 4a3e
00000090: 3519 66bc 6b71 333e 7d11 cc39 9ce2 3c3e
000000a0: 6b68 aebd 3595 b6bd a78a c7bd 4554 433e
000000b0: af2d 8e3e 7997 733e 1bde 08be dd6a abbd
000000c0: ba76 52bd c353 65be 4ac6 5cbd c98c 7fbc
000000d0: e2b8 df3d 60b5 31be e705 bf3d 60fc 183d
000000e0: 6bba 34be 862a 803e 42d4 793e 62bd 1dbd
000000f0: 5e69 e0bc 9862 09be c722 303d 0efb 47be
00000100: 5f8b a83d c215 863d f71d aabd 3b35 5c3e
00000110: de7c afbd e6a8 58be aaba c6bd 2020 7cbe
00000120: 16b7 a03e 89dc 793e 89d1 2d3e dcb0 25be
00000130: 3e34 883d 886e 98bd 4e41 953d cb76 85be
00000140: f8a2 ba3d cc11 6a3d 2538 86be 6224 b6bb
00000150: 6bed 14be bbcf 2e3e 1d9b b53c a762 f4be
00000160: 43b9 223e b3f2 413e 26ce 5f3c 7f4d a2bd
00000170: cd8d b23d 7c03 36bd dfd0 fa3d 887e 493e
00000180: df07 e3bd f458 31bd 1bde 943d 1747 253e
00000190: 4527 b63c 0263 423e 5ea1 3dbe 70a8 9bbd
000001a0: b0fb 083e ce3d 043e ded0 463c 2f68 3abe
000001b0: 0215 f33c 6500 b23c ec3d 373d 638d 32be
000001c0: e912 9c3d 731c e53d da53 c3bd 4e14 d03d
000001d0: 6635 6b3e 57d2 f2bc 976a fcbc 5961 f8bd
000001e0: 1295 3c3e 98b2 973d 8a32 51be 667d 95bd
000001f0: c433 eebd e126 04bd ee26 ecbd 241f cb3c
00000200: 3ffd d5bd e0f9 8ebd 8a51 3d3d 99c0 26be
00000210: 544f 483e adbf 8c3d 36b5 94bd bf9d 25be
00000220: 99ee 2e3e 620f 03bd 14f2 02be 4416 fc3c
00000230: 54c6 7d3d ac78 0ebe 3cf7 833d c507 da3d
00000240: 365a 3bbd 7b1d c23d 8cd0 92bd 9108 0e3e
00000250: 3ff6 dfbc 8ab6 50be 25b5 fcbd 820f 1e3d
00000260: dc34 1d3e faea c03d 5084 53bd 35bb ae3d
00000270: 2790 673e 4be1 883e 08bd 4dbe 182b fb3d
00000280: 7035 80be 19d9 bd3d 6693 3dbe d146 093d
00000290: aef8 19bc e5ed 14bd a036 163e 2038 e5bd
000002a0: e7b6 bebd bcf1 3e3d 1f00 bf3d 6eae 2dbd
000002b0: afd5 d0bd 362e 483e 3ef2 4c3d 6b33 043e
000002c0: f5f9 81bd bc25 173d 440b f2bc f5b1 3cbe
000002d0: bc1d fdbd 75df 113e f209 01be 98ec 12be
000002e0: 5da1 1ebd 4f6c ddbc ca34 383c cde7 4ebe
000002f0: ade4 523e 6702 e2bd 9b2a d2bd 0991 1bbe
00000300: 24a6 54bd 4378 ffbd b54e cf3c 58ec 1fbe
00000310: 9973 09be f7b0 383c 7c5a c7bd eef1 e6bd
00000320: 1053 d83d a678 13be a138 1abe 01dd 4ebd
00000330: bd18 b63b 55f3 2a3d 0058 843e e0d4 e8bd
00000340: 3cf0 06bb d9ad 093b b4a2 2dbe 8713 1fbe
00000350: edb0 b8be 9ebc 2c3e 425f 2dbe a328 2c3e
00000360: fe3d d13d e8e5 a2bd e9c0 6b3e 2272 26bc
00000370: 2460 05be 68ca 9b3e 139e 023e 4700 163e
00000380: 5542 6f3d 6155 593d 73de 2f3e e9c4 843d
00000390: 62d7 153e 0261 91be e7ae 2cbe f23d d7bc
000003a0: a1a1 83bd a0eb a4bd 3777 903e f8ed 0ebe
000003b0: ad86 3dbe 5d40 53be 1bca 583e 873e 873c
000003c0: 6ddb 043d 17d6 0cbe 13c4 133e c36c 63be
000003d0: d7d3 43be 5184 95be 6214 e2bd 661d 3a3d
000003e0: b7f2 03be 9071 a6bd 4d84 583e ad32 053e
000003f0: 0a6c 483e 3911 8b3e a638 e8bc 7c63 6abe
0.27916905 0.035615806 0.058028713 -0.18236661 0.27749464 -0.05904805 -0.021142976 -0.076412916
0.14833926 -0.29713696 0.2792765 -0.085881874 -0.028269874 0.42499945 -0.055985454 -0.12231865
0.07376759 0.18224959 -0.09779195 0.17606555 -0.010177785 0.19535422 0.17860034 0.15922727
-0.11350851 -0.21185653 0.2647678 0.10657611 0.32867536 -0.022666436 0.12404962 0.033699766
-0.099668205 0.054715212 -0.021229949 0.19807632 -0.014044096 0.17523734 0.00038922942 0.1844582
-0.0851601 -0.08915178 -0.09743243 0.19075115 0.2776923 0.23788251 -0.13365977 -0.08369992
-0.051382758 -0.22395234 -0.05390004 -0.015597531 0.109239355 -0.17354345 0.09327298 0.03735006
-0.17649238 0.25032443 0.24397376 -0.038510688 -0.027393993 -0.13416517 0.043001916 -0.19529364
0.08229708 0.06547119 -0.083064966 0.21504681 -0.085687384 -0.2115818 -0.09703572 -0.2462163
0.31389683 0.24400534 0.16974463 -0.16180748 0.066505894 -0.07442957 0.072878465 -0.26067194
0.09113115 0.05714588 -0.2621471 -0.0055585364 -0.14543693 0.1707143 0.02216869 -0.47731516
0.15890984 0.18940239 0.013659989 -0.079249375 0.087184526 -0.044436917 0.1224687 0.19677174
-0.11085486 -0.043297723 0.07268926 0.161404 0.022235522 0.18983081 -0.18518588 -0.07600486
0.13377261 0.12914202 0.012134759 -0.18203805 0.029673103 0.021728704 0.044736788 -0.17436747
0.07620794 0.11187067 -0.09537478 0.10160123 0.22969589 -0.029641313 -0.030812545 -0.121279426
0.18416241 0.07407111 -0.20429435 -0.072993085 -0.11630967 -0.03226364 -0.11530863 0.024795122
-0.104486935 -0.069812536 0.04622034 -0.16284408 0.19561511 0.06872497 -0.07261126 -0.16173457
0.17083205 -0.031997092 -0.12787658 0.030772336 0.06195672 -0.1391322 0.064436406 0.10646013
-0.04574033 0.09478279 -0.071686834 0.13870455 -0.027339099 -0.20382133 -0.12339238 0.03858901
0.15352196 0.09419818 -0.051639855 0.08531801 0.22613584 0.26734385 -0.20091641 0.12264079
-0.2504077 0.09269924 -0.1851326 0.0335148 -0.009397669 -0.036359686 0.14669275 -0.111923456
-0.093122296 0.046617255 0.09326195 -0.042402677 -0.10197007 0.19548878 0.050035708 0.1291024
-0.06346504 0.03690122 -0.029546387 -0.1842726 -0.12359187 0.14245398 -0.1260145 -0.14348066
-0.038728107 -0.027029185 0.011243055 -0.20205612 0.20595045 -0.110356145 -0.102620326 -0.15192045
-0.051916257 -0.1247411 0.025306085 -0.15617502 -0.13423003 0.01127266 -0.097340554 -0.11276613
0.10562718 -0.14401492 -0.15060665 -0.050503734 0.0055571483 0.041735966 0.2584839 -0.11368728
-0.0020589968 0.0021008162 -0.16956598 -0.15534793 -0.36072484 0.16868827 -0.16930869 0.16812377
0.10216902 -0.079540074 0.23022808 -0.010159047 -0.13024956 0.3042786 0.12755613 0.14648543
0.05841287 0.05305994 0.17174701 0.0648287 0.14632943 -0.28394324 -0.16863595 -0.026274655
-0.06427313 -0.080527544 0.28215954 -0.13957965 -0.18508406 -0.20630021 0.21170847 0.016509308
0.032435823 -0.13753544 0.14430265 -0.22209458 -0.19123779 -0.29202512 -0.11039044 0.045438193
-0.12885557 -0.08127129 0.21144219 0.13007613 0.19572464 0.27161577 -0.028347325 -0.22889513

bias f4 [8]
00000000: ee6d 8b3b 7e63 883d 4ba0 533d 39b9 af3d
00000010: 64fb 5dbc 7cbb 633c 6d66 2bbc 0f9c e93d
0.004255048 0.06659602 0.05166654 0.0858025 -0.013548706 0.01389968 -0.010461432 0.11406719

weight f4 [1, 50]
00000000: 9520 85bd 4f17 c43d 726f c43d dd74 8dbd
00000010: be88 8fbd 582f 713d 1566 873d ecc7 183e
00000020: 0123 adbc c820 163e 4cbd 46be b5f2 81bd
00000030: cdd4 563c 1d63 1cbe acf3 1d3e ffac 803d
00000040: ecbd 9c3d 248a 1abd 2d16 333d 9e75 29bd
00000050: 6abc d53d c34d c63c e241 95bd 03c4 123e
00000060: 40de bd3d 0973 ea3d 829f 3bbd bc8f b8bd
00000070: 4a20 03be afdf 56bd aa7c e93c 848b 053e
00000080: 67b6 293d f948 e73d 2e76 d2ba d564 cdbd
00000090: bbd7 543d 7275 8bbd 82e3 173e 804f 55bd
000000a0: 8244 5d3d f5a6 97bd 3a35 843d 65ff d7bd
000000b0: 9e82 d2bd 0f01 50be 6867 143e 4763 f53c
000000c0: 1984 97bd eeaa 323e
-0.06500355 0.09574758 0.09591569 -0.069070555 -0.070085034 0.05888304 0.066112675 0.14920014
-0.021134855 0.14660943 -0.19408149 -0.06345121 0.013112259 -0.15272184 0.15424985 0.062829964
0.07653412 -0.037729397 0.04372232 -0.041371934 0.10436328 0.024207002 -0.07287957 0.14332585
0.092709064 0.114477225 -0.045806415 -0.0901179 -0.12805286 -0.052459415 0.028501827 0.13041502
0.041433718 0.11293215 -0.0016056949 -0.10028998 0.05196355 -0.0680951 0.14832881 -0.05207777
0.054020412 -0.074048914 0.06455465 -0.105467595 -0.102788195 -0.20312904 0.14492571 0.029954566
-0.073982425 0.17448017
