result/models/fixed_50.pth (torch, 67537 bytes, 11 tensors)

weight_ih_l0 f4 [200, 9]
-0.09906963 0.058656905 0.16136615 -0.22470978 -0.17902859 -0.07868543 0.22069873 0.36654055
-0.1145633 0.17275056 0.07618543 0.24573453 -0.12018782 -0.31585947 0.07243479 -0.0042485585
0.19909415 0.03945474 -0.21516594 -0.03855841 -0.06904184 0.058149707 0.05067865 0.07437448
0.048808664 -0.029472545 -0.3069508 -0.1554875 -0.05267251 0.104516536 0.0135246795 0.21823858
0.2016348 0.18251467 -0.034426033 -0.4558261 -0.13300014 -0.18467654 0.011774254 0.25490642
-0.09532539 -0.09493545 0.10439724 0.037582427 0.036068678 -0.12612127 -0.08944355 -0.14708906
0.25755256 0.24261345 0.6683033 0.030910082 0.013023003 0.360006 -0.10275931 -0.17837003
-0.13646199 -0.3168464 -0.12983657 0.053421404 0.12156463 0.079649836 -0.5681804 -0.2841968
-0.039924726 0.020389467 0.30363584 -0.12808643 -0.08218884 -0.1116446 -0.015660644 0.031148853
0.020789506 0.11731574 0.021244675 0.0060381065 0.06898553 0.15529905 0.19405326 0.09917063
-0.13711196 -0.032768257 -0.09768434 -0.084707804 0.32820386 -0.041171305 -0.062465288 0.032401253
-0.066119365 0.8101694 -0.18735074 -0.3469283 0.105219625 -0.25448433 -0.17108738 -0.0143907005
-0.025978679 -0.092116244 -0.17638983 -0.026299153 -0.016685849 0.093967564 -0.14589736 -0.3776629
-0.079568364 0.10935959 -0.027602881 0.14231955 -0.08192489 0.030702578 0.113790184 0.1395639
0.15546511 0.24526909 -0.07541886 0.01970428 -0.010515056 0.21889593 0.19182041 -0.026826061
-0.09701022 -0.3797534 -0.16026463 0.079000756 -0.084835805 -0.23906572 -0.12169212 0.06153915
0.055435788 -0.20860182 -0.10373154 0.11318229 0.11331739 -0.06512764 0.25994805 -0.1719689
-0.057119895 0.17189728 -0.21065997 -0.07679209 -0.2307161 -0.0254149 0.13827415 -0.110221505
-0.23963222 -0.040588673 0.13584326 0.13804944 -0.0953883 0.26799324 0.092127405 0.040285576
0.30578238 0.11280552 0.12537372 0.080877066 0.14957874 -0.19275634 -0.24534407 0.044119235
-0.01657915 -0.08557085 0.22954747 0.22320873 0.13411914 0.27603182 0.009876562 0.16137442
-0.061535135 -0.01838902 0.21899062 -0.19378893 -0.12776652 -0.053738363 -0.51361954 -0.25852624
-0.1593189 0.09865975 -0.06788228 -0.06302763 0.10063665 0.022862887 0.12817228 0.012080469
-0.06683092 0.14784585 0.035381652 -0.081496604 0.43571138 -0.024388285 0.029156454 0.012512223
0.4820499 0.24362814 0.40315118 0.03649189 0.012878402 -0.112874076 -0.24782456 -0.22660847
-0.1226871 -0.32968962 -0.1130362 0.09853185 0.1120723 0.12844683 -0.09983911 -0.50521624
-0.53211856 -0.2018931 -0.43527868 -0.38690183 -0.26632234 -0.2358038 0.061781913 -0.0091253985
0.04923151 0.119969524 0.2624885 -0.1348392 -0.22636238 0.06674409 0.24813797 -0.014326227
-0.8574215 0.073523566 0.22500953 0.06707702 -0.14024276 -0.23980464 0.008223726 0.1732445
0.10817455 -0.68984956 0.21005495 0.04333571 0.1823258 -0.026168123 -0.12526333 -0.08844058
-0.062603906 0.04731977 -0.05403183 0.18003362 0.3038683 0.16682126 0.23704658 0.065731265
0.3997976 0.015519454 0.19772583 0.1215893 0.15728112 0.15115313 0.100711495 0.3592848
00000000: 05e5 cabd 3942 703d 2b3d 253e 521a 66be
00000010: 4553 37be d425 a1bd d9fe 613e 34ab bb3e
00000020: 2aa0 eabd 86e5 303e 1b07 9c3d d5a1 7b3e
00000030: 0825 f6bd 55b8 a1be b158 943d 7e37 8bbb
00000040: 56df 4b3e 4b9b 213d 7654 5cbe 6cef 1dbd
00000050: cf65 8dbd 632e 6e3d 6b94 4f3d a651 983d
00000060: 98eb 473d 6870 f1bc a828 9dbe 1d38 1fbe
00000070: 21bf 57bd c40c d63d 9e96 5d3c ef79 5f3e
00000080: 5a79 4e3e 20e5 3a3e 5002 0dbd 0a62 e9be
00000090: 3031 08be d91b 3dbe cde8 403c 1883 823e
000000a0: f539 c3bd 846d c2bd 38ce d53d 08f0 193d
000000b0: c0bc 133d ef25 01be 2e2e b7bd 849e 16be
000000c0: eedd 833e a96f 783e ed15 2b3f 2437 fd3c
000000d0: 6f5e 553c b552 b83e 7973 d2bd a2a6 36be
000000e0: b1bc 0bbe b139 a2be e1f3 04be 67d0 5a3d
000000f0: e0f6 f83d 741f a33d 4574 11bf 3e82 91be
00000100: 1c88 23bd d007 a73c 2876 9b3e 1729 03be
00000110: 9f52 a8bd eda5 e4bd c04a 80bc e12b ff3c
00000120: c14e aa3c 3c43 f03d 5009 ae3c 4fdb c53b
00000130: 4948 8d3d b706 1f3e e6b5 463e f919 cb3d
00000140: 1467 0cbe 0238 06bd ba0e c8bd 497b adbd
00000150: 560a a83e 3ea3 28bd 9adb 7fbd 2db7 043d
00000160: 9769 87bd 4367 4f3f dfd8 3fbe 96a0 b1be
00000170: 637d d73d c54b 82be 8831 2fbe f9c6 6bbc
00000180: 3dd1 d4bc 71a7 bcbd 899f 34be 5271 d7bc
00000190: c3b0 88bc 1172 c03d 1e66 15be 085d c1be
000001a0: bdf4 a2bd ecf7 df3d 701f e2bc 37bc 113e
000001b0: 3dc8 a7bd f983 fb3c d40a e93d d7e9 0e3e
000001c0: 3f32 1f3e d227 7b3e 3475 9abd df6a a13c
000001d0: 5747 2cbc 4126 603e 926c 443e 54c2 dbbc
000001e0: 4bad c6bd 0a6f c2be 691c 24be 26cb a13d
000001f0: 65be adbd a5cd 74be b839 f9bd 7a10 7c3d
00000200: a310 633d b79b 55be 3471 d4bd 1ecc e73d
00000210: f312 e83d a461 85bd e917 853e 9e18 30be
00000220: 8df6 69bd d705 303e 3fb7 57be 2c45 9dbd
00000230: d740 6cbe e932 d0bc bd97 0d3e d0bb e1bd
00000240: 2662 75be 4f40 26bd 7f1a 0b3e d55c 0d3e
00000250: f15a c3bd 6936 893e 4bad bc3d 7d02 253d
00000260: 828f 9c3e 9506 e73d f861 003e e0a2 a53d
00000270: 2b2b 193e eb61 45be 7a3b 7bbe 5fb6 343d
00000280: ffd0 87bc c53f afbd 7e0e 6b3e d490 643e
00000290: 8756 093e 0b54 8d3e 4ed1 213c 563f 253e
000002a0: 440c 7cbd 92a4 96bc 143f 603e 9b70 46be
000002b0: 3ad5 02be c21c 5cbd 927c 03bf 8d5d 84be
000002c0: 7e24 23be 1f0e ca3d dd05 8bbd a114 81bd
000002d0: 971a ce3d f34a bb3c 983f 033e 29ed 453c
000002e0: a6de 88bd e764 173e 5aec 103d b1e7 a6bd
000002f0: 9015 df3e f1c9 c7bc 84d9 ee3c 1100 4d3c
00000300: 3fcf f63e a879 793e d569 ce3e 8578 153d
00000310: efff 523c 862a e7bd b9c5 7dbe 0d0c 68be
00000320: 6043 fbbd 14cd a8be 867f e7bd 11cb c93d
00000330: 2986 e53d 9187 033e 7378 ccbd da55 01bf
00000340: ec38 08bf 11bd 4ebe d9dc debe ff17 c6be
00000350: 675b 88be 8d76 71be 080f 7d3d b282 15bc
00000360: fba6 493d 95b2 f53d e564 863e 4a13 0abe
00000370: 8acb 67be 20b1 883d e117 7e3e 8db8 6abc
00000380: fa7f 5bbf 8693 963d e668 663e ad5f 893d
00000390: cc9b 0fbe 598f 75be cfbc 063c 0267 313e
000003a0: 9e8a dd3d fb99 30bf a518 573e c980 313d
000003b0: 9db3 3a3e 885e d6bc 0845 00be 5620 b5bd
000003c0: 7a36 80bd 60d2 413d 7b50 5dbd bc5a 383e
000003d0: a094 9b3e 31d3 2a3e 57bc 723e 1d9e 863d
000003e0: 45b2 cc3e 4f45 7e3c a478 4a3e d003 f93d
000003f0: 4d0e 213e e3c7 1a3e d441 ce3d 2df4 b73e

weight_hh_l0 f4 [200, 50]
0.19748957 -0.09889662 -0.2908475 0.04050423 -0.149174 0.55729955 0.32140565 0.59866196
0.2947817 -0.3467943 -0.1604915 0.041702118 -0.037130933 0.37596357 0.14168938 0.26509702
0.07026281 0.23203792 -0.19436496 -0.08165391 -0.40276834 -0.006409036 0.19240628 0.11505439
-0.105250366 0.2537529 0.2667783 -0.088773124 -0.14794168 -0.0676651 -0.022644557 0.16362579
-0.31022736 0.61478776 0.45637926 0.040340688 0.078460716 -0.26391587 0.29963434 -0.24483667
0.2216775 0.08962482 -0.29730365 -0.46617946 0.1599536 0.35719544 -0.16287392 0.531073
0.23757271 0.32260692 0.22607246 0.17502883 0.0453396 0.028824663 0.1109119 0.10393959
-0.37749088 0.061317757 0.39055783 0.1466594 -0.03461523 0.3226615 0.31488997 -0.34446838
-0.28036928 -0.04125493 0.36591366 -0.0983719 -0.066422835 0.031559445 0.17292231 0.26027352
-0.04955951 0.48345086 0.05635074 0.030284433 -0.036680117 0.091090836 -0.19713464 -0.11854124
-0.15087594 -0.073182516 0.14348108 0.25589046 0.1317123 -0.20925339 -0.127946 0.028341766
0.08987495 0.22565322 0.011630009 -0.18242279 0.0935419 0.013810917 0.60614944 -0.33390468
0.16590938 0.1413723 -0.0015854607 -0.13295959 0.07592615 -0.18040356 -0.077622965 -0.20841868
-0.16533078 0.17335986 0.0008636175 0.30164367 0.16851433 -0.2769643 -0.046939757 -0.05837063
0.08061897 0.3033102 0.20253336 0.07748455 -0.06236111 0.115889944 -0.01806794 -0.25720167
0.046360955 0.40206304 0.07275797 -0.44299504 -0.20417255 -0.3710021 -0.18416226 -0.19569992
-0.28473085 0.053395752 0.22428533 0.10714962 -0.46364248 -0.069296315 0.1004859 -0.23742875
-0.19304334 0.23337324 0.024483435 -0.15434961 0.24824063 -0.5061131 0.04124359 -0.028152494
-0.18590759 0.009495087 0.21519439 0.325209 0.036979057 0.14345945 -0.48873007 -0.26536432
-0.22221872 0.036889028 0.15426408 -0.25705507 0.022384785 0.02372418 0.09066107 0.2035165
0.08615369 -0.3811374 0.15227559 0.18849747 -0.07648641 0.017472016 0.09434925 0.0022029993
0.044163853 -0.20879525 0.053977706 -0.221743 0.0031595991 -0.2170274 -0.4275943 -0.17249516
0.2536506 -0.14314306 -0.23906118 -0.1761417 0.34889838 0.20044908 -0.012919358 -0.05872811
0.03775307 -0.18999656 -0.15467946 0.1493422 0.043361552 0.0339936 0.28025985 -0.3753063
0.112639934 -0.008826741 -0.047077853 0.13928647 0.32161754 0.19029488 0.1777515 -0.13152559
-0.45690814 0.18875133 -0.15506706 -0.042424686 -0.06933687 0.15983693 0.08042653 0.16207401
0.19496782 -0.05174473 0.07745596 0.0028729867 0.0036677278 0.241695 -0.042220186 0.002563194
0.31353498 0.0933923 -0.18577676 -0.042498898 -0.09040835 -0.18590714 0.15372425 0.029278629
-0.6139456 -0.14267057 0.20536256 0.25306684 0.035282604 -0.13150045 -0.027868038 -0.04915292
-0.14846613 0.08977661 0.27985412 -0.20410158 -0.03176058 0.13275425 0.28692237 -0.14924006
0.3035014 -0.22019817 -0.00779074 -0.02150495 -0.12487848 0.3120119 -0.1182812 0.14797689
0.11464661 0.047785062 0.38686585 0.03690461 -0.011129387 -0.07779421 0.19164038 -0.14240332
00000000: b53a 4a3e 508a cabd f7e9 94be c3e7 253d
00000010: 12c1 18be 2fab 0e3f 488f a43e e941 193f
00000020: a1ed 963e 068f b1be e257 24be d7cf 2a3d
00000030: 9b16 18bd 4c7e c03e 0517 113e ccba 873e
00000040: f3e5 8f3d 599b 6d3e 9c07 47be 2a3a a7bd
00000050: a737 cebe e402 d2bb 2706 453e a3a1 eb3d
00000060: 818d d7bd e6eb 813e 2a97 883e afce b5bd
00000070: 067e 17be 0094 8abd 1481 b9bc 858d 273e
00000080: 1fd6 9ebe bb62 1d3f 8baa e93e 473c 253d
00000090: 03b0 a03d fb1f 87be ac69 993e 77b6 7abe
000000a0: 6dff 623e 388d b73d 2f38 98be 13af eebe
000000b0: e0ca 233e 52e2 b63e 6cc8 26be 66f4 073f
000000c0: 4346 733e bc2c a53e 8a7f 673e c23a 333e
000000d0: 04b6 393d b321 ec3c c725 e33d 48de d43d
000000e0: 7c46 c1be 5428 7b3d 32f7 c73e e22d 163e
000000f0: b3c8 0dbd e333 a53e 4239 a13e 295e b0be
00000100: 908c 8fbe eefa 28bd 0959 bb3e 3577 c9bd
00000110: b208 88bd 7a44 013d 8c12 313e 9242 853e
00000120: eafe 4abd df86 f73e 09d0 663d 0f17 f83c
00000130: e43d 16bd d58d ba3d aadd 49be c0c5 f2bd
00000140: 397f 1abe b7e0 95bd b4ec 123e 1304 833e
00000150: 97df 063e 8546 56be 4704 03be fe2c e83c
00000160: 5c10 b83d a311 673e cb8b 3e3c 0acd 3abe
00000170: e592 bf3d 2f47 623c 9c2c 1b3f 8ef5 aabe
00000180: 26e4 293e e6c3 103e 3ccf cfba 8f26 08be
00000190: 2b7f 9b3d b6bb 38be caf8 9ebd b56b 55be
000001a0: 794c 29be 3f85 313e 6464 623a 0a71 9a3e
000001b0: 058f 2c3e 44ce 8dbe e743 40bd 0b16 6fbd
000001c0: 8f1b a53d 794b 9b3e e864 4f3e 38b0 9e3d
000001d0: 5d6e 7fbd b557 ed3d 3703 94bc f0af 83be
000001e0: fce4 3d3d 35db cd3e 2102 953d 3fd0 e2be
000001f0: 9c12 51be fdf3 bdbe 0895 3cbe 8f65 48be
00000200: 3ec8 91be 81b5 5a3d 0eab 653e 4371 db3d
00000210: 8c62 edbe 3aeb 8dbd 8dcb cd3d 8620 73be
00000220: 27ad 45be 65f9 6e3e 7c91 c83c d30d 1ebe
00000230: cb32 7e3e a190 01bf 0aef 283d 0fa0 e6bc
00000240: 8f5e 3ebe 4891 1b3c eb5b 5c3e cb81 a63e
00000250: 5a77 173d 09e7 123e d43a fabe d5dd 87be
00000260: 4e8d 63be f318 173d 67f7 1d3e b99c 83be
00000270: 4c60 b73c 3659 c23c 83ac b93d a166 503e
00000280: 5971 b03d 7124 c3be 22ee 1b3e 7b05 413e
00000290: e8a4 9cbd 7921 8f3c 2e3a c13d 3260 103b
000002a0: 28e5 343d 6cce 55be ba17 5d3d 9910 63be
000002b0: 4711 4f3b 6e3c 5ebe a4ed dabe 92a2 30be
000002c0: 7ede 813e 1894 12be 74cc 74be 7d5e 34be
000002d0: cfa2 b23e 8642 4d3e b7ab 53bc e38c 70bd
000002e0: f7a2 1a3d 758e 42be 4b64 1ebe 29ed 183e
000002f0: e29b 313d e03c 0b3d 387e 8f3e 2628 c0be
00000300: c4af e63d 099e 10bc b5d4 40bd 1da1 0e3e
00000310: 0eab a43e a9dc 423e 7d04 363e a5ae 06be
00000320: ddef e9be 0748 413e e6c9 1ebe 82c5 2dbd
00000330: 7d00 8ebd 4bac 233e aab6 a43d bbf6 253e
00000340: a5a5 473e 48f2 53bd 3ba1 9e3d b848 3c3b
00000350: 435e 703b e57e 773e 13ef 2cbd 42fb 273b
00000360: a887 a03e 7644 bf3d 433c 3ebe 5313 2ebd
00000370: 0328 b9bd 715e 3ebe e469 1d3e bcd9 ef3c
00000380: 8a2b 1dbf 3c18 12be 904a 523e fa91 813e
00000390: 7e84 103d 0ea8 06be 834b e4bc 9254 49bd
000003a0: 8107 18be cddc b73d 0a49 8f3e 0100 51be
000003b0: 6217 02bd bbf0 073e 7de7 923e 63d2 18be
000003c0: 8964 9b3e a17b 61be 7749 ffbb 262b b0bc
000003d0: 4ac0 ffbd 06c0 9f3e 6a3d f2bd 4187 173e
000003e0: d8cb ea3d 45ba 433d 4813 c63e 4a29 173d
000003f0: 0858 36bc 9252 9fbd 603d 443e 2dd2 11be

bias_ih_l0 f4 [200]
0.09128745 0.12847325 0.04675511 0.14876884 0.057044446 0.3187065 0.17602362 0.102868564
0.13009085 0.041107606 0.105648495 0.21516968 0.12488101 0.016547471 0.23363802 -0.055851478
-0.038711928 0.02772786 0.37620154 0.16442621 0.1701828 0.14338493 -0.15472299 0.14802656
0.00081615977 -0.13082117 0.0055786315 0.14192514 0.008108001 0.06939562 0.20273727 -0.12040819
0.10126308 0.006811855 0.10373186 -0.0149657 0.19669704 0.118481785 0.048551496 0.023951916
0.29027778 0.19429585 0.02401057 -0.0022050682 0.32535908 0.082504384 0.4559212 0.17369054
0.019822719 0.47087598 -0.19475423 0.2244413 -0.111931175 -0.1397244 0.08366502 -0.17966601
-0.08954645 0.078410886 0.18286592 -0.17783408 -0.04031965 -0.15149371 0.03772589 -0.15982707
-0.051912982 0.084919915 -0.23708959 0.043636557 0.1964591 -0.09983189 0.013998979 -0.044876758
-0.087896094 -0.13981421 -0.24953844 -0.15072232 0.04414652 0.13583314 0.074655786 0.09651167
-0.0723825 -0.027529798 0.04694222 0.19447926 0.019507155 0.10082642 -0.14134166 0.08883596
-0.20204417 0.0019940932 -0.2003493 -0.33084437 -0.08600526 -0.084800705 -0.09044226 -0.40443888
-0.17663631 -0.25360876 -0.10493762 -0.13575014 -0.0047323783 -0.0048188493 0.039653223 0.028692584
-0.11232845 -0.09309853 -0.09029109 -0.21356624 0.031064777 -0.054704104 -0.11682072 -0.0429589
0.025713729 0.15392576 -0.04265083 0.06432469 -0.008505439 0.10502614 -0.21216053 0.038134813
-0.06588262 -0.11145687 0.02891427 0.05265864 0.060275067 0.13372383 -0.014171395 0.18275285
-0.0133695025 0.040377088 0.07143177 0.0722811 0.065405495 0.117158785 0.042328186 0.13837889
0.034641173 -0.07362791 -0.041942626 -0.00071837683 -0.07243526 0.15683948 -0.036102112 0.18494533
0.1468091 0.03901885 -0.0016784659 -0.053193845 -0.02015846 -0.17357306 0.026324086 0.11650555
0.13732342 0.19085266 0.14816095 0.09437966 -0.055024125 0.090586804 -0.03824703 0.034208473
0.077192985 0.22210984 0.1086066 0.0057903435 0.13586791 -0.1340844 -0.02153942 0.18121983
0.028232759 0.24767469 -0.0047602546 0.03285849 0.023750097 0.14664179 -0.005154518 -0.049543627
-0.090373054 0.011660841 0.052027103 0.07754869 0.0644699 0.14128266 0.19348954 0.14941001
-0.038373265 0.009108875 0.11353314 -0.16634974 0.122069284 0.16462997 0.098425604 0.18711162
0.14856307 0.21317309 0.25530759 0.14683925 0.2525424 0.1039439 0.13103034 0.33222485
00000000: eaf4 ba3d 7e8e 033e 4982 3f3d dc56 183e
00000010: 70a7 693d 802d a33e 893f 343e c1ac d23d
00000020: 8936 053e 7360 283d 3d5e d83d 7155 5c3e
00000030: 9dc1 ff3d 908e 873c ce3e 6f3e 85c4 64bd
00000040: 6690 1ebd 8925 e33c 7d9d c03e 585f 283e
00000050: 6644 2e3e 80d3 123e b46f 1ebe 4694 173e
00000060: 8ef3 553a fcf5 05be f4cc b63b d354 113e
00000070: 6cd7 043c 4a1f 8e3d 5c9a 4f3e 9298 f6bd
00000080: 0563 cf3d fb35 df3b 5f71 d43d b232 75bc
00000090: f36a 493e 94a6 f23d efdd 463d cf36 c43c
000000a0: 4a9f 943e 7ef5 463e d1b1 c43c e882 10bb
000000b0: 7795 a63e 0ff8 a83d 816e e93e efdb 313e
000000c0: 4163 a23c a816 f13e a76d 47be f1d3 653e
000000d0: 2c3c e5bd ea13 0fbe 9158 ab3d 5efa 37be
000000e0: 2164 b7bd e395 a03d 3441 3b3e 231a 36be
000000f0: 3826 25bd 2b21 1bbe 7686 1a3d b5a9 23be
00000100: b5a2 54bd 7eea ad3d 9dc7 72be 3fbc 323d
00000110: 932c 493e a974 ccbd f95b 653c b1d0 37bd
00000120: de02 b4bd 752b 0fbe 0187 7fbe f456 1abe
00000130: fbd2 343d d817 0b3e 22e5 983d e9a7 c53d
00000140: 473d 94bd 2c86 e1bc 7c46 403d 9225 473e
00000150: 78cd 9f3c 157e ce3d debb 10be a1ef b53d
00000160: abe4 4ebe 55af 023b 5e28 4dbe 6f64 a9be
00000170: 8723 b0bd feab adbd cb39 b9bd 9d12 cfbe
00000180: 26e0 34be 02d9 81be 89e9 d6bd 1602 0bbe
00000190: 1112 9bbb 70e7 9dbb 6b6b 223d b60c eb3c
000001a0: 750c e6bd 71aa bebd 89ea b8bd 1cb1 5abe
000001b0: 8f7b fe3c 6911 60bd b43f efbd acf5 2fbd
000001c0: 99a5 d23c b79e 1d3e a3b2 2ebd aabc 833d
000001d0: 665a 0bbc f217 d73d 9c40 59be 4033 1c3d
000001e0: 78ed 86bd 8043 e4bd 9fdd ec3c 96b0 573d
000001f0: fde2 763d e6ee 083e 242f 68bc 9023 3b3e
00000200: c20b 5bbc 7262 253d d24a 923d 1d08 943d
00000210: 51f3 853d f2f0 ef3d 5260 2d3d 32b3 0d3e
00000220: e7e3 0d3d 3bca 96bd 08cc 2bbd 7451 3cba
00000230: f058 94bd 879a 203e cfdf 13bd 4f62 3d3e
00000240: 2055 163e 3bd2 1f3d f8ff dbba cae1 59bd
00000250: 5b23 a5bc 23bd 31be 9ca5 d73c 769a ee3d
00000260: 839e 0c3e e16e 433e 81b7 173e 204a c13d
00000270: fa60 61bd 9385 b93d eba8 1cbd 2f1e 0c3d
00000280: 5b17 9e3d c370 633e 236d de3d ecbc bd3b
00000290: f520 0b3e 6c4d 09be 7073 b0bc b191 393e
000002a0: 6348 e73c 6f9e 7d3e e9fb 9bbb a096 063d
000002b0: 908f c23c 4429 163e 3be7 a8bb 42ee 4abd
000002c0: 8215 b9bd 1d0d 3f3c 5f1a 553d d9d1 9e3d
000002d0: cc08 843d 67ac 103e 1f22 463e f0fe 183e
000002e0: 492d 1dbd 643d 153c 1084 e83d 9657 2abe
000002f0: 76ff f93d c294 283e 5d93 c93d 309a 3f3e
00000300: eb20 183e 0c4a 5a3e adb7 823e 075d 163e
00000310: 3d4d 813e 8ae0 d43d d12c 063e 6019 aa3e

bias_hh_l0 f4 [200]
-0.029541561 0.13670978 -0.119210094 0.034780953 0.25125578 0.40460774 -0.010741203 0.035264786
0.22740729 0.2466835 -0.023455337 0.1863464 0.06964483 0.14681411 0.02316606 0.057604082
0.15016273 -0.07819032 0.1997376 0.12093557 0.22556221 0.20148298 0.0027938476 0.16368504
-0.069905944 -0.22652674 0.2662325 0.3280226 0.08668195 0.24106127 0.23033978 -0.07183683
0.18624835 0.2387471 0.05384647 -0.017006537 0.04996554 -0.06709819 0.023434212 -0.0020973184
0.11098782 0.28479752 0.081755325 -0.0050084656 0.144206 0.312037 0.47311336 0.05307022
0.075828314 0.25762096 -0.23409948 0.27187467 0.019254128 -0.030962713 0.12685251 -0.11946789
-0.17350157 -0.06917726 0.20879577 -0.23616372 -0.093083926 -0.008627117 0.0064978055 -0.17262049
0.064237036 -0.13121496 -0.12776725 -0.027732095 0.22153737 -0.13048694 0.23126464 -0.26334643
-0.063975535 0.0056295437 -0.26146302 -0.20221269 0.11880982 0.051948573 0.015760392 -0.09779458
-0.2679653 -0.03859577 0.18604401 0.22415279 -0.18707825 0.022568787 0.11734877 0.054701988
-0.16821145 -0.062370654 -0.17086588 -0.375827 -0.16494277 0.1328333 -0.10557194 -0.30731618
-0.29437155 -0.062396232 -0.05566393 -0.33874047 0.11384805 -0.0044565564 0.07071575 -0.08384271
0.09397406 0.03079497 -0.17830852 -0.10711278 -0.15311219 -0.03233063 -0.08872393 0.12395239
-0.16381407 -0.028901333 -0.13062555 -0.00474556 0.22228327 -0.022927294 -0.18003662 -0.07542858
0.0023008578 -0.0072612283 0.052699495 0.11274833 0.2515378 -0.0010517682 -0.022520842 -0.023884436
-0.030753896 0.09234463 0.07580018 0.009466555 0.0026488444 0.21024422 0.04790004 -0.06439239
0.005549953 -0.17662446 0.09784364 0.093906894 -0.26103035 -0.032875795 -0.039887097 0.027682077
0.047122132 -0.12563683 0.052185312 0.1215222 0.014809643 -0.12634498 0.103831805 -0.0048177997
-0.025494529 0.044803493 0.2253508 -0.016017275 0.07722003 0.092663914 0.08421295 0.03192371
-0.04930388 0.1685239 0.1455435 0.14349213 -0.016767768 -0.085844755 -0.00795676 -0.048439715
0.17317517 0.38778144 0.13768977 0.102242485 0.13965103 0.29418254 0.03003148 0.0143498285
0.1382447 0.097522736 0.15192598 -0.06062832 0.13026857 0.15704617 0.19463424 0.1974324
0.21302271 -0.14245994 0.20228995 -0.028218862 0.0036958796 0.15166005 0.18098034 0.2006326
0.1827639 -0.049445692 0.19472398 0.22584598 0.36859593 0.15157358 0.021849057 0.21017012
00000000: 2501 f2bc a6fd 0b3e 6c24 f4bd 7976 0e3d
00000010: 99a4 803e bf28 cf3e dffb 2fbc cf71 103d
00000020: 75dd 683e 999a 7c3e 6825 c0bc 97d1 3e3e
00000030: f3a1 8e3d 7056 163e c0c6 bd3c 42f2 6b3d
00000040: 42c4 193e 3f22 a0bd 0388 4c3e 11ad f73d
00000050: c8f9 663e 8e51 4e3e fc18 373b 0d9d 273e
00000060: d92a 8fbd a0f6 67be a04f 883e 94f2 a73e
00000070: 4e86 b13d c4d8 763e 31de 6b3e 301f 93bd
00000080: e3b7 3e3e 1f7a 743e 1e8e 5c3d 4b51 8bbc
00000090: aba8 4c3d c76a 89bd 1bf9 bf3c 2a73 09bb
000000a0: 954d e33d fbd0 913e 566f a73d 0e1e a4bb
000000b0: bdaa 133e 50c3 9f3e ea3b f23e 2960 593d
000000c0: e04b 9b3d e5e6 833e c6b7 6fbe 2833 8b3e
000000d0: d5ba 9d3c 84a5 fdbc a0e5 013e 95ab f4bd
000000e0: 65aa 31be cfac 8dbd 8fce 553e e7d4 71be
000000f0: c9a2 bebd c058 0dbc 8beb d43b 6dc3 30be
00000100: b58e 833d 375d 06be 6bd5 02be 6b2e e3bc
00000110: b1da 623e 5e9e 05be a3d0 6c3e 58d5 86be
00000120: 9b05 83bd 0978 b83b 7bde 85be d810 4fbe
00000130: 9052 f33d 07c8 543d f01b 813c 8648 c8bd
00000140: bf32 89be 9916 1ebd 5282 3e3e 4f88 653e
00000150: 7191 3fbe 2de2 b83c 8d54 f03d 310f 603d
00000160: 9f3f 2cbe 5f78 7fbd 77f7 2ebe 666c c0be
00000170: c2e6 28be 7405 083e 1a36 d8bd 8c58 9dbe
00000180: deb7 96be 3193 7fbd dcff 63bd 646f adbe
00000190: 2b29 e93d 4e08 92bb 6bd3 903d bab5 abbd
000001a0: 7975 c03d bc45 fc3c 8296 36be f25d dbbd
000001b0: 71c9 1cbe 1f6d 04bd e4b4 b5bd c0da fd3d
000001c0: e0be 27be 7dc2 ecbc b4c2 05be a580 9bbb
000001d0: 3a9e 633e 05d2 bbbc 855b 38be 4d7a 9abd
000001e0: fdc9 163b 99ef edbb 6ddb 573d 99e8 e63d
000001f0: 90c9 803e 7cdb 89ba a17d b8bc 4ba9 c3bc
00000200: 98ef fbbc 2e1f bd3d 203d 9b3d 9c19 1b3c
00000210: 3c98 2d3b 434a 573e d532 443d 28e0 83bd
00000220: 61dc b53b 0bdd 34be 3f62 c83d 4252 c03d
00000230: c5a5 85be c5a8 06bd a760 23bd 86c5 e23c
00000240: 2303 413d f1a6 00be 44c0 553d a2e0 f83d
00000250: 25a4 723c 9460 01be c5a5 d43d a2de 9dbb
00000260: e7d9 d0bc de83 373d 5cc2 663e a936 83bc
00000270: 8925 9e3d 94c6 bd3d d777 ac3d 70c2 023d
00000280: def2 49bd 8791 2c3e 5b09 153e 9aef 123e
00000290: 8f5c 89bc 60cf afbd 125d 02bc b968 46bd
000002a0: d554 313e 4a8b c63e 8cfe 0c3e 8264 d13d
000002b0: ae00 0f3e 189f 963e 9404 f63c 8b1b 6b3c
000002c0: 0590 0d3e 00ba c73d 7c92 1b3e 6755 78bd
000002d0: 2065 053e b6d0 203e 334e 473e b82b 4a3e
000002e0: a022 5a3e 05e1 11be 1925 4f3e 3e2b e7bc
000002f0: 9236 723b c64c 1b3e e952 393e a272 4d3e
00000300: 7626 3b3e 9187 4abd b965 473e 2b44 673e
00000310: 9bb8 bc3e 1b36 1b3e cbfc b23c d636 573e

weight f4 [50, 50]
0.19134796 -0.13419782 0.09660553 -0.04868286 0.09557714 -0.11955419 -0.08156964 -0.061686754
-0.09133401 -0.31425384 0.09616673 0.21753597 0.14243595 -0.10464279 -0.16975416 0.015565205
0.05275703 0.028911212 0.06385116 0.07096824 -0.13542113 0.16994473 0.041369796 -0.3963732
-0.055972476 -0.13804752 0.11798659 0.123283826 -0.08089355 -0.00015816315 -0.15456316 -0.03790186
-0.0031596334 0.18328565 -0.017724209 -0.09988303 0.2452785 -0.089800976 -0.2579682 0.10298236
-0.33486187 -0.1927263 -0.068341084 0.044132646 0.24847832 -0.40963995 0.20971137 0.017028758
-0.15426001 -0.33152014 0.022240989 0.07976348 0.11981267 -0.10934276 -0.03189227 0.24803546
-0.006975454 -0.19396642 -0.13936038 0.0003988576 -0.00056202355 0.033727467 0.008779967 0.041266825
0.022253077 -0.11198941 -0.17638981 0.1742282 0.02591285 -0.06544236 -0.08337012 0.00993862
-0.023704559 -0.2993899 0.0006286921 -0.037212733 -0.14272588 0.14046088 -0.06491536 -0.06733615
0.02827205 -0.050888058 0.17992331 -0.0015038027 0.00786253 0.21321024 -0.19014274 -0.10900573
-0.22076504 -0.07948669 -0.05972674 0.29614457 0.1522972 -0.070765175 -0.028989147 -0.08397795
0.07221807 -0.22253446 0.1797213 0.3172729 -0.09023773 0.04563803 0.047262613 -0.011720622
0.08941962 0.21614051 0.16268525 0.062909454 0.07733775 -0.13664171 -0.21984208 0.08347944
0.050716944 0.10598707 0.26193106 -0.10188264 -0.10701656 -0.03394696 0.07932975 -0.0008780874
-0.25727785 0.10313429 -0.0027511774 0.12908259 -0.03776032 -0.09219702 0.054001443 -0.1369247
0.11323959 -0.006751094 -0.029045245 0.14288133 -0.26005605 0.2804566 0.08089128 -0.10787775
-0.021392763 0.01612021 0.18125531 -0.2307761 0.21376845 0.018908307 -0.25323758 -0.090896584
0.00899692 0.06669441 -0.2485443 -0.1271661 -0.020954732 0.40977263 0.017276574 -0.03563034
-0.05068471 0.050764706 0.016743498 0.15434088 -0.084227055 0.025965368 0.053478766 -0.13753201
-0.13968483 -0.08776315 0.08175894 -0.20745333 0.01619608 -0.14904074 -0.05661331 -0.18526514
0.0993751 -0.17371275 -0.035399523 0.43181005 0.056240566 0.06875112 0.082271464 -0.06500281
-0.14474891 -0.23050827 0.11785486 -0.020386163 -0.12440611 -0.110399365 -0.11030791 -0.048618026
-0.126213 -0.22302708 0.1453876 0.13162221 -0.23984927 -0.016424865 -0.20209827 0.13579886
-0.016261807 0.0783457 -0.22872812 -0.22594213 -0.14521356 0.06046456 0.024868611 -0.25748807
-0.063531525 -0.024642918 -0.05579375 -0.17983389 -0.098961614 -0.064771295 -0.086658165 -0.0638438
-0.15346436 0.063941024 0.14052811 -0.14200036 -0.20520437 0.16754353 -0.14799723 0.05968639
0.23467907 0.07862449 -0.0348948 0.046067923 0.20669216 0.11030976 -0.15285735 -0.19868799
-0.38965344 0.03654572 0.023249656 0.046967197 0.06557855 0.060680654 0.19529217 -0.11397376
-0.024966622 -0.12000401 -0.15059522 0.054030906 -0.025682384 0.042910226 0.09456372 0.014287468
0.28355056 -0.2796206 0.20284855 0.026754964 -0.089042455 0.13866813 -0.05733952 0.17818573
-0.18744993 -0.079526745 0.2575529 -0.10088177 0.01436203 -0.023415752 0.012944885 0.22355668
00000000: b8f0 433e 276b 09be 1fd9 c53d ae67 47bd
00000010: f3bd c33d d4d8 f4bd fc0d a7bd 40ab 7cbd
00000020: 530d bbbd e1e5 a0be 10f3 c43d c0c1 5e3e
00000030: bbda 113e f64e d6bd 09d4 2dbe 3405 7f3c
00000040: c117 583d 35d7 ec3c 66c4 823d cc57 913d
00000050: d6ab 0abe fe05 2e3e 6073 293d 6ef1 cabe
00000060: 6543 65bd 545c 0dbe f4a2 f13d 3b7c fc3d
00000070: 84ab a5bd 99d8 25b9 ce45 1ebe fb3e 1bbd
00000080: da11 4fbb 3caf 3b3e 5c32 91bc 798f ccbd
00000090: 492a 7b3e 93e9 b7bd 6814 84be 6ae8 d23d
000000a0: 0473 abbe 0b5a 45be 69f6 8bbd 6fc4 343d
000000b0: 1a71 7e3e 54bc d1be 94be 563e e57f 8b3c
000000c0: 56f6 1dbe 02bd a9be bc32 b63c 095b a33d
000000d0: 5860 f53d 19ef dfbd 78a1 02bd 02fd 7d3e
000000e0: 5992 e4bb 229f 46be 7db4 0ebe c31d d139
000000f0: c354 13ba d025 0a3d dad9 0f3c 6707 293d
00000100: 164c b63c b45a e5bd 889f 34be e168 323e
00000110: 2f47 d43c a506 86bd f4bd aabd 98d5 223c
00000120: 1030 c2bc a249 99be d0ce 243a 616c 18bd
00000130: bc26 12be fad4 0f3e 58f2 84bd 89e7 89bd
00000140: c99a e73c ff6f 50bd d13d 383e 3f1b c5ba
00000150: d7d1 003c c953 5a3e c7b4 42be 653e dfbd
00000160: 3b10 62be ebc9 a2bd 07a4 74bd 43a0 973e
00000170: ccf3 1b3e 55ed 90bd a67a edbc a2fc abbd
00000180: 11e7 933d 13e0 63be dc08 383e 9871 a23e
00000190: 8fce b8bd f1ee 3a3d 7196 413d da07 40bc
000001a0: a221 b73d f053 5d3e f696 263e acd6 803d
000001b0: 4163 9e3d ceeb 0bbe 481e 61be 45f7 aa3d
000001c0: 92bc 4f3d c00f d93d d41b 863e d8a7 d0bd
000001d0: 802b dbbd f80b 0bbd a377 a23d 732f 66ba
000001e0: ecb9 83be 1238 d33d 194d 34bb 3a2e 043e
000001f0: 91aa 1abd cbd1 bcbd 9e30 5d3d fd35 0cbe
00000200: 28ea e73d 4838 ddbb 4bf0 edbc 7c4f 123e
00000210: 1126 85be 0298 8f3e 54aa a53d 03ef dcbd
00000220: e03f afbc 880e 843c fe9a 393e 9250 6cbe
00000230: 1ee6 5a3e 98e5 9a3c 5ba8 81be fd27 babd
00000240: d167 133c 1497 883d 6682 7ebe d537 02be
00000250: 42a9 abbc b8cd d13e 9a87 8d3c 1ff1 11bd
00000260: c59a 4fbd a7ee 4f3d a929 893c 890b 1e3e
00000270: 3c7f acbd 53b5 d43c 8d0c 5b3d 31d5 0cbe
00000280: 8a09 0fbe 2bbd b3bd 3b71 a73d a56e 54be
00000290: a4ad 843c 239e 18be 5ce3 67bd 25b6 3dbe
000002a0: 2c85 cb3d c1e1 31be 17ff 10bd 3516 dd3e
000002b0: 825c 663d 63cd 8c3d f17d a83d 3120 85bd
000002c0: 0f39 14be 5c0a 6cbe e45d f13d e200 a7bc
000002d0: a1c8 febd 1019 e2bd 1de9 e1bd b223 47bd
000002e0: fb3d 01be 3661 64be 7de0 143e f9c7 063e
000002f0: 0c9b 75be 708d 86bc d9f2 4ebe db0e 0b3e
00000300: 7b37 85bc b673 a03d b437 6abe 605d 67be
00000310: ddb2 14be b0a9 773d 42b9 cb3c 7ad5 83be
00000320: d11c 82bd f2df c9bc fd87 64bd 6026 38be
00000330: 63ac cabd d0a6 84bd d679 b1bd 8ac0 82bd
00000340: c325 1dbe 83f3 823d 9ae6 0f3e 8b68 11be
00000350: 1821 52be 8890 2b3e 968c 17be b779 743d
00000360: b64f 703e e005 a13d daed 0ebd b8b1 3c3d
00000370: 1ca7 533e 15ea e13d a386 1cbe dd74 4bbe
00000380: a880 c7be f7b0 153d 1076 be3c ad60 403d
00000390: 0c4e 863d 478c 783d acfa 473e 136b e9bd
000003a0: cd86 ccbc aac4 f5bd a235 1abe 834f 5d3d
000003b0: dd63 d2bc a2c2 2f3d a0aa c13d fc15 6a3c
000003c0: 8a2d 913e 6e2a 8fbe 88b7 4f3e 3a2d db3c
000003d0: e45b b6bd 05ff 0d3e d8dc 6abd 5276 363e
000003e0: e0f2 3fbe ebde a2bd f9dd 833e 1a9b cebd
000003f0: b84e 6b3c 64d2 bfbc c816 543c 0bec 643e

bias f4 [50]
0.042710867 0.033892073 0.063554734 0.061205123 -0.05146682 -0.011871374 0.050195605 -0.07839527
0.12816039 -0.034706805 0.063634455 -0.027946584 -0.05142401 0.013768964 0.12471531 -0.12063099
0.07392709 -0.04478364 -0.08768902 -0.063308775 -0.119531214 -0.13910483 0.06794871 0.15175292
-0.10313065 -0.10717284 -0.0029892765 -0.16968085 0.14740585 -0.094011545 0.059837446 -0.023596268
-0.012244769 -0.06396726 -0.08715526 -0.14318602 0.0040918794 -0.08837816 0.021033853 -0.027575692
0.13822755 0.11184143 0.014127459 -0.11239595 -0.041851316 -0.065762185 0.01580596 -0.021251697
-0.123416096 0.13631356
00000000: 97f1 2e3d 6ad2 0a3d fc28 823d 39b2 7a3d
00000010: dfce 52bd 2780 42bc e899 4d3d b38d a0bd
00000020: 7a3c 033e b928 0ebd c852 823d 3cf0 e4bc
00000030: fca1 52bd 3997 613c be6a ff3d 610d f7bd
00000040: 1667 973d 0d6f 37bd 4d96 b3bd 08a8 81bd
00000050: c8cc f4bd 7f71 0ebe b128 8b3d 1e65 1b3e
00000060: 2a36 d3bd 6f7d dbbd bde7 43bb d1c0 2dbe
00000070: 8ff1 163e 2089 c0bd 1c18 753d f64c c1bc
00000080: 499e 48bc 4401 83bd 757e b2bd 5b9f 12be
00000090: 2c15 863b 9cff b4bd 304f ac3c 6be6 e1bc
000000a0: 868b 0d3e 1f0d e53d dc76 673c d92f e6bd
000000b0: 496c 2bbd 53ae 86bd 807b 813c 0a18 aebc
000000c0: 94c1 fcbd c895 0b3e

weight f4 [1, 50]
0.004924496 0.04184494 0.45008072 -0.22642781 -0.2707608 -0.20118922 -0.10343147 -0.066983595
-0.17165036 0.2708347 -0.15381794 0.12773131 -0.06902908 -0.11209499 0.0048334105 -0.15820992
0.09278797 -0.0015238626 0.078762576 0.085020564 -0.08841261 -0.2299959 0.19976205 -0.064243644
0.2028792 -0.08074184 -0.12448507 -0.17848945 -0.12834601 -0.18309079 -0.1117767 -0.2696646
-0.13275598 0.1567652 0.08401636 0.05847977 0.064488776 0.31173503 0.33249334 0.04387541
0.040050805 -0.15088807 -0.21263443 0.43618014 -0.21152157 -0.011482758 -0.20960204 -0.18601824
-0.08621559 -0.028552376
00000000: ab5d a13b 9a65 2b3d fb70 e63e b1dc 67be
00000010: 29a1 8abe 8c04 4ebe e1d3 d3bd b22e 89bd
00000020: 1dc5 2fbe d9aa 8a3e 7382 1dbe ffcb 023e
00000030: 1e5f 8dbd 0f92 e5bd 9661 9e3b c801 22be
00000040: 9f07 be3d 58bc c7ba 464e a13d 431f ae3d
00000050: ac11 b5bd 0c84 6bbe 6c8e 4c3e 2c92 83bd
00000060: 91bf 4f3e fa5b a5bd 07f2 febd f0c5 36be
00000070: 236d 03be 277c 3bbe 2feb e4bd 7a11 8abe
00000080: 2ff1 07be 0e87 203e c510 ac3d 7c88 6f3d
00000090: b112 843d bc9b 9f3e 913c aa3e b4b6 333d
000000a0: 500c 243d 6782 1abe d7bc 59be 0153 df3e
000000b0: 1c99 58be 2e22 3cbc eba1 56be 917b 3ebe
000000c0: cd91 b0bd ace6 e9bc

weight f4 [1, 50]
-0.031721577 -0.20419976 0.2505586 0.18727724 -0.14089409 -0.06840086 0.043894295 -0.26862586
-0.043370023 0.0146486005 -0.32999775 0.18421586 -0.07829377 -0.20066927 0.18462157 -0.29468542
0.07206378 0.31541973 -0.03746058 0.096134156 -0.22324832 -0.3807152 0.5399539 0.18897386
0.22738747 -0.24123949 0.119884886 -0.5402654 0.03372215 -0.13129383 0.009098464 -0.029853582
-0.07633029 0.70157796 -0.26614296 0.061530653 0.22734156 0.19540375 0.5223427 0.41273463
-0.003101318 -0.25775173 -0.22844368 0.34490117 -0.09357198 -0.0721353 -0.64587027 0.1408457
-0.19913645 0.030980757
00000000: 7cee 01bd be19 51be 3849 803e 9bc5 3f3e
00000010: 8a46 10be c015 8cbd 81ca 333d 5489 89be
00000020: c4a4 31bd af00 703c 77f5 a8be 15a3 3c3e
00000030: 7c58 a0bd 3f7c 4dbe 700d 3d3e 02e1 96be
00000040: 2d96 933d b27e a13e 4470 19bd fce1 c43d
00000050: 359b 64be 1aed c2be 6b3a 0a3f 5d82 413e
00000060: 43d8 683e 7c07 77be 3586 f53d d54e 0abf
00000070: 3d20 0a3d e471 06be b911 153c 808f f4bc
00000080: 0e53 9cbd 9d9a 333f e443 88be 9107 7c3d
00000090: 3acc 683e ec17 483e 40b8 053f f451 d33e
000000a0: 7b3f 4bbb 09f8 83be 24ed 69be e396 b03e
000000b0: aba2 bfbd acbb 93bd c157 25bf db39 103e
000000c0: 6dea 4bbe 5bcb fd3c

weight f4 [8, 50]
0.25494745 0.09981811 0.1780464 0.12847415 -0.13165013 0.19818462 -0.1274071 0.106922485
-0.01808524 -0.31408563 0.10720978 -0.29497647 -0.30609855 0.07998746 -0.033059575 0.118482545
-0.18416671 -0.0459842 -0.28617972 0.11135279 0.064641535 -0.30827686 -0.093518324 0.14668559
0.21999717 -0.07455649 -0.24880892 0.061170958 0.15667374 -0.14749591 0.24397473 0.0014511008
0.24132968 -0.027758216 0.07343643 -0.20881683 -0.17280434 0.06788757 0.1222517 -0.15892424
-0.17536889 -0.21488094 0.21936963 0.15584038 0.053198222 0.29025605 -0.06575916 -0.22141181
-0.07016464 0.15916246 -0.25701362 -0.11516885 0.18760403 -0.12674895 0.05497597 -0.08145725
-0.19095367 0.20465761 -0.24262515 0.4148592 -0.029517815 -0.08328546 -0.31950536 0.21201408
0.024599304 -0.04547639 -0.21093367 0.1696605 0.08633973 -0.2739222 -0.2641418 -0.19904466
-0.14611165 -0.025857119 0.1052894 0.24411784 -0.23556331 0.005001557 -0.2893011 0.21390332
-0.41211703 0.06156705 0.035591803 0.114923336 -0.3800855 -0.24617511 0.04021086 0.12643969
-0.14615077 0.1197071 -0.18849015 -0.040143162 -0.099986285 0.133691 -0.017095229 -0.015425728
0.016295858 0.10764661 -0.048490625 -0.1400959 0.1066507 0.027924785 0.13365847 -0.19069734
-0.047582563 -0.16796751 0.032022107 -0.16169861 -0.08951734 -0.05436688 0.08784225 -0.02497445
-0.022728296 -0.16314138 0.030053804 -0.0063217585 0.08408612 0.16428083 0.026771812 -0.052129462
-0.094011955 -0.058585856 0.18729676 0.06878652 0.01648122 -0.023977257 0.047301933 -0.105298035
-0.0637871 -0.1066648 -0.008726195 -0.083525196 -0.13171571 0.098266795 0.17109443 0.040596005
0.113578774 0.08308893 0.11599017 0.13972092 0.013812699 0.2632913 -0.14245744 -0.22103707
-0.06790613 -0.02193472 -0.09692185 -0.031891156 -0.10121718 0.1367768 0.048770726 0.16562262
-0.013357109 0.21807846 0.11229076 -0.0028417516 0.15094557 -0.057832908 0.27497813 0.08869375
-0.06161692 0.14587292 -0.21805593 0.2034953 -0.059346113 -0.26899645 -0.046995014 -0.15629445
0.03487798 0.45236063 -0.091402926 0.11319905 -0.083952315 -0.026658596 0.107591696 0.15350032
0.23696539 -0.035651132 0.127704 -0.09521737 -0.31920296 -0.35353065 0.071985886 -0.061839793
-0.0920752 0.021940894 0.13872859 -0.05509383 0.04901936 0.06476181 -0.04750847 0.083998315
-0.18816261 0.06302616 0.14289704 0.022370871 0.04374873 -0.35676643 0.032506675 0.09768072
0.03848144 0.3160465 0.15686154 -0.18550192 0.19828275 0.096602246 0.061481364 -0.103389375
0.27304167 -0.14818247 -0.041297633 0.06496259 -0.16855928 -0.15629146 -0.07717754 -0.2742075
-0.046121024 0.15180194 -0.2705682 0.15321484 -0.07724459 -0.024583878 0.15318272 0.020261817
-0.30602297 -0.030256568 0.26707593 -0.20037837 0.24121258 -0.029207557 0.16313648 -0.17078434
-0.23837955 -0.05121345 -0.17682356 -0.104072876 -0.23546466 -0.0021089916 -0.20587605 -0.011900309
-0.07006877 -0.06570033 -0.09787837 0.046925955 0.18029118 -0.10414704 0.16883093 -0.2411191
0.18333809 -0.11938403 -0.6322762 0.21750434 0.27221715 0.014773516 -0.01337701 -0.034719963
00000000: 7988 823e 706d cc3d cc51 363e ba8e 033e
00000010: 4bcf 06be e9f0 4a3e 0277 02be 2dfa da3d
00000020: 7f27 94bc d5cf a0be cd90 db3d 2807 97be
00000030: f3b8 9cbe 77d0 a33d 7a69 07bd faa6 f23d
00000040: 3396 3cbe ee59 3cbd 2686 92be ee0c e43d
00000050: c862 843d 77d6 9dbe 8986 bfbd bf34 163e
00000060: f046 613e 13b1 98bd c4c7 7ebe 668e 7a3d
00000070: 156f 203e 2b09 17be 83d4 793e dd32 be3a
00000080: 211f 773e 3365 e3bc d765 963d 14d4 55be
00000090: 9ff3 30be a308 8b3d 195f fa3d 09bd 22be
000000a0: e793 33be c009 5cbe 6fa2 603e 9f94 1f3e
000000b0: 61e6 593d 719c 943e bdac 86bd c7b9 62be
000000c0: 7bb2 8fbd 7cfb 223e 4a97 83be a5dd ebbd
000000d0: 451b 403e 7aca 01be 7c2e 613d 0fd3 a6bd
000000e0: 5c89 43be c491 513e ba72 78be 6d68 d43e
000000f0: 58cf f1bc 9191 aabd 3596 a3be 381a 593e
00000100: 7b84 c93c 7345 3abd fffe 57be 7bbb 2d3e
00000110: e2d2 b03d 883f 8cbe 983d 87be 5dd2 4bbe
00000120: 4b9e 15be 4fd2 d3bc f8a1 d73d 07fa 793e
00000130: 8237 71be 1ae4 a33b 461f 94be 7909 5b3e
00000140: 0101 d3be bb2d 7c3d b6c8 113d ed5c eb3d
00000150: 919a c2be 5415 7cbe 25b4 243d 6879 013e
00000160: 8ca8 15be ff28 f53d 9003 41be 286d 24bd
00000170: 9cc5 ccbd 4be6 083e 4b0b 8cbc 31bc 7cbc
00000180: e47e 853c d375 dc3d 1b9e 46bd 4d75 0fbe
00000190: af6b da3d 85c2 e43c c4dd 083e 2a46 43be
000001a0: efe5 42bd adff 2bbe 9d29 033d 5294 25be
000001b0: de54 b7bd ceaf 5ebd a3e6 b33d 3897 ccbc
000001c0: b130 babc 890e 27be 6533 f63c c126 cfbb
000001d0: 5835 ac3d 3c39 283e 8f50 db3c b485 55bd
000001e0: 5789 c0bd b9f7 6fbd b9ca 3f3e f2df 8c3d
000001f0: a003 873c f46b c4bc acbf 413d 7fa6 d7bd
00000200: d0a2 82bd 1373 dabd 51f8 0ebc 420f abbd
00000210: 7ce0 06be 1a40 c93d 6133 2f3e ff47 263d
00000220: fd9b e83d 872a aa3d 418c ed3d 0013 0f3e
00000230: a94e 623c 1ece 863e 5de0 11be 8b57 62be
00000240: 5e12 8bbd 71b0 b3bc f77e c6bd 4da0 02bd
00000250: f44a cfbd 380f 0c3e d0c3 473d fa98 293e
00000260: c7d7 5abc f64f 5f3e b3f8 e53d ae3c 3abb
00000270: 7a91 1a3e 33e2 6cbd efc9 8c3e 12a5 b53d
00000280: 0662 7cbd b65f 153e 0e4a 5fbe 1261 503e
00000290: e914 73bd e7b9 89be d87d 40bd a70b 20be
000002a0: 36dc 0e3d d09b e73e 7531 bbbd e7d4 e73d
000002b0: 31ef abbd 2163 dabc 0959 dc3d 302f 1d3e
000002c0: 0ea7 723e ec06 12bd d6c4 023e 5301 c3bd
000002d0: 926e a3be f801 b5be 566d 933d b94b 7dbd
000002e0: ec91 bcbd 64bd b33c de0e 0e3e 11aa 61bd
000002f0: 86c8 483d d7a1 843d 3e98 42bd 4f07 ac3d
00000300: b3ad 40be dc13 813d 9a53 123e 1e43 b73c
00000310: de31 333d 17aa b6be b825 053d d40c c83d
00000320: b79e 1d3d d9d0 a13e 50a0 203e 37f4 3dbe
00000330: a20a 4b3e 66d7 c53d e2d3 7b3d cfbd d3bd
00000340: 1ecc 8b3e 25bd 17be b527 29bd 1b0b 853d
00000350: ce9a 2cbe de0a 20be 420f 9ebd ed64 8cbe
00000360: 66e9 3cbd f871 1b3e ea87 8abe 5ae4 1c3e
00000370: 6932 9ebd 2164 c9bc eedb 1c3e 1cfc a53c
00000380: 0baf 9cbe 9fdc f7bc 2dbe 883e fd2f 4dbe
00000390: 6e00 773e b044 efbc 400d 273e 17e2 2ebe
000003a0: c519 74be 32c5 51bd 3c11 35be 2924 d5bd
000003b0: a61d 71be 0237 0abb 2cd1 52be 83f9 42bc
000003c0: 3780 8fbd e58d 86bd 7474 c8bd 6e35 403d
000003d0: 409e 383e 0b4b d5bd 04e2 2c3e ede7 76be
000003e0: fbbc 3b3e 9d7f f4bd dadc 21bf 75b9 5e3e
000003f0: 0c60 8b3e 9e0c 723c 3f2b 5bbc 8536 0ebd

bias f4 [8]
-0.092634134 -0.028138448 0.05674386 0.08796727 0.030943729 0.040169936 0.037373856 0.10968442
00000000: f7b6 bdbd 9a82 e6bc 406c 683d 2f28 b43d
00000010: b47d fd3c 3b89 243d 5415 193d 3aa2 e03d

weight f4 [1, 50]
-0.0332846 -0.09177273 0.08844422 -0.107475236 0.09125081 -0.1223985 0.13425899 0.11034318
0.16358937 0.13525113 -0.106696054 0.15559264 0.03448295 0.17591338 0.021011224 -0.16428946
0.1131258 -0.19233464 0.013490691 0.19831377 -0.1066695 0.042373776 -0.10063753 0.023861445
-0.016794275 -0.050124135 0.15300454 -0.0044834 0.036715634 0.05828772 -0.12725323 -0.058042858
-0.096857294 0.092638396 -0.13072965 -0.046915073 0.09836631 -0.13188785 -0.024399636 0.059563078
0.033882026 0.11121357 -0.16505763 -0.013294508 0.036671992 -0.08504752 -0.0880255 -0.031174162
0.09850351 -0.094368815
00000000: 6f55 08bd 57f3 bbbd 3e22 b53d fa1b dcbd
00000010: b4e1 ba3d 11ac fabd 307b 093e 9bfb e13d
00000020: f983 273e 467f 0a3e 7683 dabd ad53 1f3e
00000030: fe3d 0d3d a322 343e bb1f ac3c 7f3b 28be
00000040: 80ae e73d 5ff3 44be 0f08 5d3c c412 4b3e
00000050: 8a75 dabd 2090 2d3d 0d1b cebd 1479 c33c
00000060: 2694 89bc f74e 4dbd 39ad 1c3e 7ce9 92bb
00000070: 2263 163d 1bbf 6e3d ac4e 02be 59be 6dbd
00000080: 1e5d c6bd 33b9 bd3d fedd 05be 052a 40bd
00000090: 4774 c93d 9c0d 07be bfe1 c7bc 6af8 733d
000000a0: e1c7 0a3d f1c3 e33d de04 29be 35d1 59bc
000000b0: 5f35 163d 652d aebd b746 b4bd f560 ffbc
000000c0: 35bc c93d 7044 c1bd
