result/models/fixed_best.pth (torch, 67563 bytes, 11 tensors)

weight_ih_l0 f4 [200, 9]
00000000: 96f3 903d a7e8 e43d c5d0 c73c 67d3 86be
00000010: 628d 69be 70f4 1e3d e0a8 1d3e 3d0d d13c
00000020: 30d5 47be 4804 083d eb58 0cbe 6df6 a03d
00000030: 7edd cabd 6765 34bd e9b7 3ebe 966d 333d
00000040: 95a5 f73b 813a c2be 7d94 0fbd adf9 0f3c
00000050: ff44 103e 5ca4 203d 08c7 4d3e feab 4b3e
00000060: d041 443d 9e6e ee3c 7d7b 38be ed99 f83e
00000070: d3f0 d53e b591 193e 618d f5bd 29e0 58be
00000080: f2ec 4b3e 9e4b c93d f416 80bd 2cde 93bd
00000090: f0a4 5cbe 7ba6 42bd ab4a f4bb ef4f 48be
000000a0: 0e0b 4dbe 9c2e 99bd 88fe bc3d 4bef 76bc
000000b0: 5981 1d3e 3ecb 75bb 4dac 8b3c 7b10 003e
000000c0: 1102 dabd 85b3 6dbe 10c9 c8be 0e0a 5fbd
000000d0: b5fb c3bd 1618 71be 3fe1 143e 708f 2e3c
000000e0: 847b 3c3e 9869 823e 682c 19bc f3dc 8e3e
000000f0: be08 fbbc 94de ed3a 3f8d 9c3d 3003 d83e
00000100: 5f70 033e 7375 963d 5a7b 443d 06a7 1fbe
00000110: 50b4 dabe 087f 143e a123 4a3d 7d99 353e
00000120: 7a15 e6bc 9016 cfbd 1764 153d d891 9dbe
00000130: e380 8dbe 92b9 95bd bb02 243e 9497 b83c
00000140: 3972 13bf 29e6 30bc 9b1c 05be f746 9bbd
00000150: 0564 f83d 24f0 28be 218d 89be 317a 9fbd
00000160: 6db0 563d 86e9 c53c e30e fa3d f9ca 06be
00000170: 58ba 2cbe bf4a 8f3d a9d6 67bd f7e1 3ebe
00000180: 8ce6 20be 737d d4bc 9b05 583f e43a dbbc
00000190: c834 86bc 1180 c93d 3e54 9fbd ec61 2fbd
000001a0: 1d89 c93d 142e 41bd 61f4 5d3c 98e8 c63e
000001b0: 8cf4 8e3e c2c8 263e b5bb 89bc 3bf5 2dbd
000001c0: 108e 963b fb97 a53d 8f35 8bbc 9efc 433e
000001d0: bc56 fdbe c01d 5b3e 2f65 e43b 0b11 073e
000001e0: b56f 493e f591 b53d 7a19 2dbe 0df4 893d
000001f0: 09d5 043e 5669 d8be 2b52 753d 0644 c4bc
00000200: 1055 b0bd 1f46 373e d755 e7bc 11a6 273d
00000210: 9f0b 453c 0fe5 83bd a8a2 223d 3724 a4bd
00000220: 8fe3 80bc acdc e13c ffda ad3e 4799 813e
00000230: 1235 5e3e 98eb 9a3d 784e 05be a787 0e3f
00000240: 18ec 7c3d 90f4 823d 6a0d ae3d 7650 da3b
00000250: dcd5 4cbe 4052 163d ef41 fbbc 1a50 8abd
00000260: 7bd7 b7be e73f 9a3c 237c 2ebd b490 53bd
00000270: 9ef0 c4bd 9daa 283d f8be bd3d a228 513d
00000280: e830 6dbd a1e3 aabe 9e7d 96bd 9180 d0bc
00000290: 4bb5 0f3d 2d4b df3d 1692 ba3d 0c82 3dbe
000002a0: cc8e da3d 7bd1 99bd 8d9a f8ba e83f 083e
000002b0: 170e e63c 7ad1 d8bd 1e75 0e3b 5330 34be
000002c0: 0771 843d add3 e7bd 4071 85bd a847 ccbe
000002d0: 02a8 99be 0ebc cbbe 8282 8cbe e004 96be
000002e0: 5d29 a9be 74e4 c03d 2aa0 11be 2f02 d7be
000002f0: cca1 a63c f9e6 303d d2b7 133d 614e c13c
00000300: 3353 1e3d 7824 b7bd d8c8 90bc 3cf5 cd3d
00000310: eb81 b2bd 71e4 37be 4650 4fbd ef47 79bc
00000320: 0462 f53d 0aa8 b1be e5d5 60be 818a 95bd
00000330: c705 753d ca65 b3bd 28df bebe b1f5 c9bd
00000340: 593f 88be 9b62 17bb 1d29 84be 6ec9 82be
00000350: 726d b4be 8205 0abe ba07 cbbc 40a5 1bbd
00000360: 814f 0d3e 99b4 adbd bedb c63d c1bf 5bbd
00000370: 4453 84bd e8cc f83b 5e0d 913d 9baa 5b3d
00000380: 6f42 edbd b228 063e b383 e8bd ea4b 29be
00000390: 685d 333d 01ae f43d 9983 c43e b193 47be
000003a0: 3c9d b0bd dbb4 543f 9198 49be 9956 fabd
000003b0: 133c a4bd d889 66be 313f 303d ac49 453e
000003c0: 88c3 06be 9744 993c 166c b4be 0fe6 98be
000003d0: 02a9 a8bc a83c 37bd e609 073e 9abc 653d
000003e0: 120c 913e 2098 643b b256 d13d 1ad7 f33d
000003f0: eca5 6c3d eb94 853e 3183 873e 33d1 5bbd
0.0707771 0.111771874 0.024391541 -0.26333162 -0.2280784 0.038807333 0.15396452 0.025519008
-0.19514918 0.033207208 -0.13705795 0.07859502 -0.099055275 -0.044042017 -0.18624844 0.04380568
0.0075575807 -0.3793526 -0.03505372 0.008787555 0.1408882 0.039219245 0.20095456 0.19889829
0.047914326 0.02910548 -0.18015857 0.48554936 0.41785297 0.14996989 -0.119898565 -0.2117926
0.19914606 0.09828876 -0.06254378 -0.0722011 -0.21547294 -0.04752205 -0.00745519 -0.19561742
-0.20023748 -0.07479593 0.092282355 -0.0150717 0.15381373 -0.0037505175 0.017049933 0.12506287
-0.106449254 -0.23213013 -0.392159 -0.05445295 -0.09569494 -0.23544344 0.1453905 0.010654315
0.18406492 0.25471187 -0.009348966 0.27902946 -0.030643817 0.0018147998 0.07644128 0.42189932
0.12835835 0.073466204 0.0479692 -0.15591058 -0.42715693 0.14501584 0.049350385 0.17734332
-0.028086413 -0.10111725 0.036472406 -0.30775332 -0.27637395 -0.07310785 0.16016667 0.022533216
-0.57596165 -0.010797062 -0.12999193 -0.07581895 0.12128452 -0.16497856 -0.26865485 -0.07786978
0.052414346 0.024159204 0.12209871 -0.13163365 -0.1686796 0.069966786 -0.0566012 -0.18640886
-0.15712947 -0.025938725 0.84383553 -0.02676148 -0.01638259 0.0983888 -0.0777974 -0.042817995
0.098406054 -0.047163084 0.013547034 0.3884933 0.2792095 0.1628752 -0.016813138 -0.042470198
0.004594572 0.080856286 -0.016993312 0.19139335 -0.49480236 0.21398067 0.00697007 0.13190095
0.19671519 0.0886573 -0.1690425 0.06736002 0.12971891 -0.42267865 0.059892815 -0.023958217
-0.086099744 0.17897843 -0.028239174 0.040929858 0.0120266965 -0.06440174 0.039705902 -0.0801472
-0.015733508 0.027571045 0.33956143 0.25312254 0.21699932 0.07564467 -0.13018215 0.5567574
0.061748594 0.06394303 0.08498652 0.0066624237 -0.20003456 0.036699533 -0.030671088 -0.067535594
-0.35906586 0.0188293 -0.042598855 -0.05165167 -0.096162066 0.041178335 0.0926494 0.05106414
-0.05790797 -0.33376792 -0.07348178 -0.02545193 0.035085004 0.109030105 0.09109895 -0.1850664
0.106717676 -0.07510658 -0.0018966958 0.13305628 0.02808289 -0.105868295 0.0021737288 -0.17596559
0.06466871 -0.11319671 -0.06515741 -0.3989842 -0.30010992 -0.39791912 -0.2744332 -0.29300594
-0.3303937 0.09418574 -0.14221254 -0.41993853 0.020340823 0.043189023 0.036063977 0.023596944
0.038653564 -0.08942503 -0.017673895 0.1005654 -0.08716186 -0.17958237 -0.050613664 -0.015214904
0.119815856 -0.34698516 -0.21956594 -0.07301808 0.059819963 -0.08759649 -0.3727963 -0.09861315
-0.2661083 -0.0023099545 -0.25812617 -0.25544304 -0.3523975 -0.13478664 -0.024783958 -0.03799939
0.1379986 -0.08481712 0.09709881 -0.053649668 -0.06461194 0.007592786 0.07082628 0.0536295
-0.11584937 0.13101462 -0.11353245 -0.16532865 0.04379025 0.11947251 0.3838165 -0.19489934
-0.0862374 0.83088464 -0.19687106 -0.122235484 -0.08019271 -0.2251352 0.043029014 0.19266385
-0.13160527 0.018709464 -0.35238713 -0.2986302 -0.020588402 -0.04473558 0.1318737 0.056088068
0.2832952 0.0034880713 0.10221614 0.11906262 0.057775423 0.26090178 0.2646728 -0.053666305

weight_hh_l0 f4 [200, 50]
00000000: aefe 30be 9e25 1fbe 04f1 003d 6e94 67bd
00000010: e868 f83c 119e 38be b4ba afbd 5a06 31bc
00000020: 5a47 123d 5dc9 f4bd 926d 53be 42fd 11be
00000030: f7ab bc3d 48c1 ba3c 3f10 03be 2146 10be
00000040: 6264 a3bd 9f9a 1ebd 8c42 4f3e a5b2 243e
00000050: f0eb 3abd ad65 193d 63a8 04be 947a 283d
00000060: 9cec eb3d bff6 a5bd 6856 c3bd 9e23 c83c
00000070: d091 18bd 56f9 ffbc f3ad ae3d 2d56 e63d
00000080: 3dfb debc f5c5 2d3b 3857 a93d 100d eb3d
00000090: 880c 5cbd faa6 5f3d 87cf 8cbd 6dec ebbd
000000a0: e448 5d3c 70b6 72bd c894 ed3d d24f 77bd
000000b0: ac87 0cbe e5dd ab3d 16f8 63be 9a22 e8bd
000000c0: d4b4 d5bd 5f2d b4bc 8dae f2bd e89c 70bd
000000d0: 79ae 0fbd 78ba ecbd 9c85 ddbc b7f1 71be
000000e0: d2a6 203e 2667 493e 50d6 8a3e 8aef 8e3e
000000f0: 7720 003e b044 40be 8016 9c3e 9131 5b3d
00000100: c518 88be 02fc b33d d0d7 21be adeb fe3c
00000110: 703f 0c3e b18a 983c c1fc d53d 3949 40bc
00000120: f184 25be 437e 9e3d baa6 59be b353 80bd
00000130: 69e4 dc3e dac9 31be e203 29be bd61 973c
00000140: d46a c23d 9766 0bbe 13a1 c3be a30e 013f
00000150: 17cb 853d 78f0 28be 89ee 0a3d ef28 66bd
00000160: 387e 5f3d 78ec 973e e9d7 813b edd3 00be
00000170: a803 fcbd a617 66be 76c0 c43e 6c84 883d
00000180: 6e7e 5ebe 57cc 22be a19f 9ebe ad64 33bd
00000190: d9a3 173a 20c6 2dbd 3a89 6ebd 4acd 5bbd
000001a0: 6f52 a6bd 22e1 5ebd 63a3 a2bd 432f 91be
000001b0: 3438 cf3d 4c29 9ebd 078e 513d 2f3b 9ebd
000001c0: 9958 f8ba 5c4a 40be 3863 7e3c 985c c33d
000001d0: 9225 33be 1325 70bd 0c7c 8b3c d389 3a3c
000001e0: 17dc f8be db58 a5bd c7b1 2fbd 877a 0ebe
000001f0: 1810 4cbd 04d6 7bbd 36cb 0e3e e16a 99bb
00000200: 1e3f 7ebe d517 41bd 18e1 0c3e 6f1b 11be
00000210: 2fde 7cbd 37f5 bbbc 7538 8fbd 209d 523e
00000220: ac80 ed3d 8ceb b2bb f815 273c 2265 59bc
00000230: 2c51 8dbd 885a bd3d 0218 abbd 22db 23be
00000240: c9af 91bd 3f99 b03d d1b3 89be 54a9 af3d
00000250: 0941 58be c3ca 183e b72c 3a3e 29d1 a0bd
00000260: ee0a 2fbc 6c5c 6fbe 444f 173b 30e1 ff3d
00000270: 3acd 473c c7de 29be 0cf3 f4bd 2cbd 993d
00000280: ac7a d93e 971c c63d 95d3 a6be 1db2 463e
00000290: c749 7e3e 2b58 ce3c 6703 dbbd ad48 b33d
000002a0: 45c0 afbe 6bde 7cbe 8a34 ab3e 9670 3ebd
000002b0: 9cde ac3c 30d9 ee3e a478 4f3e 1a3a b2bd
000002c0: 0269 ea3e 9926 0ebe ea22 763e c613 58bb
000002d0: 3eff 30be d05f 9a3e 6be9 8bbd 71ae d5be
000002e0: 1bd1 183e e876 083f 28b8 29be a600 d6bd
000002f0: a3ce 7a3e 2bd8 7ebe 93c1 cf3c ab5f ee3d
00000300: da2f b63b 4802 3e3e 790d 10be d944 b33d
00000310: d15d ed3e a562 823d e1e8 093f 8601 bebc
00000320: 19ef 2fbd 7fa8 3bbd c2aa 28be 4280 94bd
00000330: d4e4 173e 7373 94bd 5a3e 0fbe ae19 9e3c
00000340: a105 fa3b 3c90 e93a 091c 13be 21cc 04bd
00000350: b163 eeb7 ecf1 d0bd 7f41 d63d 23dd 40bb
00000360: b869 1b3c 8ac9 8c3d d00b e23d d1ff 97bc
00000370: 9fb9 16be 76b5 1f3e 9511 c0bd 87d6 eabd
00000380: f2bd b03d ee4b 5d3e c714 0dbd c1a1 893c
00000390: d85b 35be 4406 bf3d b3ec b13d 6bb8 e8bd
000003a0: 8b9b b53b d4fa 983d 5efd a83d c355 86bd
000003b0: d0fa 203e 55ef ec3c 0a1b eebd 8887 023e
000003c0: 98be 8bbd 061c f73c de1b 1c3e facc c1be
000003d0: 4a3d 0e3e e457 a13c 982f 50be da07 bf3d
000003e0: 3015 91be 8c6c bdbb b1b4 38be c428 0b3e
000003f0: 3e29 403d 9cf3 cebc ba52 02be 3523 d73e
-0.17284653 -0.15541694 0.03147985 -0.056538038 0.03032346 -0.18029048 -0.08580533 -0.010804737
0.035712577 -0.119524695 -0.20647267 -0.14256766 0.09212487 0.022797242 -0.12799166 -0.14089252
-0.07978131 -0.038721677 0.2024023 0.16083772 -0.045635164 0.03745048 -0.1295486 0.041132525
0.11519739 -0.08103704 -0.09537965 0.024431046 -0.037248433 -0.031246822 0.08529272 0.112469055
-0.02721941 0.0026515697 0.08268589 0.11477101 -0.05372289 0.0546026 -0.0687552 -0.11519704
0.013506148 -0.059256017 0.116006434 -0.060378857 -0.1372363 0.083919324 -0.22262606 -0.11334725
-0.10434881 -0.02199429 -0.11849699 -0.058743387 -0.0350785 -0.115590036 -0.027041249 -0.23627363
0.15688637 0.19668254 0.27116632 0.2791713 0.12512384 -0.18776202 0.30485916 0.053514067
-0.26581398 0.08788301 -0.15804982 0.031118238 0.13696074 0.01862082 0.104485996 -0.011736208
-0.16163994 0.07738926 -0.21255007 -0.06265964 0.43143013 -0.17362157 -0.16505387 0.018479222
0.09493032 -0.13613354 -0.38208827 0.5041296 0.06532877 -0.16497982 0.03391889 -0.05619138
0.05456373 0.296726 0.003962506 -0.12580843 -0.12305385 -0.22469959 0.38428086 0.066658825
-0.21727917 -0.15898262 -0.30981162 -0.043797184 0.0005784608 -0.042425275 -0.05823634 -0.053662576
-0.08121192 -0.054413922 -0.0794132 -0.2835637 0.10118142 -0.077227205 0.05116084 -0.07726132
-0.0018947303 -0.18778366 0.015526585 0.09539145 -0.174948 -0.058629107 0.017026924 0.011385399
-0.48605415 -0.080735885 -0.04289415 -0.13913928 -0.049820036 -0.061483398 0.13944706 -0.0046819304
-0.24828765 -0.04714187 0.13757741 -0.14170621 -0.06173533 -0.022944076 -0.0699319 0.20567751
0.11596808 -0.0054602083 0.010198109 -0.013268741 -0.06900248 0.09245783 -0.083541885 -0.16001561
-0.071136065 0.086229794 -0.26895002 0.08577219 -0.21118559 0.14921097 0.1818112 -0.07852394
-0.010683758 -0.233751 0.0023088017 0.12494123 0.012194926 -0.16588889 -0.1196042 0.07506785
0.42476404 0.09673422 -0.325833 0.19403882 0.24832831 0.025188526 -0.10694008 0.08754096
-0.34326378 -0.2469422 0.33438522 -0.04649409 0.021102242 0.46650076 0.20260864 -0.08702488
0.4578324 -0.13881911 0.24036756 -0.003297077 -0.17284867 0.30151224 -0.0683163 -0.4173465
0.14923517 0.53306437 -0.16574156 -0.104493424 0.24492888 -0.24887149 0.025360858 0.11639341
0.0055599036 0.18555558 -0.1406764 0.08753366 0.4636064 0.06366471 0.5387097 -0.023194086
-0.04295263 -0.045814987 -0.16471389 -0.07251026 0.14833385 -0.07248583 -0.13988629 0.019299354
0.0076300655 0.0017819474 -0.14366163 -0.032421235 -2.8418233e-05 -0.10202393 0.10461711 -0.0029428683
0.0094856545 0.06874378 0.11037409 -0.0185546 -0.14719246 0.15596566 -0.093783535 -0.11466699
0.08629979 0.21610996 -0.034443643 0.016800763 -0.17710817 0.09327367 0.08687725 -0.113633
0.005542224 0.07469717 0.08251451 -0.065593265 0.15720677 0.028922716 -0.11626251 0.12747014
-0.06823462 0.03016473 0.15245005 -0.37851697 0.13890567 0.01969523 -0.20330656 0.093276694
-0.28336477 -0.005780762 -0.18037678 0.1358977 0.04691433 -0.025262646 -0.1272687 0.42019048

bias_ih_l0 f4 [200]
00000000: 5e63 053d f998 263e 2f88 92bd 7af1 e43d
00000010: decd aabb 2895 a9bc d351 823d faf4 043d
00000020: a9e9 c03c c241 b63d 1ef4 c13c 7f58 823d
00000030: bcb1 453e c248 273e 345e 063e 4c8d 00bd
00000040: e883 50bd e166 843d 6c99 623e b555 1b3e
00000050: c6b3 283e 84fd 303e cc19 0dbd df48 303e
00000060: 2861 e4bd 0a93 473d ea46 7c3e 7903 2dbd
00000070: 93d8 5abd 54b7 fc3c 2ebc 1c3e 2868 e03d
00000080: 791f b33d 29c3 423e 9b69 043e 8b6c ea3d
00000090: 6356 92bd ed36 ac3d 92e6 303e 3fe0 a33d
000000a0: f9c8 5a3c e86a e13d a716 e93d 1dd1 d33d
000000b0: 0c2d 253e 920d 833d 9b43 3a3e 2097 c4bd
000000c0: 9df2 843e 517d e03d 97cc 89bd e77c be3d
000000d0: f12a 46bd 4738 6bbe de27 16be 7755 70be
000000e0: 4d9c 4bbe cf19 9f3d a102 34bd 7355 0f3e
000000f0: ba6d 75bd 1bf8 26be 92e2 b2bd 0a33 14be
00000100: 44a2 d8bd 385f d73c 8f5c 9bbe 1339 25be
00000110: f6ad b1bc a78c 9c3b 2713 38be c43a 1ebe
00000120: 8208 c3bc 6a07 e93c a28a 12bd a229 c1be
00000130: e8d0 1abe ae6b 1e3d a88c 43bd ad8c 703b
00000140: 82de 633e df33 40bc d4fd e33c 667c 453d
00000150: a80a d33d 9360 debe a7a8 e8bd 1983 1f3e
00000160: 09eb a63d 3d06 b1be d25e ff3d 7016 d3bc
00000170: 8dbb 4c3b 8e60 2ebe 60d5 49be 214e 2e3c
00000180: 61f7 c9be d46a 923c bcee 03bd a4aa 313e
00000190: 3d94 11bd a535 05be dc86 023e 382a 51bc
000001a0: 1fcd 5ebd acc4 19bd 89a5 413d e03b 863c
000001b0: e9f9 b7bd 7d51 d43c 196d 213d f637 dcbd
000001c0: 7dce 30bd 7e66 6dbd cdb1 3f3b 50da a43b
000001d0: 7766 3bbd f313 dcbd 1490 133d befe d3bb
000001e0: aa78 e3ba b772 af3c 0611 edbd b01b 463d
000001f0: 8fe8 1c3e c932 603e f322 59ba 1a5f 8d3d
00000200: 512d 003d 97be 3cbd 9eb9 e8bc cd55 d2bd
00000210: 69b7 0c3c 17ef 523c 7a80 46bd 9f05 1ebe
00000220: 500a 0d3d f67e 0b3b a98e d3bd db1b 10bd
00000230: bc6e b63c 4803 013e 671f fe3d ca1c c63d
00000240: 483c 1d3d ad01 773a d1c9 933d 1b89 ac3b
00000250: 6ba0 f83d 933b 183e 650b ef3d acef ef3d
00000260: 141f a93d 24cc 093d 0005 6e3d 1256 57bd
00000270: d9a6 3cbd e334 33bd 74d9 1e3e 39db 423e
00000280: 104f a63d 2866 ae3d e22e 843e b925 ae3d
00000290: 417f aabc f422 2e3c c030 6cbd c4de 9dbd
000002a0: 65b7 e83c 2c05 2c3e 9bab 393e a2e8 5c3e
000002b0: 9d3f 133e ade5 723e 14bb 12bc c3e8 9c3e
000002c0: d9ed 9f3e ea70 083e 92f6 ac3c 6c67 06bd
000002d0: a47d b03c 7ae4 44bd 69be 463d 7864 e33d
000002e0: 69ce afbd bf1c 2c3e 19fd c93c 6827 163c
000002f0: 0d44 a83c f5d8 123e 95eb 233e 8404 943d
00000300: 2c9a d2bd 7084 633e 5f40 483e 3732 cdbb
00000310: fd5d 753e 6f18 c4bd da15 153e ff2c 153e
0.032565467 0.16269292 -0.07154881 0.111788705 -0.0052125296 -0.020701006 0.06363263 0.03246019
0.023548918 0.08899261 0.023675974 0.063645355 0.19306082 0.16336349 0.13121873 -0.03138475
-0.050907046 0.06464935 0.22128838 0.15169413 0.16474828 0.17284209 -0.03444843 0.17215298
-0.111513436 0.04872421 0.24636427 -0.04223964 -0.053429198 0.030849136 0.1530616 0.10957366
0.08746237 0.1901976 0.1293091 0.11446484 -0.07145383 0.08408914 0.17275456 0.08001756
0.01335358 0.11006719 0.11381274 0.103426196 0.16130465 0.06399073 0.18189852 -0.09599137
0.2596635 0.10961402 -0.067284755 0.09301167 -0.048380796 -0.22970687 -0.14663646 -0.23470102
-0.19883843 0.077685945 -0.04394782 0.1399744 -0.059919097 -0.16305582 -0.08734621 -0.14472595
-0.10577825 0.026290521 -0.30344054 -0.16135053 -0.021689396 0.0047775093 -0.17976056 -0.15452105
-0.023807768 0.028445918 -0.03577674 -0.37727076 -0.15118754 0.03867691 -0.047741562 0.0036704943
0.22252849 -0.011731117 0.027830996 0.04821434 0.10304767 -0.43433055 -0.11360293 0.15577354
0.08150298 -0.34575072 0.124692574 -0.025767535 0.0031239719 -0.1702902 -0.19710302 0.010638745
-0.39446548 0.017873205 -0.032210097 0.1735025 -0.03554176 -0.13008745 0.12746757 -0.012766413
-0.054394837 -0.037541077 0.047277007 0.016385972 -0.089832135 0.025917763 0.039410684 -0.10752861
-0.043165673 -0.057959072 0.0029250265 0.0050309077 -0.045752015 -0.107459925 0.036026075 -0.0064695766
-0.0017354686 0.021417005 -0.115755126 0.04836625 0.15323089 0.21894373 -0.0008283101 0.06902905
0.031293217 -0.0460802 -0.028408822 -0.102702715 0.00858865 0.012874386 -0.04846237 -0.15431832
0.034433663 0.0021285391 -0.10329945 -0.035182815 0.0222696 0.12598908 0.12408333 0.0967346
0.038387567 0.0009422552 0.07216228 0.0052653677 0.12139972 0.14866476 0.11672095 0.11715636
0.08257881 0.03364195 0.058110237 -0.052572317 -0.046057556 -0.04375161 0.1551264 0.1902894
0.08120549 0.085155785 0.2581702 0.08503289 -0.020812633 0.010628451 -0.05766368 -0.07708505
0.028407762 0.16798848 0.18131869 0.21573117 0.14379735 0.23720427 -0.008955736 0.30646333
0.3123615 0.13324323 0.021113668 -0.032813475 0.021544285 -0.048069455 0.048521433 0.11103147
-0.085842915 0.16807841 0.02465682 0.009164669 0.020540262 0.14340575 0.16007836 0.07227424
-0.10283312 0.2221849 0.19555806 -0.0062620896 0.23961635 -0.09574973 0.14559117 0.14567946

bias_hh_l0 f4 [200]
00000000: 31b4 82bd e768 aabb f1b6 b63d ebbc 47bd
00000010: 3046 47bd dd78 e9bc 3876 acbc 42b1 023d
00000020: 63da 9a3d 897a 683d 4968 583e 3f4d fa3c
00000030: cea9 fe3d d648 483e 7e78 64bd 62dc cebd
00000040: 3eeb 61bc 812d 0d3d d286 523e 0e73 7b3e
00000050: 8c09 4c3e 0e05 1a3e fd1c f2bd 341e 0b3e
00000060: 2602 af3d 07f0 943e 21b3 9a3e fa3c 073d
00000070: 4a77 d93d 059d 073e 7485 133e 8550 273e
00000080: 5852 2e3c e3c0 e03c 027a 1d3e 4b8f a03e
00000090: d130 153e fd99 14be e8e5 a03e cd41 4e3e
000000a0: 33d2 5e3e 126b c33d cd81 4fbd 5101 e43d
000000b0: 40a1 f43c 3d96 d8bc f649 313e c3ba 9dbd
000000c0: a66f 723e 4b2f c13d ed9a 8f3c 8c4f d1bc
000000d0: 492b 093e 4f6d 4ebe 5de7 39be 41e6 97bd
000000e0: feb6 2d3d 0b92 483d 272e 10be 0a4a 12bd
000000f0: 5a50 11be 0e39 94bd 7289 87bd 9bbb 48be
00000100: c445 a1bd 166e a9bc 99bb 5cbe ff29 fabd
00000110: e562 efbd 6cd0 20bd 2559 d0be ada2 56be
00000120: 07a8 1abe c0cb fc3c 88b9 21be bddd 80be
00000130: 52fb 42bd 3db1 aebd 89f6 ebbd 5ac5 00bd
00000140: 05a1 903d ef31 1b3d f77d 03be a3ed 9d3d
00000150: b53b 323d 35ef 5ebe c6ec ab3c db5a 143e
00000160: b8a6 01be 53ef 99be d373 bb3d 8d97 a0bd
00000170: efb9 c73d ee18 10be 6d46 2ebe a8b4 3d3b
00000180: aea3 e1be 683e 133d 6d93 61be c7e9 1b3b
00000190: adbc df3c 6216 11be 9d5f e8bb 4558 95bd
000001a0: 6897 d4bd abf1 7d3d 9f17 e03d e54a dc3d
000001b0: 663d 2dbd 5a03 47bd b708 0fbc e119 fb3c
000001c0: 3229 31be b657 d2bd 2ff0 d9bd 855d e8ba
000001d0: d0ca cfbd 206e f2bc f3d6 96bd ddb0 edbb
000001e0: 8642 42bc 9220 4a3e a1ad f33c 2811 a53d
000001f0: ec93 81bd 262b c03d 7c6d 88bd 1a74 babb
00000200: 1c68 b43d abbc 2b3e 1368 bfbd 09a7 c73d
00000210: 99ae 12bc 2d54 a5bb 8ce8 c43c 5185 923d
00000220: a434 08be 904a 80bd 17cf c4bd 1553 e1bc
00000230: 252d 03bd 85eb 55bd 5ac3 bfbd 9229 ba3c
00000240: efac f138 974c 0abe 98b3 8abc 7e4b 1c3e
00000250: 2011 3bbd 116e 6bbd ecb0 cfbc 91a0 a63d
00000260: c01d ac3d 31a1 433e 272c 283d 6111 ca3d
00000270: f58d 983d cf73 e53a 6b8a 2d3e e3b9 13bc
00000280: 891e 093d 86e3 a3bd 16ba 253e 4875 543e
00000290: b059 303d 40ca 073e fc63 623d 28e1 f33c
000002a0: 059a 453c cc31 263d 2ca1 7f3e d371 503e
000002b0: 5225 563c 0944 363e a78f 093e 14ff 693e
000002c0: 6794 823e 2591 243e be35 e93d 4c22 b9bc
000002d0: 7daf 423e 9ec6 c0bc 8908 273d 2655 333d
000002e0: 0e40 ac3c e9d3 903e 1741 eb3d 92e2 8bbd
000002f0: 40fb f93d 3fa1 2f3e fe87 393e bcc7 f43d
00000300: ede7 bbbd 7948 993e b904 5bbc 83ea 703e
00000310: 8576 1b3e ba4f c0bd 9f0e 6f3e 9b40 863d
-0.06382025 -0.0052004936 0.08921612 -0.04876415 -0.04865092 -0.028500015 -0.021052465 0.031907327
0.07561185 0.056757484 0.21133532 0.030554412 0.124347314 0.19559035 -0.055778973 -0.101006284
-0.013788996 0.034467224 0.20559242 0.24555609 0.19925517 0.1504099 -0.11821935 0.1358574
0.08545332 0.29089376 0.3021479 0.033017136 0.10618456 0.13243492 0.14406377 0.1633931
0.0106397495 0.027435726 0.15378574 0.31359324 0.14569403 -0.14511867 0.31425405 0.20142289
0.21759872 0.095419064 -0.050660897 0.111330636 0.029862046 -0.026438827 0.1731337 -0.077016376
0.23675403 0.094328485 0.017529929 -0.025550626 0.13395418 -0.20158885 -0.18154664 -0.07416964
0.042410843 0.048967402 -0.14080106 -0.03571514 -0.14190808 -0.07237445 -0.066180125 -0.19602816
-0.07874635 -0.020682376 -0.21555938 -0.12215041 -0.116887845 -0.039261267 -0.40693012 -0.20960493
-0.1510316 0.030858874 -0.15793431 -0.25169173 -0.04760296 -0.08529899 -0.11521632 -0.03143821
0.07061962 0.037889417 -0.1284102 0.07711341 0.043513972 -0.21770938 0.020986926 0.14487784
-0.12661254 -0.30065402 0.09152951 -0.07841406 0.09752261 -0.1407201 -0.17019053 0.002894679
-0.4407019 0.035948187 -0.22028895 0.0023790465 0.027311647 -0.14168695 -0.007091476 -0.07292227
-0.10380441 0.06199805 0.10942005 0.107564725 -0.042294882 -0.04858718 -0.008730105 0.030651988
-0.17300871 -0.10270636 -0.106415145 -0.0017728066 -0.10146105 -0.029593527 -0.07365217 -0.0072537498
-0.011856681 0.19738987 0.029745879 0.08059913 -0.06327042 0.0938323 -0.066615075 -0.00569011
0.0880892 0.1677119 -0.093460225 0.09748656 -0.00895276 -0.005045435 0.024036668 0.07154334
-0.13301331 -0.06264222 -0.09609812 -0.027505437 -0.032025475 -0.052226562 -0.09363432 0.0227249
0.00011523987 -0.13505779 -0.01693134 0.15263173 -0.04567063 -0.057478014 -0.025352918 0.08136094
0.08404112 0.19104458 0.041057732 0.09866596 0.07448951 0.0017505827 0.16947334 -0.009016487
0.033476386 -0.08002381 0.16184267 0.20747864 0.043054283 0.13260746 0.055271134 0.029770449
0.012060647 0.040574834 0.24963826 0.2035592 0.013070421 0.17799391 0.13433705 0.22851211
0.25503847 0.16070993 0.11387204 -0.022599362 0.19012256 -0.023532208 0.040779624 0.043782376
0.021026637 0.28286675 0.11487024 -0.06830324 0.12206125 0.17151354 0.18118283 0.11952159
-0.09175096 0.29938105 -0.013367825 0.23526959 0.1518193 -0.09390207 0.23345421 0.06555291

weight f4 [50, 50]
00000000: a834 72be 199a 983d e0c1 ae3c ffcd 71bd
00000010: 273e 38be 88e6 1e3c b322 8a3d 006c c0bc
00000020: 413b 2d3e 89b2 373e 2a72 5bbe 1d53 83be
00000030: c6c7 2bbd 9367 983d bf39 16be 850e 353b
00000040: 4d78 4ebd b582 88bb 64f0 283e df36 f8bd
00000050: 1fff c63c 3cb1 c13d a388 39be 6f35 74be
00000060: c851 6ebe ef57 f7bd cfec 9ebe 1f99 8cbe
00000070: a594 82be 2245 83be 83de 913d 71bb 1abe
00000080: 8034 a83c 0291 42be c7d1 a33d b2f1 d83b
00000090: 1ecb 44bc fd4b 80be bc91 94bd 7c41 b73e
000000a0: a5d4 92bd 82b5 51be e8af a9bc ba5a 45be
000000b0: 4bb5 013e f792 743e 6e7d 51be c4be f5bd
000000c0: e719 f2be 2f15 89be 725a 74bc 6836 93be
000000d0: f6a6 be3d a31d f3bc 745f 3cbd 2c52 e3bd
000000e0: 19e4 213e 2d84 2f3d 3002 9b3d b202 5b3e
000000f0: 14a5 383d 3603 56be 2491 f83d a1a0 473e
00000100: b80b 0cbd 4581 13be 7d91 a63d 0a24 c9bd
00000110: 139a 203d 4b3e de3c ee30 dd3d 5857 13bd
00000120: 6a69 43be be01 613e 50f6 7dbd 5430 2e3e
00000130: 4d5d 48be a074 10be e439 553d aebb 0abe
00000140: a50d 0abc 2645 d8bd 5227 b4bd f04e 82bd
00000150: d188 173d 6629 42bd 4381 5dbe 2f84 29be
00000160: 9544 513e 9a4b 86be bf87 ccbd 5b4f 64bd
00000170: 144e f9bd 7c73 333e 789d 713e 2b0d 853d
00000180: 27e1 003e ddbc a8bd 9d3d c93e 7f58 d6bd
00000190: 1533 4e3e 8a9e 8c3d 6b75 4cbd 3a81 dd3d
000001a0: 1084 693d 4601 983c 3cf7 c7bd 2f8a 183e
000001b0: 9422 103d 5fec d8bd 8a45 e53d f52e 103e
000001c0: 7292 a83d 6d12 53bc 77e1 97bc cb03 89bd
000001d0: a2fc 403e 8dd6 063e 9851 25be fd60 6e3e
000001e0: e590 643c 71c1 c9bd 7086 23bc e1cd 403e
000001f0: 4aa1 513e 5900 6c3e 4846 023d 42d8 193e
00000200: 2f81 613d 2bac c23d ffad b2bc 9657 873d
00000210: c900 2abd db49 483e 0e16 4a3d caa5 ad3d
00000220: 74a8 eabd 3d8f 8dbd 5ea1 cd3d 17a0 03be
00000230: 449e b03c bb6e 2d3d 7a5f 293e 16d6 163d
00000240: b347 e43c 1c91 0abe 163f 2c3e 62da 40bd
00000250: 4f77 9b3e eee9 153e 7ea3 213d 3143 813e
00000260: c7a1 9cbe 81c2 0abe 5990 9d3d 8f4c 863e
00000270: ff71 723d 8392 60be 86ca 7cbc 99fd a8be
00000280: a9bf a1be f3f2 ccbd ec9d 17be eab8 c93d
00000290: 5ea3 b03d 0e3a 5c3e 8368 2f3e bb06 213e
000002a0: 879a c23c 88bf 053e 52d4 203d 7691 b83d
000002b0: 48d0 ac3d ce99 c1be 330e 023e 4e64 0dbf
000002c0: 1b22 643e 7c3e 123e 1e8a 603e 99a2 4c3e
000002d0: 1a46 5cbe a481 983e e3a9 d63e 3043 efbd
000002e0: 8fb3 e2bd 10a3 563d c041 8f3d 1423 f5bd
000002f0: 7629 0e3c 08e1 01bd 61a2 8f3e 1aff 1d3d
00000300: 0550 1e3e 55a8 6b3d d46e b2be df6e 0abe
00000310: 669a 0d3e 439d ff3d 680f b5be ee28 853e
00000320: 88fa bc3c 383a 0a3d bba2 7d3d 4784 0dbe
00000330: 5526 24be caaf 66bd be4b 533d 5cee c93d
00000340: 7fa2 663e c31e e23c 3ae2 56bd 8f66 85bc
00000350: bc90 223e 91dd 94bc ad80 723d f790 903d
00000360: 2597 00be 873f 18be af87 703d f695 23be
00000370: 6a76 563e ade2 dd3d 3f2a 61bc b864 433e
00000380: 1d5a 943c 89fa 7d3d 3b0e 4fbe 4f9c 25bd
00000390: 062e 32be 9f90 c93c af70 6f3d 9d17 b1bc
000003a0: 03a3 ea3b 34e7 573c e4eb fb3d eeae 02be
000003b0: 05a1 c53c ed7d 953d 0e6d ccbd 7710 413e
000003c0: 7d35 50be 2f6e b8bd e5a4 74be e453 eabd
000003d0: 27b3 113e 641f 5d3e 0042 d8bc 4c36 fdbd
000003e0: a144 ac3d 1840 20be 93d1 1e3e 1cfb 573e
000003f0: 7781 1bbe ff7a 37bc 3a3a 213e 82cd 41be
-0.236529 0.07451267 0.021332681 -0.059034344 -0.17992459 0.009698518 0.067448996 -0.023488998
0.16917135 0.179392 -0.21430269 -0.25649348 -0.041938566 0.0744163 -0.14670466 0.0027627063
-0.050407697 -0.004165972 0.16497952 -0.12119841 0.024291573 0.09457633 -0.18118529 -0.23848508
-0.23273385 -0.12077319 -0.31040046 -0.27460572 -0.25504032 -0.25638682 0.07122519 -0.15110566
0.020532846 -0.19000629 0.07998996 0.006620609 -0.012011318 -0.25057974 -0.07254359 0.35792148
-0.07169465 -0.20479396 -0.020713761 -0.1927289 0.12666814 0.23884188 -0.20458004 -0.11999276
-0.47285387 -0.26773974 -0.014914142 -0.28752446 0.09309189 -0.029677218 -0.04598947 -0.110996574
0.15809669 0.042850662 0.075687766 0.21387747 0.045079306 -0.20899662 0.121370584 0.19494869
-0.034190863 -0.14404781 0.081332184 -0.09821327 0.039209437 0.027129313 0.10800348 -0.03597197
-0.19083181 0.21973321 -0.06200248 0.17010623 -0.19566841 -0.14106989 0.052057162 -0.13548157
-0.008426105 -0.10560064 -0.08796562 -0.063627124 0.036995713 -0.047402762 -0.2163134 -0.1655433
0.20436318 -0.26229554 -0.09986829 -0.05573974 -0.12173095 0.17524523 0.23595226 0.06496652
0.12585889 -0.08239148 0.3930482 -0.10466098 0.20136674 0.068661764 -0.049916666 0.10815664
0.05701071 0.018555295 -0.09763953 0.14896463 0.035189226 -0.10591959 0.11194904 0.14080413
0.08231057 -0.012882811 -0.018540127 -0.066901766 0.18846372 0.13167782 -0.16144407 0.23279186
0.013950561 -0.09851349 -0.009980783 0.18828537 0.20471683 0.23047008 0.031805307 0.15023902
0.05505484 0.09505495 -0.021811483 0.066085026 -0.041504655 0.19559424 0.04933744 0.084788874
-0.11457911 -0.06912086 0.10040544 -0.12854038 0.021559842 0.04234193 0.16540328 0.036825262
0.02786622 -0.13531917 0.1682094 -0.047083266 0.30364463 0.14640018 0.03946256 0.25246575
-0.30592176 -0.1355076 0.07693548 0.26230285 0.059190746 -0.2193089 -0.015429145 -0.3300598
-0.31591538 -0.100072764 -0.14806336 0.09849723 0.0862491 0.21506521 0.17129712 0.15725224
0.023755325 0.13061345 0.039264984 0.090121195 0.08438164 -0.37812656 0.12700729 -0.5523118
0.22278635 0.14281648 0.21927688 0.19983901 -0.21511117 0.29786408 0.41926488 -0.11682737
-0.11069404 0.052401602 0.06994963 -0.11969581 0.008676877 -0.031708747 0.28053573 0.038573362
0.15460213 0.05753358 -0.3485018 -0.13518856 0.1382843 0.12481167 -0.35363317 0.2600779
0.023068681 0.033746928 0.06192277 -0.13819991 -0.16030248 -0.05631999 0.051585905 0.098599166
0.22522925 0.027602559 -0.05246184 -0.016284255 0.15875524 -0.018172057 0.059204746 0.070589
-0.12557657 -0.14867984 0.058723148 -0.15975174 0.20943609 0.108342506 -0.013742982 0.1908139
0.018109376 0.062006507 -0.20220272 -0.04043227 -0.17400369 0.024605094 0.058457073 -0.021617705
0.007160546 0.013177682 0.12300852 -0.12762043 0.024124632 0.07299409 -0.09981738 0.18853937
-0.20332904 -0.09005391 -0.23891027 -0.11441782 0.14228497 0.21594006 -0.026398659 -0.12363872
0.084115274 -0.1564945 0.15509634 0.21091884 -0.15186106 -0.011198758 0.15744868 -0.18926051

bias f4 [50]
00000000: 0272 68bd d7a7 14bd f79a a43d 3b8f 12bd
00000010: b391 843c c133 5d3d ef8f aabd ba40 5d3d
00000020: 5833 e7bc e3ba 60b8 fd86 b8bc e00c 91bc
00000030: d738 bb3d a427 7ebd f996 f1bd b5d5 af3d
00000040: 48d8 17bd c66d b3bd ceb9 e93d db3c babd
00000050: 5513 e6bc 76bd b83b 5df3 8abd d761 3d3d
00000060: 9e4a f3bd ee1b efbd 0884 92bd 52a3 773d
00000070: 1f4c a03d b074 b9bd 51a9 3abd b250 903c
00000080: b789 efbd 8643 68bc 095a eabd 7ccf e13d
00000090: c945 15be d6e4 163d eff5 593d ac6f 7c3d
000000a0: a476 7dbd 9267 9d3d b62e 98bd 1687 d03c
000000b0: ae3f 5e3d f4c7 f3bd 16ba d63c 84d7 c1bc
000000c0: 9fe5 e73c 907c 74bc
-0.05674935 -0.036292877 0.0803737 -0.035781126 0.016182756 0.054004434 -0.083282344 0.054016806
-0.028222725 -5.3579814e-05 -0.022525305 -0.017706335 0.09141701 -0.062049523 -0.11796374 0.08585683
-0.037071496 -0.08761172 0.114123926 -0.090936385 -0.02808539 0.00563782 -0.06784699 0.046235885
-0.118794665 -0.11675249 -0.07154089 0.06045849 0.07827019 -0.090554595 -0.04557163 0.017616604
-0.11696189 -0.014176255 -0.11442954 0.11025903 -0.14577402 0.03683933 0.053213056 0.061629936
-0.061880723 0.0768577 -0.074307844 0.025455039 0.05425995 -0.119033724 0.02621178 -0.023662336
0.028307734 -0.014922276

weight f4 [1, 50]
00000000: 8def eb3c 71a0 f23d 0ac5 1fbe 7ebb 07be
00000010: 5d33 f33d 51e4 8abe c3dc 7fbd 43de 253e
00000020: e0ef 823e 4428 7e3e 6b72 4e3e ccd1 6d3d
00000030: ad34 9e3d 45c8 80bd 6a8b 99bd ac67 303e
00000040: ca3d ab3d 712f 34be 0d51 993e 8fbf 9dbd
00000050: 74e1 f73b d7fb e3bd e867 66be e540 b4bd
00000060: 04f3 d93d 8b4a 633d 8317 d23d 62d7 4b3c
00000070: 3688 0a3e de6c 51be 6582 4b3e d099 8b3d
00000080: faae 1abe 5b22 65be d74a a8be b45a 8ebe
00000090: 0431 573e b8dd 1ebd 8f04 173d 996f 693e
000000a0: 155d 95bd 3879 0e3e 5798 353e c11c 9cbe
000000b0: 2d3c ee3d 9981 c23d c7f5 e5bc 1d7d 8fbe
000000c0: 271b 7e3d a204 33be
0.02880075 0.11847008 -0.15602508 -0.13255116 0.11875031 -0.27127317 -0.062466394 0.16198067
0.25573635 0.24820048 0.20160834 0.058061406 0.07724891 -0.062881984 -0.07497294 0.17227048
0.08361395 -0.17596222 0.2994465 -0.077025525 0.007564718 -0.11132019 -0.22500575 -0.0880144
0.10642055 0.05549101 0.10258391 0.012441488 0.13528523 -0.20451686 0.1987396 0.06816447
-0.15105811 -0.22376387 -0.32869598 -0.27803576 0.21014792 -0.038785666 0.03686958 0.22796477
-0.072931446 0.13913429 0.17733894 -0.30490687 0.11632571 0.09497375 -0.028071297 -0.2802514
0.062037613 -0.17482236

weight f4 [1, 50]
00000000: 43d3 433e aba0 7e3e 1bf8 edbd c2c0 b0be
00000010: 3dea 833e 68f2 3cbe 1350 793e 0bcf ef3c
00000020: f7fd cd3e 553b c63d b07d 873e 77dd d6bd
00000030: 6620 2ebd c798 873d 7f5e 493e 7052 d23e
00000040: 8ca8 723e e7ea 9bbe cc4e e83e 1219 d33d
00000050: 6537 48bd 20f6 4dbd 8d7e e4bd a64c 84be
00000060: 3c3f 2b3e fc6f b83a 3aaa 01be 4184 0fbd
00000070: e3ce cb3d 619c 17be 35b9 c53d e1fd 3abe
00000080: ac4a b0bc 06a7 07bd d115 98be 2a06 51be
00000090: d952 133e 5bc6 84bd 4ea7 dfbd 7a71 00bd
000000a0: 58d5 ebbd f782 62bd a850 8a3e 71ad e6be
000000b0: 1114 383e ca44 d53d f801 82bd 360d c5bd
000000c0: f064 fa3e 5667 f13c
0.19123559 0.24865977 -0.11619588 -0.34522063 0.25764647 -0.18451846 0.24346952 0.02927353
0.40232822 0.096792854 0.2646308 -0.1049146 -0.042511366 0.06620937 0.19664954 0.4107852
0.23697108 -0.30452654 0.45372617 0.10307516 -0.048880953 -0.05028355 -0.1115695 -0.25839728
0.16723341 0.001407146 -0.12662593 -0.035038237 0.0995157 -0.14805748 0.09654466 -0.1826091
-0.021519981 -0.03311827 -0.29704145 -0.20412508 0.14387073 -0.06483146 -0.10920583 -0.03135822
-0.115153015 -0.05530068 0.2701466 -0.450542 0.17976405 0.10413511 -0.06348032 -0.096216604
0.48905134 0.02946822

weight f4 [8, 50]
00000000: a39d 28be f2f7 ea3d 0877 fb3d 2b3a b63d
00000010: 4e5e 1abe d639 ca3d 67db 5bbd cc2c 6bbe
00000020: 3220 f1bd 7081 7abd 5ba0 c4bb 465f a1be
00000030: d746 e1bd 1bdf 96be 6680 803d 0df1 e23d
00000040: ff28 49bc 188c cdbd 96ea 263c 7023 663c
00000050: dc50 0d3e a280 f1bd c5ab 47be b7a7 62be
00000060: d7ed 1d3e f80c b53e 1078 cb3e b039 a6bd
00000070: 193f 4e3e bc6d 91bc 1ab1 613e 62f6 5fbe
00000080: 0249 923d 5f8b 62be a157 833e 3570 8ebc
00000090: 5504 2a3e abc7 2cbe 4485 043e edec c8be
000000a0: 8b6a 73bc 48b0 c23c 1967 cdbd 38e6 35bc
000000b0: 6c51 a4bd 2a89 8c3d bccd 6dbe 0d59 05bc
000000c0: 54fd 9a3b bb54 febd 9623 00be 3c7a d93d
000000d0: 97c1 1e3e 6bb5 95bd 08a8 1a3d 9b1b c03c
000000e0: 4c84 b83e bbb8 353e a735 a33c 41fd 31be
000000f0: fc0a 223e fc30 493e 005f b0be ef0c 31be
00000100: 4d1b dabd dc9c 143e c00a a1bd 0702 6b3c
00000110: f983 a13d b9b3 c63d 2fc6 a9bb 3870 a9bd
00000120: 8ef0 a23d f410 a6be b1a6 edbc 4986 1b3d
00000130: b243 4ebe f4a9 f53d 4d00 493e 75e0 c23c
00000140: 5033 28be 1073 bfbe 3108 9ebd 13b2 80be
00000150: 5023 2dbe 4a52 19bd 4d20 75bd 7ea4 e7bd
00000160: 96c3 f4bc 5d7e b83e 20b4 553d 2f1f f03d
00000170: 699b 45be 2819 773d 2d14 0abd 64de 213c
00000180: 4c1e 19bc 700c 0cbd 63dd 4a3d 34ba 97bd
00000190: 0b57 393c a306 e53d 22ac c6bd 2b46 00bd
000001a0: ae19 283c 44e0 07be 4848 18be 6f77 1c3e
000001b0: d611 0b3e 2c55 2b3e 6a37 1a3e 842a 38bd
000001c0: 0a8a d23d 16e1 73bd 31db 02bd 96cb 093d
000001d0: b915 3e3e c6c1 ed37 01fb 1f3e 1e35 3abe
000001e0: b82d 22bd 44ba eabd 54af 00bd 8a26 7b3e
000001f0: 65f1 8639 2f44 c5bd 1c17 943d 3ed0 29be
00000200: b0c4 8cbc 7963 54be 3004 fa3d d36a a4bb
00000210: 011b f4bd f32a 02be dff3 973d 61cb babd
00000220: 76e4 8c3d 9450 ec3d 1a9c 9abd 569f fbbb
00000230: 2758 e83c 3bd5 453e 6451 e8bd 052b ee38
00000240: 59dc ac3d 0ec0 3b3e 05f7 2fbd a142 edbc
00000250: 4c57 013e 3025 853d d758 193d 496f 34be
00000260: 1bb2 4cbd 3beb 763d 6076 e63c 8c22 233e
00000270: c12a a43c 5ef1 73ba 71f1 56bd 88ca 823d
00000280: 8afb b03d b1fd 903e 4f4d f1bd 6b64 fdbd
00000290: 3b9f 5ebe eaca 5c3d e33f e4bc dd05 05be
000002a0: c70c a13d 774b 6ebe 48e3 c8bd 509e 453e
000002b0: 0a19 073e 5a17 30be 58cf 8bbd 031f 02be
000002c0: a23f 7abd d402 5fbd 85f3 b5bd d509 e9bd
000002d0: 0408 253d 67a4 75bd 1793 2abe fe87 6f3d
000002e0: 0be2 073b 140f b63d ba9f 503d c040 0d3e
000002f0: 4372 2e3d 3ac1 133e 61e8 09be b5a7 08be
00000300: 27f6 443e 1e0d ba3d be5e 6a3d aa09 7f3d
00000310: d3df 3b3e b753 4fbe 1d7a ebbc ecb1 093c
00000320: b17d fe3d 6e6f 93bb 6cae 68be d284 7b3d
00000330: 7d37 8e3c 3e11 063e faf4 823e 4f08 91bd
00000340: 7455 25ba b233 543e 7608 353e 69b3 183e
00000350: 6adf c8bd ffaa 8c3d 1862 59bc 8844 d53c
00000360: 1676 20bd 8584 d23d 8805 76be 2f0d 0abe
00000370: 198f 1dbe 73b4 14bd f578 473e f3ea d7bd
00000380: 9140 4b3d 9521 113e fbad 07be 1504 373e
00000390: a292 74be 4bc0 833d 27a1 263e 6589 f6bd
000003a0: 4345 18bc 0c02 46bd d304 8b3e e516 5c3d
000003b0: b6c4 e93d be2b e43d d25e 0a3e 6e5a 87be
000003c0: 3b07 30be c4bc 07be c662 d43e 4df4 babb
000003d0: b96f 313e ef11 27be 6cc4 03be 8e86 42be
000003e0: f475 f33d 4c41 70be 6ba5 663e 97e6 ffbd
000003f0: 8dc3 63be a516 b53e 444d 5bbd 9212 e2bc
-0.16466384 0.11473073 0.12278563 0.088978134 -0.15075037 0.098743126 -0.053676035 -0.22966307
-0.11773719 -0.061158597 -0.006000561 -0.31518 -0.1099984 -0.2946709 0.0627449 0.11081133
-0.012277841 -0.100364864 0.010187766 0.014046535 0.13800377 -0.11792113 -0.19499119 -0.2213429
0.1542276 0.35361457 0.39740038 -0.08116472 0.20141257 -0.01775252 0.22040215 -0.21871331
0.071428314 -0.22123478 0.25652793 -0.017387489 0.16603215 -0.16873042 0.12941462 -0.3924326
-0.014856945 0.023765698 -0.1002943 -0.011102252 -0.080233425 0.068620995 -0.23223013 -0.008138907
0.004729906 -0.12418505 -0.12513575 0.106190175 0.15503536 -0.07309993 0.037757903 0.023450663
0.36038435 0.1774625 0.019923044 -0.17381765 0.15824503 0.19647592 -0.3444748 -0.1729009
-0.106497385 0.14512962 -0.078633785 0.014343745 0.078865 0.09702248 -0.005181096 -0.08273357
0.079560384 -0.3243481 -0.029010149 0.03796986 -0.20143011 0.119953066 0.19629021 0.02378867
-0.16425824 -0.37392473 -0.07716406 -0.2513586 -0.16908002 -0.037431993 -0.059845258 -0.11310671
-0.029878419 0.36033908 0.052173734 0.11724698 -0.19297566 0.060326725 -0.033710647 0.009879682
-0.009345602 -0.03419155 0.049527537 -0.07408562 0.011312257 0.111829065 -0.097008005 -0.031316917
0.010260029 -0.13269144 -0.14871323 0.15279935 0.13581023 0.16731709 0.15060201 -0.04496242
0.10280235 -0.05954083 -0.03194732 0.03364142 0.18562974 2.8342834e-05 0.15623094 -0.18184325
-0.039594382 -0.114613086 -0.031417206 0.2452642 0.00025738325 -0.096321456 0.0723097 -0.16583344
-0.017183632 -0.20741071 0.1220783 -0.0050176173 -0.11919213 -0.12711696 0.074195616 -0.09120823
0.06879513 0.115388066 -0.07549305 -0.0076789064 0.028362347 0.19319622 -0.11343649 0.000113567374
0.084404655 0.18334982 -0.042960186 -0.028962435 0.12630957 0.065012336 0.03743824 -0.17620577
-0.049974542 0.060282927 0.028132617 0.15931147 0.020039918 -0.0009305681 -0.05247635 0.06386286
0.08641727 0.2831855 -0.117823236 -0.12372669 -0.21740429 0.05390445 -0.027862495 -0.12990518
0.07863765 -0.23270975 -0.098089755 0.19298673 0.13193145 -0.17196408 -0.06826657 -0.12707143
-0.06109584 -0.054446056 -0.08884338 -0.113788284 0.040290847 -0.05997124 -0.16657673 0.0584793
0.0020734097 0.08889595 0.050933577 0.13794231 0.042589437 0.14429179 -0.13467552 -0.13345225
0.19234525 0.09084533 0.05721926 0.062265076 0.18347101 -0.20246778 -0.028744752 0.008404236
0.124263175 -0.0044993674 -0.22722787 0.061405964 0.017360443 0.13092515 0.25577527 -0.07081663
-0.0006306984 0.20722845 0.17679009 0.1491219 -0.09808238 0.068685524 -0.013268016 0.026033655
-0.039175116 0.10279182 -0.24025548 -0.13481592 -0.15386619 -0.036304902 0.19479735 -0.1054286
0.049622122 0.14172967 -0.13249962 0.17872651 -0.23884061 0.06433161 0.16272412 -0.12037925
-0.009293857 -0.048341796 0.27152118 0.05373277 0.11414473 0.11141156 0.13512734 -0.2643618
-0.17190258 -0.13255602 0.41481608 -0.0057053925 0.17327775 -0.16315435 -0.12867898 -0.18996641
0.11887732 -0.23462409 0.2252404 -0.124951534 -0.22242565 0.3536884 -0.053540483 -0.027596746

bias f4 [8]
00000000: edd8 553d 1cb2 09be 4461 5e3d 9795 b7bd
00000010: f1a6 df3c fbcc 0fbd 24fc 093e 63ec aa3d
0.05220883 -0.1344685 0.05429198 -0.08964079 0.027301284 -0.035107594 0.1347509 0.083458684

weight f4 [1, 50]
00000000: 7fa7 413b 9db0 d1bb cb2a 5fbd bc89 fcbc
00000010: 31fb b43d 76f3 533d 8156 b33d 6ceb db3d
00000020: 140e 21bd ed0e f53c 4ec3 fe3d 7dc2 113e
00000030: 1b5d 073d 487c 0c3e 800d 87bd a750 183c
00000040: 9fc6 073e 31a3 be3c a6c9 01bd 8687 0dbe
00000050: e19d 3cbd ea23 2f3e 08ca 743d 461f 07bd
00000060: 0b0a 1fbe 0cb4 4dbe e7fa 20be 320e 83bd
00000070: e3bd 903d 3e14 7bbd 27fa cabc a319 15bc
00000080: fc28 0abe 5c60 0abc 5d74 c7bc 8d71 a43d
00000090: de65 04be b8b2 7e3d 45fb b03c ac38 0d3e
000000a0: e913 b7bd 1a25 eabd fcaf 473d 8098 20bd
000000b0: 74ea df3d ae1e 3abe cd6f e63d d6eb fabd
000000c0: f22f fabc 11f4 f03c
0.0029549298 -0.006399228 -0.05448417 -0.030827396 0.088369735 0.051745854 0.08756734 0.107382625
-0.039320067 0.029914344 0.12439595 0.14234348 0.033047777 0.13719285 -0.06594372 0.009296573
0.13259362 0.023271175 -0.031686448 -0.1382123 -0.046049003 0.17103544 0.059762985 -0.03298881
-0.15531175 -0.20088214 -0.15720712 -0.06399192 0.07067468 -0.0612986 -0.024777485 -0.009100351
-0.13492197 -0.008445825 -0.024347479 0.080294706 -0.12929484 0.06218216 0.02160419 0.1379115
-0.089393444 -0.11432858 0.048751816 -0.039207935 0.1093339 -0.18175766 0.11251793 -0.122520134
-0.03054044 0.029413255
