result/models/fixed_2000.pth (torch, 67563 bytes, 11 tensors)

weight_ih_l0 f4 [200, 9]
0.20103663 0.4002154 0.07453923 -0.37618142 -1.6207457 -0.76057374 0.12384222 -0.32687116
-0.7899275 -0.270574 -0.3345262 -0.27426124 0.98799133 1.1187963 -0.114123434 -0.15543158
-0.059088938 1.8763303 -0.2829562 -0.68284506 0.008406403 0.68417376 0.34580705 -0.80668044
0.015908986 0.3795549 0.15405434 0.21546696 -0.13613036 -0.009509173 -0.27967077 -0.4483243
0.24042518 -0.0859376 0.11694917 0.759272 -0.33924064 0.3331277 0.59200644 0.18820621
0.89856505 0.674316 0.6030622 1.2182628 1.0399116 0.012342937 0.34294632 0.68480027
-0.56355613 -0.34983164 -0.18237545 0.466252 0.8965816 -0.56685144 1.0091364 0.7957468
0.29101643 1.0099235 1.8788981 0.082797885 0.5049884 -0.320989 -1.621377 -0.9855542
-0.958431 -0.26347083 -0.25376967 -0.5836151 0.19078144 -0.06780638 -0.012611754 0.35417536
-0.7528624 -0.019906722 0.677375 -0.17822649 -0.23435302 -0.6654536 0.13502885 -0.19152544
0.14516683 -0.011180821 -0.20815767 -0.10416157 0.05218159 0.65511096 0.69440365 -0.15458174
-0.49118346 -0.8985082 0.431324 -0.1240341 -0.13176575 1.8464767 3.6340888 -0.11865486
-0.030125255 0.035746835 2.5284338 0.076902784 0.2897324 0.53911734 0.68336266 0.5921423
-0.39639905 0.29874545 -0.17278136 -0.7297891 -0.40551424 -0.82362473 -0.03284651 0.48137918
-0.3965584 -0.028664878 0.18385535 -0.36170682 1.506485 -0.4291395 -0.17085879 0.12002619
-0.23242794 -0.6213595 -0.94098324 0.15417309 -0.80746114 0.25744465 0.30230615 0.34852606
-0.06492495 -0.32511094 -0.08698823 0.3806392 0.07690435 0.087210484 -0.55785197 0.030538812
0.45756897 -0.024304308 1.0537633 1.0575591 0.41924644 0.06630267 0.29872805 -0.55188966
-0.48624143 -1.1594809 -0.36607888 -0.9565017 -0.5703116 0.11422652 -0.5005186 0.055126976
-0.0026716492 -0.10381202 0.44088835 -0.17112224 0.9282179 0.8069076 1.1061434 -0.16860206
-1.0640858 0.89116734 0.7738076 0.27785274 -0.065044664 0.1500771 -0.025755323 -0.06858785
0.14060374 -0.1607167 -1.0506693 -0.2383683 -0.23978657 -0.2407728 -0.23193172 0.7444269
-0.37938124 -0.0787586 0.24939562 0.15208809 -0.32281005 -0.83606523 -0.38616478 -0.38014162
0.35909495 -0.7646385 -0.5008445 0.46531504 0.015167107 -1.5866581 -2.3390734 -0.04928495
-1.5158559 -1.0894761 0.024582125 -0.062383093 -0.2125002 2.12482 0.35399994 0.43161842
-0.41789493 -0.08609204 -0.65361786 -0.5380873 -0.7039971 -0.17283083 1.5622876 0.032955762
-0.09778758 -0.12103058 -0.05154839 0.5223974 0.37189057 -0.08752241 0.10546907 -0.90554696
0.07965996 -0.07932941 -0.21863098 0.89349836 0.87900037 -1.1512502 -0.12866494 0.084096774
0.20788701 0.7605329 0.07746353 -0.25078225 -0.14815974 -0.5728426 0.22380453 -0.043191187
0.044424634 -0.75827277 -0.92497176 -1.2270932 -1.109108 -0.8134603 -1.4895433 0.8246514
-0.5586598 -1.6624259 1.61428 0.055326514 0.19306989 0.031299412 -0.4736483 0.39353186
0.638579 -0.21996874 -0.013994012 -2.055578 0.31847194 0.4183891 -0.04405842 0.3570497
00000000: 8cdc 4d3e 08e9 cc3e 06a8 983d da9a c0be
00000010: 9874 cfbf f6b4 42bf fda0 fd3d a85b a7be
00000020: b038 4abf ad88 8abe 0547 abbe f86b 8cbe
00000030: 00ed 7c3f b834 8f3f 8cb9 e9bd 7529 1fbe
00000040: 3e07 72bd 972b f03f a3df 90be efce 2ebf
00000050: 02bb 093c 0326 2f3f 9f0d b13e 9c82 4ebf
00000060: 9053 823c 0555 c23e 6cc0 1d3e 5fa3 5c3e
00000070: c265 0bbe 5dcc 1bbc 0231 8fbe c38a e5be
00000080: 0532 763e 0d00 b0bd 0c83 ef3d a65f 423f
00000090: f3b0 adbe b78f aa3e bc8d 173f 21b9 403e
000000a0: 5c08 663f f99f 2c3f 4962 1a3f 09f0 9b3f
000000b0: d31b 853f 083a 4a3c a996 af3e 124f 2f3f
000000c0: 3745 10bf 221d b3be a1c0 3abe 95b8 ee3e
000000d0: 5f86 653f 2d1d 11bf 622b 813f 10b6 4b3f
000000e0: 1b00 953e 2c45 813f bc7f f03f f091 a93d
000000f0: eb46 013f ac58 a4be 4889 cfbf 484d 7cbf
00000100: bc5b 75bf a6e5 86be 19ee 81be cd67 15bf
00000110: 365c 433e 12de 8abd 88a1 4ebc 7956 b53e
00000120: 97bb 40bf 6c13 a3bc 7368 2d3f 0181 36be
00000130: 3dfa 6fbe 2b5b 2abf 0145 0a3e 3f1f 44be
00000140: 9da6 143e c32f 37bc 4927 55be a952 d5bd
00000150: 5dbc 553d 5ab5 273f 70c4 313f ad4a 1ebe
00000160: 667c fbbe a204 66bf 80d6 dc3e 9705 febd
00000170: 9aed 06be 5959 ec3f e994 6840 5201 f3bd
00000180: 3dc9 f6bc 466b 123d dcd1 2140 357f 9d3d
00000190: ce57 943e 9803 0a3f dbf0 2e3f a396 173f
000001a0: d1f4 cabe 2af5 983e 99ed 30be 75d3 3abf
000001b0: 909f cfbe 12d9 52bf 108a 06bd 5577 f63e
000001c0: b409 cbbe 9bd2 eabc 9444 3c3e a331 b9be
000001d0: 80d4 c03f 2cb8 dbbe 9bf5 2ebe 4bd0 f53d
000001e0: 9701 6ebe 6b11 1fbf 47e4 70bf 8ddf 1d3e
000001f0: c6b5 4ebf c9cf 833e dfc7 9a3e 0272 b23e
00000200: 5ff7 84bd f174 a6be e326 b2bd 24e3 c23e
00000210: 0780 9d3d 699b b23d 63cf 0ebf 882c fa3c
00000220: 7b46 ea3e d419 c7bc b7e1 863f 195e 873f
00000230: 78a7 d63e b2c9 873d e2f2 983e a448 0dbf
00000240: a3f4 f8be df69 94bf b16e bbbe 4cdd 74bf
00000250: f1ff 11bf 98ef e93d fd21 00bf d3cc 613d
00000260: d616 2fbb 659b d4bd 1ebc e13e ab3a 2fbe
00000270: b09f 6d3f 7f91 4e3f 1b96 8d3f 05a6 2cbe
00000280: f733 88bf 8b23 643f 4118 463f b742 8e3e
00000290: 2336 85bd d0ad 193e d4fc d2bc c977 8cbd
000002a0: 6dfa 0f3e eb92 24be 557c 86bf d216 74be
000002b0: 9c8a 75be 258d 76be 827f 6dbe c392 3e3f
000002c0: 423e c2be 304c a1bd 9161 7f3e fbbc 1b3e
000002d0: 5c47 a5be 5f08 56bf 64b7 c5be eca1 c2be
000002e0: 4bdb b73e 59bf 43bf 5837 00bf c63d ee3e
000002f0: 757f 783c 9d17 cbbf 61b3 15c0 04df 49bd
00000300: 9107 c2bf f473 8bbf 7460 c93c 6a85 7fbd
00000310: a799 59be 0dfd 0740 7b3f b53e 17fd dc3e
00000320: 53f6 d5be 0651 b0bd 8053 27bf 17c0 09bf
00000330: 2739 34bf 91fa 30be 0af9 c73f 9ffc 063d
00000340: db44 c8bd e1de f7bd 6824 53bd d6bb 053f
00000350: 7168 be3e f33e b3bd 2b00 d83d edd1 67bf
00000360: c324 a33d 7577 a2bd cde0 5fbe 4fbc 643f
00000370: 2b06 613f 2b5c 93bf bec0 03be ee3a ac3d
00000380: 55e0 543e 49b2 423f 33a5 9e3d 8866 80be
00000390: 30b7 17be d0a5 12bf 042d 653e 3ee9 30bd
000003a0: 9bf6 353d 2a1e 42bf f3ca 6cbf 6411 9dbf
000003b0: 40f7 8dbf ef3e 50bf 5ba9 bebf 5b1c 533f
000003c0: 5404 0fbf 5fca d4bf baa0 ce3f 0e9e 623d
000003d0: 1db4 453e d033 003d 0882 f2be 027d c93e
000003e0: ea79 233f 7c3f 61be 2447 65bc 978e 03c0
000003f0: c10e a33e 1937 d63e 9a76 34bd 38cf b63e

weight_hh_l0 f4 [200, 50]
-0.55129313 -0.67208654 -0.48411545 0.71571636 0.5865106 -0.24184664 0.13878277 -0.458328
0.90231746 0.6936951 0.2516345 0.591605 0.37638 -0.43658128 -0.939937 0.47050712
-0.34717062 0.1352528 -0.837425 -0.056579616 0.5508784 0.05259532 -1.8149155 0.2391593
-0.43686545 1.4416006 0.15514316 0.59269977 0.6874375 0.6475625 -0.063678466 0.33522713
0.047792025 0.9490749 -0.1417854 -1.1638783 0.027293196 -0.67949486 -0.670139 0.80899006
-0.5228696 1.1082418 -1.2680107 -0.08763436 0.54485244 -0.8753623 0.020634495 1.5591607
-0.19587444 -0.60054666 -0.24870096 -1.0145166 -0.31749788 1.0784385 1.5637805 -0.82611287
-0.35975412 0.64939743 0.093699016 -0.24203852 1.3567678 0.2090268 0.38493678 -0.742143
0.0010875271 -0.013537845 0.006626129 0.78373504 0.59838355 -1.8081695 -0.9939859 -0.12490647
-0.45174822 -0.33355418 -1.6338081 1.3315135 -0.1721341 0.68403184 -0.18055032 0.60249996
-0.23596916 0.7530692 0.35370693 1.7629433 -0.58514184 -0.40402398 -0.79126096 -0.43103054
0.9959072 0.9668968 -0.91749334 -1.1143607 0.15871623 -0.26545665 0.7253802 0.67068404
0.29004118 0.45618904 -0.3063628 -0.2945666 0.56439614 0.9516109 0.5330799 -0.614503
-0.34954828 -0.5640308 0.26177192 0.015421657 -0.50188977 0.4467966 1.1007962 0.25205007
-0.18341407 1.5267103 0.092393324 -0.37865514 -0.28378093 -0.52783835 0.547507 -0.18870816
-1.0982908 1.0782589 0.13896391 0.2508008 -0.16654381 -1.2244089 -0.55437535 -0.5635979
-1.9818441 -0.745345 0.32244664 -1.2781364 1.03984 0.21823835 -1.4886748 1.5701272
-0.34126025 -0.011203308 0.039460093 -0.98851717 0.3644366 -0.98571086 0.44175765 -0.5232534
-0.17608903 0.69392174 0.76200044 0.15014924 0.24218553 -0.94310427 0.87391955 0.03340122
0.6661276 -0.11803714 0.5118529 -0.22424635 0.731477 0.42328224 0.10967768 0.8185559
-0.23380814 -0.41405344 -0.3183944 -0.15650025 0.027459662 0.15471469 0.184246 0.2497939
0.36683854 -0.17143932 -0.75476754 -0.43003732 -0.83778566 0.34465742 -0.45358956 0.83891183
0.06155494 -0.21641198 0.025759656 -0.051268402 0.071180776 -0.16986367 0.48052645 0.16966425
0.40357298 1.0978239 -0.30998638 0.21644963 0.07602864 -0.46976063 -0.018226674 -0.86257887
-0.084446 0.09231082 0.8402243 0.36281803 -0.10955818 -0.3741397 0.80693585 -0.29269624
-1.3192111 -0.69966215 -0.7101665 2.4205737 1.6054345 -0.121841334 0.010988527 -0.9699307
0.4818692 0.28523824 -1.5004674 -0.1746424 2.141349 -1.3338897 -1.380242 0.23981254
0.9034076 -0.7202609 -0.3372351 -1.640465 2.640964 0.40246844 -0.055367216 -1.5464903
1.9929239 1.6069041 -1.0064183 0.583376 -0.43566218 0.52772486 0.7369393 -0.18390943
0.7544032 -0.07338302 1.3569714 -1.9551136 -0.83185565 -0.9659269 -0.420333 1.5274478
-1.4751871 -0.5805762 -0.22808859 -0.020322576 0.33359563 -0.84776497 -0.15404451 2.6898837
0.76030195 -0.94071424 0.2886999 0.1873029 -0.056491747 0.1535656 -0.15472493 0.16727369
00000000: 8c21 0dbf dd0d 2cbf fbdd f7be 3039 373f
00000010: 8f25 163f a5a6 77be 121d 0e3e f8a9 eabe
00000020: 47fe 663f 0196 313f 3dd6 803e 6d73 173f
00000030: e1b4 c03e 9587 dfbe b69f 70bf 4fe6 f03e
00000040: 59c0 b1be b67f 0a3e 7c61 56bf 07c0 67bd
00000050: 5e06 0d3f 316e 573d 274f e8bf 2de6 743e
00000060: d4ac dfbe 5e86 b83f d9dd 1e3e 2cbb 173f
00000070: e7fb 2f3f a8c6 253f db69 82bd e4a2 ab3e
00000080: 92c1 433d 93f6 723f 3130 11be f7f9 94bf
00000090: fb95 df3c 60f3 2dbf 3b8e 2bbf f919 4f3f
000000a0: c8da 05bf deda 8d3f 2d4e a2bf a579 b3bd
000000b0: 737b 0b3f be17 60bf ac09 a93c 9492 c73f
000000c0: 4f93 48be 6dbd 19bf 77ab 7ebe aedb 81bf
000000d0: 158f a2be 460a 8a3f f629 c83f 227c 53bf
000000e0: b131 b8be e93e 263f 45e5 bf3d f2d8 77be
000000f0: 91aa ad3f 1f0b 563e 6f16 c53e 15fd 3dbf
00000100: 5b8b 8e3a d6cd 5dbc 0020 d93b dca2 483f
00000110: aa2f 193f 1972 e7bf dc75 7ebf f7ce ffbd
00000120: 8b4b e7be 9dc7 aabe a020 d1bf 096f aa3f
00000130: ec43 30be b61c 2f3f 2fe2 38be 703d 1a3f
00000140: e6a1 71be 25c9 403f 1319 b53e 20a8 e13f
00000150: dbcb 15bf 3bdc cebe 1490 4abf 09b0 dcbe
00000160: c6f3 7e3f 8c86 773f d8e0 6abf 5fa3 8ebf
00000170: 8286 223e efe9 87be 84b2 393f f3b1 2b3f
00000180: 4780 943e 9c91 e93e 96db 9cbe 6fd1 96be
00000190: 447c 103f c69c 733f ed77 083f 1250 1dbf
000001a0: fef7 b2be 5364 10bf f806 863e 1eab 7c3c
000001b0: d97b 00bf 86c2 e43e e4e6 8c3f b50c 813e
000001c0: e6d0 3bbe 3e6b c33f b638 bd3d 16df c1be
000001d0: bc4b 91be 6a20 07bf 6b29 0c3f b63c 41be
000001e0: cb94 8cbf 6304 8a3f 8e4c 0e3e f668 803e
000001f0: 768a 2abe 6eb9 9cbf 8beb 0dbf f447 10bf
00000200: 11ad fdbf eece 3ebf ba17 a53e f999 a3bf
00000210: 7a19 853f e079 5f3e e58c bebf eef9 c83f
00000220: aab9 aebe 148e 37bc e8a0 213d 760f 7dbf
00000230: 6f97 ba3e 8c57 7cbf 0f2e e23e eff3 05bf
00000240: af50 34be dba4 313f 7612 433f b9c0 193e
00000250: 7cff 773e 486f 71bf 31b9 5f3f b8cf 083d
00000260: 5787 2a3f 75bd f1bd cb08 033f d6a0 65be
00000270: 1442 3b3f 73b8 d83e b19e e03d e18c 513f
00000280: 676b 6fbe d0fe d3be 9704 a3be 9a41 20be
00000290: 16f3 e03c 876d 1e3e fcaa 3c3e f9c9 7f3e
000002a0: 43d2 bb3e ca8d 2fbe 7238 41bf da2d dcbe
000002b0: 1f79 56bf f076 b03e e43c e8be edc2 563f
000002c0: 0821 7c3d 1a9b 5dbe ea05 d33c d1fe 51bd
000002d0: 3ac7 913d bef0 2dbe 9007 f63e 77bc 2d3e
000002e0: 1ea1 ce3e 7e85 8c3f 89b6 9ebe f9a4 5d3e
000002f0: e7b4 9b3d 7784 f0be 1b50 95bc f8d1 5cbf
00000300: 06f2 acbd 750d bd3d f118 573f 49c3 b93e
00000310: 0a60 e0bd 3d8f bfbe 5993 4e3f 48dc 95be
00000320: e9db a8bf 0f1d 33bf 79cd 35bf aeea 1a40
00000330: e17e cd3f f387 f9bd 3909 343c 614d 78bf
00000340: 8fb7 f63e bf0a 923e 510f c0bf 75d5 32be
00000350: dd0b 0940 e6bc aabf c5ab b0bf 6b91 753e
00000360: b845 673f 0563 38bf 14aa acbe c2fa d1bf
00000370: 8e05 2940 5810 ce3e bcc8 62bd 65f3 c5bf
00000380: 2118 ff3f 09af cd3f 51d2 80bf 2158 153f
00000390: 1d0f dfbe fa18 073f 0ea8 3c3f c152 3cbe
000003a0: 9120 413f d649 96bd 3db1 ad3f 2a41 fabf
000003b0: 7ef4 54bf fc46 77bf e335 d7be 6983 c33f
000003c0: eed2 bcbf a4a0 14bf 0e90 69be 887b a6bc
000003d0: 0ccd aa3e 2007 59bf d8bd 1dbe 0e27 2c40
000003e0: 26a3 423f a6d2 70bf 79d0 933e 55cc 3f3e
000003f0: e463 67bd 4d40 1d3e 3670 1ebe cb49 2b3e

bias_ih_l0 f4 [200]
0.08229563 -0.25847775 0.2172966 -0.05418889 0.16066833 -0.604975 -0.13201529 -0.00055456156
0.8522319 -0.007568397 -0.31199116 -0.17718753 -0.15815432 0.434683 0.041557655 -0.015413483
0.64599305 -0.22946662 -0.17237289 0.57572454 0.31037194 0.35121015 0.1665447 -0.294441
-0.58090097 0.22407399 1.0002441 0.07939374 0.13823645 -0.8613413 -0.7622535 0.033055834
-0.092871495 -0.02523492 -0.014489768 -0.17730217 0.26445866 0.046491083 0.24008815 0.40148535
-0.49152336 -0.61622167 -0.73504764 -0.30687326 0.37964714 -0.15956894 -0.05566198 0.36911014
-0.5243023 0.47941303 -0.4055581 -0.012180206 0.06779254 -0.40334314 -0.44220835 0.29337126
0.015735261 -0.014439396 -0.5947232 -0.3789337 0.10373437 -0.6029654 -0.26783326 -0.265919
-0.1906682 -0.4174965 -0.35767847 -0.7410762 -0.41137707 0.34314427 -0.67050034 0.24902932
-0.09417537 0.065246545 0.44251093 -0.8583177 -0.477084 0.11852238 -0.13768427 -0.05306043
-0.16913442 -0.08895629 -0.28240767 -0.34772825 -0.2116944 -0.317613 -0.15578625 0.057606675
-0.32051662 -0.114723526 -0.45371068 0.17230858 -0.12328796 -0.036775827 -0.39072973 0.12314839
0.009988505 -0.52960765 -0.025505912 -0.15635973 0.1487483 0.1819592 -0.1488458 -0.41971165
-0.16769442 0.08412214 -0.44917157 -0.22901379 -0.3925451 0.2706941 0.45593014 0.09681692
0.34340915 -0.23667772 0.2639046 0.22812708 -0.18300489 -0.37078026 -0.032810997 -0.016015593
0.17375776 0.33238265 0.04803745 -0.2574212 -0.25192645 0.11301067 -0.27928728 0.06334722
-0.21136098 0.47874758 -0.18273932 -0.12789556 0.50547796 0.27349487 -0.37835416 -0.050655853
0.21673344 -0.49418148 -0.09521007 -0.074739136 0.22192082 -0.09405079 0.11723694 -0.09510882
-0.20417598 -0.2162523 -0.07766559 0.1596195 0.382043 -0.08282227 -0.157285 0.24872346
0.35444126 0.07772091 0.37783182 0.0996409 -0.31936502 0.33375365 -0.635673 -0.07480008
-0.093968615 -0.21587327 -0.4473895 -0.012799782 0.039949287 -0.24752262 0.34358805 0.089179374
0.036941297 0.28373265 0.24257955 0.27026522 0.09337787 -0.314106 -0.010417433 0.4951134
0.028413583 0.21561895 0.44028828 -0.6333252 -0.44241932 -0.27284923 0.3937472 0.17875181
-0.077614464 -0.7421152 0.14921455 -0.13058437 0.18490036 -0.12383629 -0.24332553 -0.4361183
-0.16381307 -0.122320615 0.68183357 -0.37673327 -0.3115638 0.50130874 -0.31125236 0.5873692
00000000: 9c8a a83d 3257 84be 0083 5e3e 2bf5 5dbd
00000010: 3d86 243e a4df 1abf 042f 07be ff5f 11ba
00000020: df2b 5a3f 5100 f8bb 4ebd 9fbe a670 35be
00000030: 35f3 21be c58e de3e 5c38 2a3d d588 7cbc
00000040: cd5f 253f 4cf9 6abe 8582 30be af62 133f
00000050: 12e9 9e3e d1d1 b33e b28a 2a3e f9c0 96be
00000060: edb5 14bf a773 653e 0008 803f 2f99 a23d
00000070: db8d 0d3e dd80 5cbf 0c23 43bf 8e65 073d
00000080: 6933 bebd 77b9 cebc 7e66 6dbc b38e 35be
00000090: 2067 873e 6f6d 3e3d abd9 753e 7d8f cd3e
000000a0: f3a8 fbbe b4c0 1dbf 152c 3cbf 7e1e 9dbe
000000b0: 1c61 c23e 0a66 23be d1fd 63bd 01fc bc3e
000000c0: ad38 06bf a075 f53e 50a5 cfbe 7d8f 47bc
000000d0: d1d6 8a3d fe82 cebe 2269 e2be c234 963e
000000e0: 3ce7 803c 3793 6cbc c83f 18bf 9903 c2be
000000f0: af72 d43d f15b 1abf 7121 89be 8926 88be
00000100: 863e 43be 1ac2 d5be a221 b7be 2bb7 3dbf
00000110: 04a0 d2be 9bb0 af3e e9a5 2bbf 8b01 7f3e
00000120: 04df c0bd fb9f 853d cb90 e23e b5ba 5bbf
00000130: 5b44 f4be ddbb f23d 1bfd 0cbe e555 59bd
00000140: 9331 2dbe b72e b6bd bd97 90be 7009 b2be
00000150: 6bc6 58be 2c9e a2be 6e86 1fbe faf4 6b3d
00000160: c11a a4be 2bf4 eabd c44c e8be a971 303e
00000170: 667e fcbd 40a2 16bd ba0d c8be 3935 fc3d
00000180: d4a6 233c 5e94 07bf c6f1 d0bc c41c 20be
00000190: 7951 183e 8353 3a3e 096b 18be 72e4 d6be
000001a0: 16b8 2bbe 3b48 ac3d d1f9 e5be 9782 6abe
000001b0: acfb c8be 6b98 8a3e ad6f e93e f347 c63d
000001c0: 53d3 af3e a55b 72be 811e 873e 259a 693e
000001d0: a265 3bbe e9d6 bdbe d364 06bd 2233 83bc
000001e0: 8eed 313e 0f2e aa3e ebc2 443d b6cc 83be
000001f0: 81fc 80be 2372 e73d befe 8ebe 30bc 813d
00000200: 036f 58be 671e f53e 0420 3bbe 0ef7 02be
00000210: 0167 013f 8507 8c3e a3b7 c1be 837c 4fbd
00000220: 5fef 5d3e 5b05 fdbe 7ffd c2bd d510 99bd
00000230: 363f 633e b39d c0bd ec19 f03d 6ac8 c2bd
00000240: 8213 51be 3e71 5dbe 230f 9fbd 4b73 233e
00000250: 249b c33e b99e a9bd 520f 21be 5db1 7e3e
00000260: 5379 b53e 242c 9f3d 2c73 c13e 8710 cc3d
00000270: d083 a3be c2e1 aa3e 77bb 22bf c930 99bd
00000280: 9e72 c0bd e20d 5dbe 3d10 e5be 2db6 51bc
00000290: dda1 233d 9276 7dbe c6ea af3e ada3 b63d
000002a0: c24f 173d 6845 913e c666 783e 3460 8a3e
000002b0: e63c bf3d 80d2 a0be e2ad 2abc 817f fd3e
000002c0: 9ac3 e83c 37cb 5c3e 776d e13e 9a21 22bf
000002d0: c984 e2be e5b2 8bbe 3c99 c93e b70a 373e
000002e0: 55f4 9ebd 43fb 3dbf b3cb 183e e9b7 05be
000002f0: 8556 3d3e e19d fdbd 542a 79be e64a dfbe
00000300: 9dbe 27be 3b83 fabd a58c 2e3f 2fe3 c0be
00000310: 4a85 9fbe c555 003f 785c 9fbe d45d 163f

bias_hh_l0 f4 [200]
0.25591448 -0.3164322 0.22669223 0.0134135615 0.28668165 -0.55731636 -0.09095494 -0.12382902
0.7243577 -0.16498695 -0.55122733 -0.16115433 -0.32129204 0.46052343 0.046259556 -0.21131128
0.4879789 -0.12816823 -0.111361876 0.33909523 0.2846082 0.43856716 0.37620407 -0.41699374
-0.7254005 0.24331634 1.121427 0.06164979 0.19381082 -1.0829673 -0.7997894 0.1344025
0.12210919 -0.1905087 -0.1282986 -0.23963466 0.31628537 0.18892564 0.35944635 0.44030154
-0.5446707 -0.36948884 -0.6051501 -0.37711802 0.33846137 -0.18203947 0.080141224 0.18668443
-0.3979763 0.40386426 -0.41343132 -0.0031935594 0.20772009 -0.38025323 -0.39698738 0.22906168
-0.10999798 0.13620488 -0.5696934 -0.3081133 0.17980167 -0.56451696 -0.28153062 -0.2657054
0.021855963 -0.38655093 -0.17994611 -0.8144226 -0.33278644 0.16659911 -0.52207655 0.21097133
-0.18405062 0.1130301 0.5519954 -0.93321383 -0.38542628 0.15776032 -0.006852521 0.0048563387
-0.12545468 -0.052798137 -0.34252113 -0.33378246 -0.12551114 -0.37877375 -0.10567803 0.017303685
-0.45499638 -0.12792392 -0.4160046 0.15681617 -0.058405206 -0.11365736 -0.38158295 0.20724726
-0.051695988 -0.5647254 -0.09076153 -0.27277476 -0.061546467 0.19506182 -0.10049769 -0.2602353
-0.12174124 0.09641641 -0.52274746 -0.20734996 -0.15412843 0.18792503 0.4759691 0.0010503986
0.457182 -0.134378 0.29205796 0.2937398 0.056485504 -0.40765563 0.116381355 -0.106775224
0.25800797 0.16124102 0.21178849 -0.12199716 -0.19942248 0.11272434 -0.23440482 -0.017791117
-0.12556557 0.3471822 -0.010082821 -0.20051387 0.55845535 0.052624833 -0.586838 0.06896378
0.14118867 -0.39255777 0.03043832 0.06838062 0.20073272 -0.28682628 0.03808817 0.0039437893
-0.13824633 -0.103701614 0.08813753 0.0021792103 0.54213196 -0.25064185 -0.13016309 0.31961092
0.3501157 0.06082307 0.14397407 0.100157715 -0.38435486 0.4097469 -0.62367827 -0.19032042
-0.20101805 0.025958316 -0.47272086 -0.0801 0.048451815 -0.35457093 0.2928036 0.095252044
0.039613593 0.26952478 0.20581219 0.34306577 0.022666214 -0.13627933 0.03917481 0.5158981
-0.23274773 0.4000494 0.45515794 -0.48909044 -0.41432643 -0.32161808 0.3992929 0.23390023
0.11213688 -0.7239702 0.2605479 -0.045305986 0.25134552 -0.08659903 -0.059438977 -0.4045099
-0.043888804 -0.19226436 0.7470137 -0.20737223 -0.25737005 0.47868216 -0.50414354 0.4481421
00000000: 3907 833e 6703 a2be 0222 683e 8ec4 5b3c
00000010: f0c7 923e 49ac 0ebf 9546 babd 129a fdbd
00000020: 826f 393f 57f2 28be 3c1d 0dbf a405 25be
00000030: 6480 a4be bac9 eb3e a97a 3d3d fc61 58be
00000040: 5fd8 f93e 883e 03be b211 e4bd e49d ad3e
00000050: 2ab8 913e e08b e03e d29d c03e 3480 d5be
00000060: d9b3 39bf eb27 793e ec8a 8f3f 7d84 7c3d
00000070: 5876 463e ac9e 8abf 00bf 4cbf cfa0 093e
00000080: 6214 fa3d b614 43be b560 03be ca62 75be
00000090: 28f0 a13e b975 413e 5a09 b83e 346f e13e
000000a0: 8a6f 0bbf a42d bdbe 1eeb 1abf 9d15 c1be
000000b0: cf4a ad3e 8e68 3abe 1521 a43d 342a 3f3e
000000c0: 8dc3 cbbe 4cc7 ce3e 45ad d3be 094b 51bb
000000d0: 93b4 543e 8db0 c2be ee41 cbbe 258f 6a3e
000000e0: 9f46 e1bd 4b79 0b3e 6dd7 11bf 07c1 9dbe
000000f0: ee1d 383e 2f84 10bf c824 90be 8a0a 88be
00000100: 470b b33c 01ea c5be cb43 38be 007e 50bf
00000110: fc62 aabe f598 2a3e cfa6 05bf de08 583e
00000120: c477 3cbe 537c e73d 924f 0d3f 1ae7 6ebf
00000130: 9856 c5be ec8b 213e 1d8b e0bb ec21 9f3b
00000140: 3177 00be dc42 58bd ee5e afbe 89e5 aabe
00000150: fe85 00be a2ee c1be b96d d8bd 75c0 8d3c
00000160: 49f5 e8be 7dfe 02be 8efe d4be 6b94 203e
00000170: 4c3a 6fbd 31c5 e8bd d75e c3be a038 543e
00000180: 2cbf 53bd d891 10bf 2ee1 b9bd 22a9 8bbe
00000190: 2618 7cbd 49be 473e bcd1 cdbd 903d 85be
000001a0: 7953 f9bd f775 c53d c7d2 05bf 8c53 54be
000001b0: d8d3 1dbe 6b6f 403e 39b2 f33e 87ad 893a
000001c0: c213 ea3e 639a 09be 9f88 953e 1065 963e
000001d0: 585d 673d 3db8 d0be 5959 ee3d f8ac dabd
000001e0: 9f19 843e 5e1c 253e 15df 583e a6d9 f9bd
000001f0: 6835 4cbe 05dc e63d d107 70be adbe 91bc
00000200: 4394 00be dec1 b13e 6b32 25bc 8253 4dbe
00000210: eef6 0e3f 238d 573d 043b 16bf e23c 8d3d
00000220: c393 103e 55fd c8be c959 f93c 230b 8c3d
00000230: e18c 4d3e e5da 92be 5702 1c3d e73a 813b
00000240: 7290 0dbe 8361 d4bd 7381 b43d 15d1 0e3b
00000250: 29c9 0a3f 2154 80be 7949 05be 0ba4 a33e
00000260: 5d42 b33e 9d21 793d f06d 133e 7d1f cd3d
00000270: 29ca c4be 58ca d13e 61a9 1fbf 5be3 42be
00000280: add7 4dbe 89a6 d43c 7808 f2be 780b a4bd
00000290: 6975 463d 528a b5be 5aea 953e 8113 c33d
000002a0: dd41 223d 27ff 893e 6ec0 523e 51a6 af3e
000002b0: 7fae b93c cf8c 0bbe c475 203d e611 043f
000002c0: 6c55 6ebe 46d3 cc3e 760a e93e 106a fabe
000002d0: 9822 d4be 20ab a4be 1e70 cc3e 8b83 6f3e
000002e0: 05a8 e53d 1c56 39bf 8966 853e c592 39bd
000002f0: 5cb0 803e d55a b1bd 4976 73bd ec1b cfbe
00000300: bfc4 33bd f3e0 44be 4a3c 3f3f 6359 54be
00000310: 02c6 83be d415 f53e 8d0f 01bf e272 e53e

weight f4 [50, 50]
-0.15829301 0.0348262 0.1024042 -0.100180134 0.008711746 -0.41972488 0.021335578 -0.031494565
0.15179548 0.30764672 -0.016715845 -0.10985875 -0.5687865 0.17068793 0.13378476 -0.15559633
-0.08882607 0.09418359 0.08575859 -0.22556378 -0.1780648 0.1592713 -0.4826447 -0.21127652
-0.37419236 0.11987118 -0.44621837 0.22748683 -0.001956709 0.6647969 -0.95878464 -0.05197883
0.587417 -0.17718899 0.20189397 0.25784093 -0.2418974 -0.07150376 -0.14228635 0.45173627
0.12325194 -0.2947743 0.26592734 -0.020902168 -0.15304397 0.091152616 -0.2211668 0.06482575
0.18777336 0.3398851 -0.10722557 0.5759405 0.06503398 -0.6022247 -0.41078097 0.033573598
-0.22050557 0.30897593 0.83447456 -0.58879656 0.2939532 -0.22182918 -0.060539898 -0.029605007
-0.36881766 0.95615786 -0.048979413 -0.32107443 -0.040847264 0.42398784 0.49218583 -0.43929845
0.5054401 -0.11234896 -0.3570755 0.65656394 0.31641147 -0.45032454 -0.13698266 0.41370633
-0.009253276 -0.14186455 -0.029474089 0.24357966 -0.9545594 -1.0843687 0.18642494 0.58671767
-0.2513956 -0.2414303 -0.0073508243 -0.033186145 -0.19074364 -0.3035483 -0.31750908 0.04921262
-0.1911347 -0.49149814 -0.8245671 -0.8448176 0.2711491 -0.21007773 0.102522224 0.14916885
0.58062786 0.11427023 -1.2826811 0.18382683 -0.3968696 0.54766375 -0.35872424 -0.114081845
0.42549887 0.37300453 0.41315797 -0.8662412 0.21911122 -0.1567091 0.27348483 -0.45486528
-0.10325246 0.23153624 -0.43068627 -0.15905003 0.05654027 -0.39451572 -0.5374086 0.512812
0.18400103 0.8442866 -0.5448089 0.037747912 0.59585786 -0.3948494 0.49038225 0.15607274
-0.1246932 -0.1251451 0.24958679 0.015593803 0.030265344 -0.21712187 0.23658502 0.18874636
0.13084885 -0.15202808 0.09155383 0.35753894 0.19616754 0.42949328 -0.044752218 0.19773497
0.3829532 -0.5913891 0.055810194 -1.7536145 0.2475917 -0.6955614 -0.00029828658 -0.0045322925
0.17111528 -0.1736262 -2.396334 -0.06680912 -0.040057164 0.12205148 0.056287523 0.24333066
-0.3978649 0.042366967 0.30651796 0.9249376 -0.3638033 -0.5958772 -0.8245085 0.010098745
0.37780124 0.24518304 0.116735466 -1.6168208 -0.75774735 -0.09784292 0.23173802 -0.49598613
0.0037812048 -0.09621508 -0.33622217 -0.659164 0.35311326 0.10465322 0.027782679 -0.2516531
0.61852455 -0.5341027 -0.1656101 0.08150903 -0.16420074 -0.19197616 0.047255736 -0.02304132
-0.44454026 -0.18566462 0.21309566 0.0371955 -0.2206123 0.010163258 -0.1542995 -0.11890203
0.5219215 -0.6767015 0.3161316 -0.28934523 -0.25810552 -0.39636347 -0.19072844 0.7854692
-0.36758566 -0.117148966 -0.19904119 0.05975491 0.043602314 -0.16463973 0.6533432 0.46067736
0.06738156 0.0009872033 0.89973617 -0.49141237 -0.018967966 -0.64366347 -0.4159089 0.2127984
-0.13641235 0.6761745 -0.22823948 0.36417815 0.53250265 0.3453586 -0.064422965 0.39728856
0.18760185 -0.35542017 -0.3758619 -0.21077017 0.22960657 -0.31070986 -0.3521273 0.7958629
-0.86582893 -0.021697385 0.001413453 0.20172197 0.24244474 0.03696668 -0.4021066 0.08501751
00000000: 9017 22be eba5 0e3d 4bb9 d13d 3e2b cdbd
00000010: b6bb 0e3c 2ee6 d6be f3c7 ae3c 7200 01bd
00000020: 4670 1b3e df83 9d3e abef 88bc a0fd e0bd
00000030: fe9b 11bf d1c8 2e3e dffe 083e a554 1fbe
00000040: 71ea b5bd 53e3 c03d 33a2 af3d 31fa 66be
00000050: 9e56 36be 0418 233e 351d f7be df58 58be
00000060: 2496 bfbe 057f f53d bc76 e4be 4ff2 683e
00000070: 213c 00bb 2130 2a3f e972 75bf c1e7 54bd
00000080: f660 163f 0871 35be 4bbd 4e3e ba03 843e
00000090: f4b3 77be 9070 92bd 83b3 11be fa49 e73e
000000a0: 836b fc3d a8ec 96be a127 883e 063b abbc
000000b0: 8fb7 1cbe 39ae ba3d 8d79 62be 5dc3 843d
000000c0: a947 403e 6b05 ae3e 1499 dbbd d670 133f
000000d0: 8930 853d 662b 1abf e251 d2be 7884 093d
000000e0: 36cc 61be 1832 9e3e 20a0 553f 5fbb 16bf
000000f0: 0981 963e 3027 63be aff8 77bd 3386 f2bc
00000100: abd5 bcbe c3c6 743f a39e 48bd de63 a4be
00000110: 764f 27bd ef14 d93e c8ff fb3e baeb e0be
00000120: 8664 013f 3617 e6bd 9ad2 b6be 9314 283f
00000130: af00 a23e f090 e6be 2f45 0cbe 51d1 d33e
00000140: 0d9b 17bc f144 11be a573 f1bc f26c 793e
00000150: 015e 74bf 98cc 8abf 2ee6 3e3e 2133 163f
00000160: edb6 80be 8139 77be 2fdf f0bb 32ee 07bd
00000170: 4d52 43be af6a 9bbe 8d90 a2be 2c93 493d
00000180: d1b8 43be a5a5 fbbe d416 53bf f745 58bf
00000190: 0ed4 8a3e 9e1e 57be 2cf7 d13d b8bf 183e
000001a0: 07a4 143f 8306 ea3d e52e a4bf 1a3d 3c3e
000001b0: 7e32 cbbe b133 0c3f b4aa b7be bea3 e9bd
000001c0: fdda d93e 73fa be3e 7189 d33e fcc1 5dbf
000001d0: b15e 603e 5a78 20be 3406 8c3e 1ae4 e8be
000001e0: 0776 d3bd d617 6d3e e982 dcbe 03de 22be
000001f0: c596 673d f7fd c9be 9c93 09bf a647 033f
00000200: c46a 3c3e 2b23 583f 9978 0bbf 8e9d 1a3d
00000210: 248a 183f b329 cabe 6213 fb3e 88d1 1f3e
00000220: 265f ffbd 0926 00be ae93 7f3e 267d 7f3c
00000230: 07ef f73c 3255 5ebe 5843 723e ba46 413e
00000240: 3efd 053e 40ad 1bbe 9380 bb3d 580f b73e
00000250: 25e0 483e 8be6 db3e 1a4e 37bd 097b 4a3e
00000260: 7112 c43e 4765 17bf 3b99 643d 7176 e0bf
00000270: ae88 7d3e 5010 32bf 5963 9cb9 a083 94bb
00000280: d838 2f3e 11cb 31be 895d 19c0 38d3 88bd
00000290: fb12 24bd 20f6 f93d bf8d 663d ac2b 793e
000002a0: f3b4 cbbe fc88 2d3d ecef 9c3e b6c8 6c3f
000002b0: 6d44 babe 688b 18bf fd12 53bf 3575 253c
000002c0: 2a6f c13e 4311 7b3e 0113 ef3d fcf3 cebf
000002d0: bbfb 41bf de61 c8bd bb4c 6d3e e5f1 fdbe
000002e0: 17ce 773b 690c c5bd 5025 acbe f9be 28bf
000002f0: 43cb b43e 6d54 d63d 8098 e33c add8 80be
00000300: a057 1e3f f4ba 08bf b295 29be 35ee a63d
00000310: 3d24 28be 6695 44be 3b8f 413d 26c1 bcbc
00000320: c89a e3be de1e 3ebe c035 5a3e 4f5a 183d
00000330: 31e8 61be cb83 263c b000 1ebe e882 f3bd
00000340: a69c 053f 4f3c 2dbf 00dc a13e 0f25 94be
00000350: 6826 84be 27f0 cabe 514e 43be 8214 493f
00000360: 3034 bcbe cceb efbd 74d1 4bbe 91c1 743d
00000370: 5798 323d 5197 28be 8041 273f e7dd eb3e
00000380: 58ff 893d 0c65 813a 1c55 663f 679a fbbe
00000390: b562 9bbc 21c7 24bf 03f2 d4be d3e7 593e
000003a0: aeaf 0bbe c619 2d3f 9cb7 69be 8f75 ba3e
000003b0: 1852 083f d8d2 b03e 30f0 83bd 6869 cb3e
000003c0: b31a 403e a2f9 b5be f970 c0be 23d4 57be
000003d0: fc1d 6b3e 5d15 9fbe 084a b4be acbd 4b3f
000003e0: f7a6 5dbf b7be b1bc 9d43 b93a 3490 4e3e
000003f0: 6f43 783e 606a 173d ebe0 cdbe a91d ae3d

bias f4 [50]
0.09311102 0.18968832 -0.0920637 0.16556185 0.036404382 0.08333752 0.017370312 -0.019521574
0.033580277 0.06999023 0.035419576 -0.026298998 0.01769443 0.001094873 -0.25270143 0.026496373
-0.077688396 -0.16868769 0.08181445 -0.07306831 -0.015192514 -0.24249376 0.02461223 -0.1026647
0.022053037 -0.049022302 -0.023094738 -0.00807962 -0.05960813 -0.021528196 -0.020015907 0.069154754
0.033792645 0.0044648894 -0.011989751 -0.022975463 0.03077582 -0.0076820385 -0.025939982 -0.06923908
-0.068762325 -0.009064047 -0.017633118 0.02340313 0.0859591 -0.073041 -0.016178042 0.02234212
-0.10506282 -0.008997874
00000000: feb0 be3d a83d 423e e58b bcbd 0c89 293e
00000010: c31c 153d ddac aa3d 2f4c 8e3c b5eb 9fbc
00000020: 798b 093d 0a57 8f3d 1e14 113d ff70 d7bc
00000030: e9f3 903c d781 8f3a 1562 81be ec0e d93c
00000040: 181b 9fbd 77bc 2cbe 568e a73d d7a4 95bd
00000050: 06ea 78bc 4950 78be 969f c93c df41 d2bd
00000060: 92a8 b43c 9ccb 48bd 2d31 bdbc 6260 04bc
00000070: a827 74bd e65b b0bc 66f8 a3bc 02a1 8d3d
00000080: 286a 0a3d 354e 923b a970 44bc 0a37 bcbc
00000090: 931d fc3c 9cb9 fbbb 1680 d4bc 38cd 8dbd
000000a0: 43d3 8cbd 5e81 14bc 5473 90bc ecb7 bf3c
000000b0: 530b b03d 8596 95bd d087 84bc d206 b73c
000000c0: 2d2b d7bd d26b 13bc

weight f4 [1, 50]
-0.19936846 0.037511617 0.09749173 -2.258476 -0.22265893 -0.0045617702 0.011409662 0.00685361
-0.001143761 0.13889597 0.008806228 -0.03366991 0.06761284 -0.007843873 -0.035061803 -0.0501956
0.04150449 0.42037442 0.000491523 -0.068926506 0.004118014 0.7572886 0.010461555 0.15096313
0.0037792712 0.058642697 0.007353216 -0.012163359 0.053460542 0.18229255 -0.0007223096 -0.16169211
-4.602024e-05 -0.010584887 0.0025048193 -0.061428543 0.0045449366 -0.012339995 0.05489317 -0.0051301266
-0.020797826 -0.0069134156 0.0051379115 -0.09987437 0.032144725 -0.13298807 0.08549883 -0.0013087667
0.14262109 0.27995473
00000000: 3f27 4cbe c8a5 193d bea9 c73d df8a 10c0
00000010: b400 64be e77a 95bb 97ef 3a3c 3f94 e03b
00000020: 40ea 95ba bf3a 0e3e ff47 103c 76e9 09bd
00000030: 9a78 8a3d 9783 00bc f79c 0fbd e799 4dbd
00000040: 9d00 2a3d 513b d73e 8dd9 003a 5729 8dbd
00000050: 68f0 863b aadd 413f f166 2b3c 1496 1a3e
00000060: a6ad 773b 5333 703d 3ff3 f03b d348 47bc
00000070: 71f9 5a3d e6aa 3a3e 6059 3dba 9e92 25be
00000080: db05 41b8 3c6c 2dbc e527 243b 7f9c 7bbd
00000090: b1ed 943b b12d 4abc a9d7 603d 9f1a a8bb
000000a0: 3460 aabc ef89 e2bb ed5b a83b ef8a ccbd
000000b0: 30aa 033d 062e 08be 031a af3d ec8a abba
000000c0: 430b 123e 3a56 8f3e

weight f4 [1, 50]
-2.1565301 -0.13926548 -0.042738143 -6.2404513 -0.03818709 -0.009221019 -0.15419236 0.0056458726
0.0047772503 0.13492437 -0.012289632 0.4570472 0.16892454 0.008023761 5.1691427 -0.06984638
-0.10280085 4.091698 0.0031544846 -0.07817306 -0.0031319945 4.0084276 -0.018076008 -0.17630213
-0.012717295 -0.44712463 -0.0150794275 0.022348877 -0.010403791 -2.6461456 -0.003393421 0.22582997
0.015627678 0.02425328 0.0021027923 -0.14240041 -0.014258291 0.019643323 -0.16505677 0.03728115
0.0021979527 0.0083134305 -0.018667744 0.07983796 0.037424024 0.08750156 -0.023362575 -0.06408921
0.07488838 -0.3330287
00000000: 9704 0ac0 9c9b 0ebe 310e 2fbd c7b1 c7c0
00000010: 116a 1cbd c213 17bc 9ae4 1dbe 0301 b93b
00000020: 7b8a 9c3b 9d29 0a3e 745a 49bc 1702 ea3e
00000030: 8efa 2c3e 1876 033c 9e69 a540 9e0b 8fbd
00000040: 4189 d2bd 31ef 8240 78bb 4e3b 3319 a0bd
00000050: 2642 4dbb 0a45 8040 2314 94bc 8c88 34be
00000060: 345c 50bc 85ed e4be b40f 77bc fe14 b73c
00000070: aa74 2abc 735a 29c0 2864 5ebb f93f 673e
00000080: 9e05 803c d1ae c63c 00cf 093b 6ad1 11be
00000090: 9b9b 69bc 09eb a03c a404 29be 1fb4 183d
000000a0: 870b 103b 0e35 083c 19ed 98bc 1682 a33d
000000b0: ef49 193d 0534 b33d df62 bfbc 3441 83bd
000000c0: 145f 993d bd82 aabe

weight f4 [8, 50]
-0.13892077 0.61625755 -0.27032837 -0.07744383 0.14185432 -0.02527846 0.15506014 0.009694547
-0.005254996 -0.0040665627 0.0027180978 0.09211506 -0.09013548 -0.0034588508 -0.12293809 0.03302546
0.0174268 0.07564852 0.0034505993 0.022512317 0.03601867 -0.059724867 0.0011629779 0.009473624
0.0069503705 0.04198263 -0.0047301706 -0.002204713 0.028424125 0.11424895 0.0029366307 0.15060869
0.002963057 0.010109127 -0.005410679 0.6210364 0.004643442 0.0008085004 0.06936245 0.0017116705
-0.0042299465 0.0007934833 -0.009412188 -0.0106118405 -0.1202714 0.05695997 -0.3303717 0.6129935
-0.59271055 0.12729353 0.20998366 0.16733578 -0.014618332 -0.3653516 0.7544554 -0.1451136
-0.2905573 0.0007320853 -0.01197669 -0.12822983 -0.013454373 0.49435067 -0.035228245 0.0039262096
-0.21096735 0.07190709 -0.027493434 -0.19037853 -0.005696817 -0.031680703 -0.06330517 0.12272195
-0.00096620497 0.016127286 -0.010315613 0.13787968 0.0005005139 -0.0050438005 -0.07490129 -0.2796119
-0.005684024 0.18194562 -0.034415442 -0.021936228 -0.0034018126 -0.19672284 -0.01968899 -0.0068641356
0.083932616 0.5640442 0.016765699 0.00921746 0.010042389 0.00030415034 -0.015827414 -0.05839644
0.05225702 -0.2046215 -1.0194498 -0.007876007 -0.012088261 -0.009260259 -0.10127063 -0.28534865
-0.39013943 -0.08216547 0.26273605 -0.04893255 0.009258714 0.03219298 0.015774908 -0.0037337479
0.016949134 0.0066382876 -0.119633496 0.08186193 -0.099046834 0.111416206 0.026653798 -0.011596766
0.07947457 0.3027319 -0.0026215778 0.113786854 0.015206606 0.067748524 0.0069411793 0.0009321311
0.01760156 0.09253411 -0.011474856 -0.06933757 0.016574606 -0.02286881 -0.0067979717 -0.29763016
0.009448851 -0.017289868 0.053435646 0.06757404 -0.0027013628 0.020990921 0.0052396404 -0.042188596
0.03414721 -0.0018498097 -0.23233132 -0.1157638 0.070630066 0.24240544 0.07584033 0.42961562
-0.25932598 0.15726197 -0.081207894 0.03867466 -0.25759515 0.018179338 0.0032480853 -0.1141543
0.022952469 -0.21398897 -0.037366264 -0.0023926059 0.14873485 0.08871869 0.018320918 0.029625518
-0.010721473 -0.07109368 -0.20421211 0.09321296 0.016289419 0.020824056 -0.0029473465 0.15602675
0.0087308185 0.010969956 -0.09775542 -0.2033791 -0.012977903 -0.23158082 -0.05581365 -0.042671774
0.010326767 -0.3707832 -0.044504162 -0.026413986 0.081492454 0.17139706 0.0018044414 0.036980566
0.01885887 -0.010422915 0.40455195 -0.15115657 0.2022227 0.28718746 0.088434726 -0.018623421
-0.45015478 -0.32476684 -0.28536665 0.16832916 0.23017927 -0.20104897 -0.24615882 0.035029773
-0.015906274 -0.14147978 -0.0076970845 -0.3533919 -0.23612353 0.029392205 -0.15714668 -0.06566454
0.10615533 0.13937935 -0.033580896 0.18072438 -0.0968037 0.30684882 0.005050283 0.08842757
0.0025337301 0.038452737 0.005911977 -0.004978708 0.06939694 0.11972278 0.024118895 -0.1967943
-0.01930602 0.0016212252 -0.0075441133 0.12595397 -0.0038708486 0.011684865 0.003761775 -0.08480989
-0.015215434 -0.02332644 -0.021256672 0.007153211 0.06648862 0.0751384 -0.02482806 -0.020294124
0.09039825 -0.2665518 0.33704984 -0.606029 0.19760625 0.09480217 0.22327311 -0.00017594517
00000000: 3f41 0ebe 0ec3 1d3f 7b68 8abe df9a 9ebd
00000010: 4242 113e c614 cfbc 16c8 1e3e e1d5 1e3c
00000020: 1a32 acbb cd40 85bb 1d22 323b d2a6 bc3d
00000030: f398 b8bd e3ad 62bb f7c6 fbbd b445 073d
00000040: a6c2 8e3c 9ced 9a3d 7323 623b c06b b83c
00000050: 5088 133d 10a2 74bd 106f 983a 4237 1b3c
00000060: efbf e33b faf5 2b3d 8cff 9abb f27c 10bb
00000070: b6d9 e83c 5afb e93d 7d74 403b 2a39 1a3e
00000080: d92f 423b c0a0 253c 114c b1bb 3efc 1e3f
00000090: 0428 983b 8bf1 533a e60d 8e3d 225a e03a
000000a0: 5d9b 8abb c301 503a 9435 1abc 49dd 2dbc
000000b0: da50 f6bd dc4e 693d 7b26 a9be 24ed 1c3f
000000c0: e1bb 17bf 3c59 023e f505 573e 125a 2b3e
000000d0: ba81 6fbc 5d0f bbbe fd23 413f a998 14be
000000e0: edc3 94be 6ae9 3f3a e139 44bc ae4e 03be
000000f0: bb6f 5cbc 881b fd3e 7e4b 10bd 6fa7 803b
00000100: d307 58be 0644 933d e939 e1bc 97f2 42be
00000110: 5dac babb a0c3 01bd 24a6 81bd a555 fb3d
00000120: eb48 7dba 5f1d 843c d102 29bc 5530 0d3e
00000130: eb34 033a 7746 a5bb d965 99bd 4a29 8fbe
00000140: 0d41 babb f44f 3a3e 35f7 0cbd 9bb3 b3bc
00000150: f2f0 5ebb b671 49be ce4a a1bc 8bec e0bb
00000160: dde4 ab3d 3365 103f 3858 893c d404 173c
00000170: d588 243c 5e76 9f39 7ea8 81bc 1b31 6fbd
00000180: 750b 563d 4c88 51be 557d 82bf 5e0a 01bc
00000190: d70d 46bc 57b8 17bc fa66 cfbd 3819 92be
000001a0: 5bc0 c7be 5f46 a8bd 5785 863e 7f6d 48bd
000001b0: dcb1 173c c9dc 033d 613a 813c e5b1 74bb
000001c0: e9d8 8a3c fe85 d93b 6802 f5bd 3aa7 a73d
000001d0: 11d9 cabd 2e2e e43d 1159 da3c 5d00 3ebc
000001e0: 90c3 a23d adff 9a3e c7ce 2bbb 1509 e93d
000001f0: 2125 793c bdbf 8a3d d572 e33b 425a 743a
00000200: 2631 903c 8682 bd3d 0901 3cbc db00 8ebd
00000210: 78c7 873c 5f57 bbbc 85c1 debb fb62 98be
00000220: 5bcf 1a3c 7ba3 8dbc 56df 5a3d 4264 8a3d
00000230: 5909 31bb 27f5 ab3c 4ab1 ab3b f3cd 2cbd
00000240: f2dd 0b3d 5075 f2ba 43e8 6dbe 9215 edbd
00000250: 7fa6 903d 2239 783e 2d52 9b3d 94f6 db3e
00000260: 60c6 84be 4809 213e 5350 a6bd 5269 1e3d
00000270: 83e3 83be d6ec 943c d4dd 543b bbc9 e9bd
00000280: d106 bc3c ed1f 5bbe 5e0d 19bd 44cd 1cbb
00000290: f34d 183e 25b2 b53d c015 963c 37b1 f23c
000002a0: 1ea9 2fbc 9099 91bd fb1c 51be 70e6 be3d
000002b0: 6371 853c 3697 aa3c 4528 41bb 7ac5 1f3e
000002c0: b50b 0f3c 55bb 333c fe33 c8bd 9c42 50be
000002d0: 45a1 54bc 8623 6dbe db9c 64bd 99c8 2ebd
000002e0: 9a31 293c 4cd7 bdbe ff49 36bd 2562 d8bc
000002f0: 84e5 a63d b682 2f3e 0283 ec3a ef78 173d
00000300: eb7d 9a3c e0c4 2abc 6f21 cf3e cac8 1abe
00000310: 7813 4f3e 3c0a 933e 441d b53d 2590 98bc
00000320: b07a e6be d747 a6be 941b 92be 7b5e 2c3e
00000330: 1db4 6b3e c8df 4dbe 0f11 7cbe 617b 0f3d
00000340: e04d 82bc 13e0 10be d337 fcbb c8ef b4be
00000350: 5eca 71be ecc7 f03c 0feb 20be 217b 86bd
00000360: f767 d93d 76b9 0e3e 1f8c 09bd d00f 393e
00000370: 0541 c6bd 4a1b 9d3e d87c a53b 8419 b53d
00000380: f00c 263b 9e80 1d3d 42b9 c13b 6e24 a3bb
00000390: fc1f 8e3d 3831 f53d fd94 c53c 7284 49be
000003a0: a927 9ebc 4a7f d43a 9c34 f7bb 14fa 003e
000003b0: 10ae 7dbb e071 3f3c 1d88 763b cfb0 adbd
000003c0: 284a 79bc 1717 bfbc 7922 aebc 7c65 ea3b
000003d0: 302b 883d 29e2 993d 3764 cbbc dd3f a6bc
000003e0: b822 b93d 7a79 88be cc91 ac3e b724 1bbf
000003f0: 4b59 4a3e a427 c23d b5a1 643e ec7d 38b9

bias f4 [8]
-0.06529712 -0.1983904 -0.009462267 -0.004132974 -0.061460312 -0.062738925 0.030971894 0.001881381
00000000: 7fba 85bd da26 4bbe a007 1bbc e66d 87bb
00000010: cfbd 7bbd 447d 80bd c5b8 fd3c ac98 f63a

weight f4 [1, 50]
0.016207738 0.03302784 0.03537282 -0.028742895 0.11563833 0.029470323 -0.13272825 -0.008092961
0.0011221723 0.0063087735 0.0033361479 -0.3140279 0.008040282 -0.0046677757 0.010286835 0.0036085942
-0.008836321 -0.007867577 0.0009935803 -0.014911434 0.037983045 -0.022688325 -0.0003972096 -0.009059081
-0.0012743723 -0.018171918 0.0041088825 0.0047350074 0.0041102082 0.023096202 -0.005447421 0.05710781
0.009552905 0.0044323565 0.0005073122 -0.29063526 0.0023943514 0.0008198211 0.000112880814 0.012995979
0.008838551 0.0049396376 0.002238126 -0.002429558 -0.053335786 -0.0034616324 -0.040686846 0.034207366
0.168429 0.04039899
00000000: 17c6 843c 3348 073d 17e3 103d 3876 ebbc
00000010: cad3 ec3d bf6b f13c eae9 07be 5798 04bc
00000020: db15 933a d4b9 ce3b 46a3 5a3b 44c8 a0be
00000030: 63bb 033c 24f4 98bb 1d8a 283c 2a7e 6c3b
00000040: 37c6 10bc 02e7 00bc 063b 823a 164f 74bc
00000050: 1c94 1b3d dedc b9bc 9240 d0b9 8a6c 14bc
00000060: d708 a7ba 46dd 94bc cea3 863b 1f28 9b3b
00000070: edae 863b 3f34 bd3c 4880 b2bb e1e9 693d
00000080: ca83 1c3c 4d3d 913b 25fd 043a 25ce 94be
00000090: 8dea 1c3b 43e9 563a 6dba ec38 16ed 543c
000000a0: 92cf 103c afdc a13b 86ad 123b 3839 1fbb
000000b0: a076 5abd 8edc 62bb 40a7 26bd 061d 0c3d
000000c0: a778 2c3e 6979 253d
