result/models/fixed_1000.pth (torch, 67563 bytes, 11 tensors)

weight_ih_l0 f4 [200, 9]
-0.061840173 0.21915962 -0.016136285 -1.3403774 -1.6951944 -0.08098037 0.13305685 0.08901524
-0.56229675 -0.25933856 -0.21179791 0.014331861 -0.29964918 -0.14860272 -0.48313427 0.065266214
-0.118326254 -0.9332411 -0.27811706 -0.11747527 0.6808876 0.26842743 0.99073017 0.6826345
0.5414813 1.5342324 -0.37717924 0.9916818 0.5759313 0.108526066 0.18011846 -0.169095
0.18575157 -0.07048902 -0.064884506 0.083885714 0.35982287 0.11605455 0.23404603 -0.54783
-0.47077686 -0.04691556 0.3831654 0.23638763 0.541475 0.89070106 0.12578715 0.37623253
-0.019900428 0.006192766 -0.5814585 0.11517513 0.26933435 -0.21401484 0.5297463 -0.27374125
0.087205276 0.31309357 0.62306595 0.39094147 -0.097009085 -0.34597117 0.23296577 0.66257256
0.33666885 -0.065405674 -0.31320104 0.13792346 -0.6514527 -0.056128893 0.07672127 -0.014042526
0.14493175 -0.44529456 0.1435029 -0.57314837 -0.5396323 -1.0257593 0.22152776 -0.10097636
-1.5247966 -0.20469421 -0.5887665 -0.06710744 0.28984827 -0.55203384 -0.0747953 0.046704825
-0.17243113 0.0047282143 -0.20156136 -0.43527108 -0.22315405 0.53344786 0.9036475 -0.031086467
-0.055778775 0.19829601 0.7250823 -0.05315229 -0.27395657 0.24900326 -0.24649432 0.24078512
-0.36732918 0.10497724 -0.06834921 1.5737725 0.65983033 0.42071792 0.3154731 0.48306373
0.6777138 0.03887163 0.24141786 0.3255873 -0.90044415 -0.16990483 0.086643875 0.18633375
0.80027235 1.1246768 -0.021308668 0.1793378 -0.05708761 -0.5275779 -0.08508542 -0.14064
-0.13250276 0.48762518 0.26718587 -0.24981251 0.23387313 0.5895734 0.1190474 0.11278915
0.27073556 -0.060638245 0.86852777 0.5778681 -0.5394156 -0.05127663 -0.24681725 1.2925183
1.052643 0.7645046 0.35832015 -0.22796017 -1.080041 0.4087411 0.22833808 0.7790923
-0.89141375 0.091167346 -0.63671285 -0.0588532 -0.5400349 0.4227651 0.17760117 0.11510484
-0.34874937 -0.9659586 0.23189145 0.29290265 -0.066821426 0.7811644 0.014848369 -0.3228484
-0.0014368519 0.30838484 -0.7041497 0.18033728 0.015938565 -0.17703034 -0.18536569 -0.028632075
-0.2200819 -0.10651829 -0.29148206 -0.931218 -0.34276083 -1.0817498 -0.6710475 -0.94360256
-0.14826642 0.048311047 -0.5027085 -1.195314 -0.21519595 0.10681326 -0.06996678 0.04785774
-0.008349853 0.18368569 0.35476726 0.1450843 -0.09495283 0.25981548 0.34094274 0.27738637
0.18480179 -0.71691024 -0.18922083 0.10195998 0.10999553 -0.1617826 -0.6154841 -0.26061162
-0.8037713 -0.050923917 -0.17166847 -0.1141451 -1.572729 -0.09474636 -0.39738858 0.4629542
0.33493075 0.14318974 0.10011777 -0.2245273 0.6568225 0.64125973 0.258599 0.18465935
0.49637341 0.35949895 0.18357112 0.030537602 0.16500285 0.52301836 -0.28445017 -0.12673555
0.14216389 0.9532657 -0.4376783 -0.21114396 -0.10478968 -0.4706082 0.5261781 0.057450958
-0.23155364 -0.1328301 -0.9176947 -0.563645 0.12084663 -0.053591568 0.4082251 -0.057408676
0.7052157 0.08353068 0.42751944 -0.16876571 0.16075166 0.5542932 0.49425098 -0.121185616
00000000: 1f4c 7dbd 616b 603e 3e30 84bc 7d91 abbf
00000010: 21fc d8bf 09d9 a5bd 0e40 083e 9f4d b63d
00000020: aef2 0fbf 06c8 84be 8de1 58be 2fd0 6a3c
00000030: 9e6b 99be 502b 18be 605d f7be 4baa 853d
00000040: 0955 f2bd e4e8 6ebf 5c65 8ebe e096 f0bd
00000050: a64e 2e3f 526f 893e 7ea0 7d3f 22c1 2e3f
00000060: 859e 0a3f ba61 c43f a31d c1be dcde 7d3f
00000070: 3c70 133f ea42 de3d f970 383e 3d27 2dbe
00000080: a935 3e3e 8c5c 90bd 2be2 84bd 46cc ab3d
00000090: b43a b83e 02ae ed3d c3a9 6f3e 963e 0cbf
000000a0: aa09 f1be 882a 40bd 412e c43e 990f 723e
000000b0: 1b9e 0a3f fc04 643f 59ce 003e 8da1 c03e
000000c0: 3906 a3bc b0ec ca3b 77da 14bf f0e0 eb3d
000000d0: 31e6 893e b526 5bbe 749d 073f d027 8cbe
000000e0: ae98 b23d cd4d a03e 4081 1f3f 7b29 c83e
000000f0: b3ac c6bd 2223 b1be 948e 6e3e 5b9e 293f
00000100: dc5f ac3e 69f3 85bd e35b a0be cf3b 0d3e
00000110: 9bc5 26bf 69e7 65bd 0b20 9d3d 9f12 66bc
00000120: fd68 143e a6fd e3be 6df2 123e dab9 12bf
00000130: 5825 0abf 154c 83bf 2cd8 623e b2cc cebd
00000140: 892c c3bf 5c9b 51be 67b9 16bf a06f 89bd
00000150: fe66 943e 1752 0dbf 472e 99bd 8f4d 3f3d
00000160: c991 30be 23ef 9a3b 1a66 4ebe dadb debe
00000170: 7f82 64be 0a90 083f 7155 673f 0ca9 febc
00000180: 4978 64bd 1c0e 4b3e fe9e 393f 37b6 59bd
00000190: 0944 8cbe b6fa 7e3e 0269 7cbe 6090 763e
000001a0: 9212 bcbe 4ffe d63d acfa 8bbd 6171 c93f
000001b0: a4ea 283f 5768 d73e b185 a13e 2154 f73e
000001c0: a77e 2d3f dc37 1f3d 3e36 773e 61b3 a63e
000001d0: 8283 66bf 88fb 2dbe 5872 b13d 46ce 3e3e
000001e0: a6de 4c3f 69f5 8f3f 848f aebc 54a4 373e
000001f0: b3d4 69bd 580f 07bf 4441 aebd ef03 10be
00000200: ceae 07be 02aa f93e 96cc 883e dace 7fbe
00000210: 707c 6f3e 48ee 163f 20cf f33d fffd e63d
00000220: da9d 8a3e cf5f 78bd d657 5e3f 2aef 133f
00000230: 2417 0abf 7207 52bd a9bd 7cbe 3d71 a53f
00000240: 01bd 863f 93b6 433f bd75 b73e 646e 69be
00000250: c93e 8abf 8346 d13e 75d1 693e 9872 473f
00000260: b133 64bf f2b5 ba3d 9dff 22bf 0e10 71bd
00000270: ba3f 0abf ab74 d83e 15dd 353e 16bc eb3d
00000280: 478f b2be 1049 77bf f474 6d3e 56f7 953e
00000290: acd9 88bd 64fa 473f 9346 733c 634c a5be
000002a0: c054 bcba 9ee4 9d3e 2843 34bf 56aa 383e
000002b0: 9891 823c 7147 35be 81d0 3dbe d08d eabc
000002c0: 265d 61be 4326 dabd 233d 95be 4e64 6ebf
000002d0: 597e afbe c776 8abf c5c9 2bbf f08f 71bf
000002e0: 27d3 17be cee1 453d 81b1 00bf 0d00 99bf
000002f0: 545c 5cbe e9c0 da3d be4a 8fbd 7a06 443d
00000300: d2cd 08bc 1a18 3c3e 0ea4 b53e fb90 143e
00000310: a176 c2bd 8906 853e 0c90 ae3e 9605 8e3e
00000320: ae3c 3d3e 6e87 37bf 1bc3 41be 65d0 d03d
00000330: 5645 e13d 57aa 25be 5e90 1dbf e36e 85be
00000340: f5c3 4dbf 9995 50bd dcc9 2fbe e8c4 e9bd
00000350: 2f4f c9bf 610a c2bd 8476 cbbe 5508 ed3e
00000360: 0b7c ab3e 55a0 123e 8c0a cd3d 7cea 65be
00000370: 8525 283f 9929 243f 1767 843e 5717 3d3e
00000380: a824 fe3e 3f10 b83e 11fa 3b3e fe29 fa3c
00000390: 82f6 283e 88e4 053f 74a3 91be f7c6 01be
000003a0: 6993 113e 3909 743f 5f17 e0be 1f36 58be
000003b0: f99b d6bd 8ff3 f0be 9cb3 063f b251 6b3d
000003c0: 661c 6dbe 9d04 08be 0aee 6abf 0a4b 10bf
000003d0: 707e f73d d582 5bbd e102 d13e 5c25 6bbd
000003e0: 0489 343f 2212 ab3d d4e3 da3e ebd0 2cbe
000003f0: 159c 243e 29e6 0d3f 770e fd3e 2a30 f8bd

weight_hh_l0 f4 [200, 50]
0.276976 -0.5407609 -0.018474272 -0.10849569 -1.0455778 -0.44880506 0.65793735 0.012521555
0.71919453 0.14437364 -0.7091198 0.48049384 0.077063106 -0.06841987 0.3495666 0.08697345
-1.2339084 0.42442045 0.37518367 0.71135443 0.059158176 0.16793019 -0.74757594 1.29289
-0.3674407 -0.35869113 -0.58025527 0.25564405 -0.2560125 0.5627587 -0.27649975 0.50542897
0.77351195 6.2516076e-05 0.5269392 -0.11161106 0.08209712 -0.35555387 -0.05870462 -0.38655874
0.095248036 -1.0448502 0.13507594 -0.043969046 0.17480715 0.06860795 -0.1856916 0.62812996
-0.676633 0.2985675 -0.416245 -0.36914054 0.07625706 -0.0072605563 -0.25228262 -0.032657355
-0.38055867 -0.14734432 1.4335451 0.434168 0.33471128 -0.47539943 1.0497411 0.48938215
-0.44042864 -0.4020611 0.25296074 0.043589693 0.9681438 -0.6447315 -0.015034674 -0.009445732
-0.27965653 0.9325382 0.37951037 -0.26282892 0.27685216 -0.42025197 -0.30215845 -0.6300204
0.53427106 -0.46057168 0.4068355 0.8410463 0.09017561 -1.4038243 0.077071466 -0.6857873
0.4152504 0.19621752 -0.76842606 0.15417731 -0.32995024 -0.5499747 0.84735936 0.68183166
0.29708865 -0.28223437 -0.15917541 -0.72653973 0.0066389176 -0.2657927 1.4691999 0.27470785
-0.3371507 0.6502737 0.3774937 -0.9637287 0.6689885 -0.22386953 0.25645262 -0.39455438
-0.020269249 0.12806724 -0.33847693 -0.02062369 -0.63757485 0.1029806 0.20728149 0.33542675
-1.2157525 0.80801225 0.16741093 0.017794816 -0.12001467 -0.64867014 0.41374835 -0.0055611697
-0.38284746 -0.19038029 0.16753432 -0.47278547 -0.36154106 -0.16246161 0.30337718 0.77387
0.30469078 -0.38699123 0.34132734 -0.6731784 -0.02098876 -0.19313973 -0.5301146 0.26121792
-0.43342525 -0.056943998 -0.2334628 -0.025286673 -0.7210951 1.1735997 0.7876049 8.354321e-05
-0.22433051 -0.9129415 -1.5591383 0.7233606 0.3796647 -0.9156355 0.5037062 0.5039937
-0.25336066 0.1572336 0.46960047 0.9888623 0.7980303 -0.17704645 0.16135094 1.5949509
-0.64527994 0.17670207 0.794788 0.06263276 0.33996263 1.5120188 -0.2914941 1.0774826
0.22489828 0.9745621 0.63470674 0.074933074 -0.1311986 0.8888112 1.17608 -0.7385249
0.2979359 0.26324317 -0.22783363 -0.1996931 0.05386553 0.08235792 -0.12896256 -0.8813111
0.7492859 0.30961886 0.00885182 -0.80054146 -0.11701273 -0.3563358 1.4921991 0.27305374
0.28018236 0.1565808 -0.71456987 -0.1671189 -0.7716718 -0.20654309 0.6024157 0.69705987
0.63655925 0.6362342 0.3027979 0.41739312 0.33773807 0.012436907 0.5256196 0.54434836
0.31444755 0.60795057 0.6288991 0.87572724 0.6008882 0.61417294 -0.7881837 -0.35949934
0.059072014 0.1743604 0.5834223 0.19610468 0.5905731 -0.20399015 -0.52984726 -0.26414663
0.11230204 0.26305333 0.08113787 0.50476617 -0.30042133 0.40891865 -1.1574289 0.53430957
0.059309408 0.74105155 -0.35445142 -0.46078268 -0.8701392 0.17751703 -0.06210985 -0.76129
-0.64717513 0.28771234 -1.0327812 0.7639786 -0.25650406 -0.4132742 0.18914261 0.41503978
00000000: cccf 8d3e 4e6f 0abf 5b57 97bc fd32 debd
00000010: 7ed5 85bf c7c9 e5be 956e 283f 3527 4d3c
00000020: 221d 383f afd6 133e e088 35bf 4a03 f63e
00000030: 43d3 9d3d b81f 8cbd 65fa b23e 231f b23d
00000040: b6f0 9dbf a34d d93e 1318 c03e 531b 363f
00000050: d84f 723d e4f5 2b3e 2361 3fbf 6b7d a53f
00000060: 3021 bcbe 5da6 b7be 9c8b 14bf c7e3 823e
00000070: 1214 83be f410 103f 6091 8dbe cb63 013f
00000080: e104 463f 101b 8338 7de5 063f 5794 e4bd
00000090: 8922 a83d 280b b6be 4174 70bd 07eb c5be
000000a0: 6711 c33d a7bd 85bf 5951 0a3e e318 34bd
000000b0: a500 333e 5382 8c3d f025 3ebe 20cd 203f
000000c0: d237 2dbf d7dd 983e 111e d5be fdff bcbe
000000d0: a92c 9c3d f6e9 edbb 302b 81be b8c3 05bd
000000e0: 96d8 c2be 6ee1 16be 687e b73f 454b de3e
000000f0: 475f ab3e 8e67 f3be eb5d 863f 4c90 fa3e
00000100: dd7f e1be f4da cdbe 1284 813e 1b8b 323d
00000110: 46d8 773f 200d 25bf fe53 76bc 46c2 1abc
00000120: 242f 8fbe d3ba 6e3f 2f4f c23e 8391 86be
00000130: 91bf 8d3e 442b d7be 83b4 9abe 0449 21bf
00000140: fdc5 083f 0dd0 ebbe be4c d03e cf4e 573f
00000150: fdad b83d 84b0 b3bf a5d7 9d3d c28f 2fbf
00000160: b39b d43e 3fed 483e 92b7 44bf a8e0 1d3e
00000170: 3def a8be 24cb 0cbf 8bec 583f 858c 2e3f
00000180: 011c 983e 0681 90be e1fe 22be 82fe 39bf
00000190: 478b d93b fb15 88be be0e bc3f 82a6 8c3e
000001a0: 049f acbe 5678 263f db46 c13e edb6 76bf
000001b0: d542 2b3f 0e3e 65be c24d 833e 0803 cabe
000001c0: b20b a6bc 0f24 033e d94c adbe 03f3 a8bc
000001d0: 1b38 23bf 7ee7 d23d 9941 543e 0ebd ab3e
000001e0: c79d 9bbf e4d9 4e3f c56d 2b3e 6fc6 913c
000001f0: 40ca f5bd 3f0f 26bf d3d6 d33e 793a b6bb
00000200: 9504 c4be 0df3 42be 1e8e 2b3e f010 f2be
00000210: e91b b9be 565c 26be 4154 9b3e 581c 463f
00000220: 6e00 9c3e b723 c6be 75c2 ae3e 6b55 2cbf
00000230: 9ff0 abbc 6cc6 45be 97b5 07bf 5bbe 853e
00000240: eae9 ddbe 1c3e 69bd df10 6fbe ff25 cfbc
00000250: b099 38bf 8438 963f 7aa0 493f eb33 af38
00000260: e6b6 65be 89b6 69bf d891 c7bf 292e 393f
00000270: 6963 c23e 1767 6abf e4f2 003f bb05 013f
00000280: 7db8 81be d801 213e 796f f03e 1426 7d3f
00000290: b74b 4c3f aa4b 35be 2e39 253e 5a27 cc3f
000002a0: 1131 25bf 63f1 343e 3a77 4b3f 9b45 803d
000002b0: 950f ae3e d589 c13f b73e 95be f3ea 893f
000002c0: bc4b 663e e77c 793f 247c 223f 8376 993d
000002d0: ed58 06be 2189 633f ca89 963f f80f 3dbf
000002e0: 0e8b 983e cfc7 863e 384d 69be 597c 4cbe
000002f0: 1aa2 5c3d 45ab a83d c30e 04be 9b9d 61bf
00000300: 33d1 3f3f 5d86 9e3e 3907 113c 49f0 4cbf
00000310: 5fa4 efbd a571 b6be 6100 bf3f b3cd 8b3e
00000320: 1074 8f3e b856 203e 0dee 36bf 3821 2bbe
00000330: 488c 45bf 0880 53be ea37 1a3f 8472 323f
00000340: 8cf5 223f 3fe0 223f 5408 9b3e 8db4 d53e
00000350: 01ec ac3e 2bc4 4b3c 028f 063f 6a5a 0b3f
00000360: 45ff a03e a6a2 1b3f 88ff 203f a92f 603f
00000370: cfd3 193f 703a 1d3f 68c6 49bf 4c10 b8be
00000380: 7ff5 713d 888b 323e 2a5b 153f aacf 483e
00000390: cc2f 173f cbe2 50be 12a4 07bf 3a3e 87be
000003a0: 9dfe e53d edae 863e 9d2b a63d 5b38 013f
000003b0: d3d0 99be c95d d13e a126 94bf 83c8 083f
000003c0: 6cee 723d 8eb5 3d3f a87a b5be b5eb ebbe
000003d0: 71c1 5ebf 06c7 353e e666 7ebd e7e3 42bf
000003e0: 45ad 25bf 084f 933e 2d32 84bf 1a94 433f
000003f0: 8054 83be ad98 d3be 9aae 413e 1880 d43e

bias_ih_l0 f4 [200]
-0.30467078 0.1454045 -0.45108506 0.0982541 0.20078544 -0.19771394 -0.23472929 0.047462747
0.13764453 0.22976393 0.38364834 -0.29407617 0.13910602 0.1901361 -0.03362722 -0.32771894
-0.12092671 0.038686644 0.6218834 0.16124688 0.5241495 0.28922108 -0.28119624 0.28727105
-0.56545603 -0.13278171 0.4318951 0.10944239 -0.10581952 -0.4404777 0.1297022 0.093784116
-0.6912436 0.023475315 -0.40527228 0.21882243 -0.0011566753 -0.2819814 0.39577517 0.20633115
-0.12156233 0.05094404 -0.32679436 -0.184784 0.3914418 0.13699757 0.007919662 -0.29398486
0.2637464 0.25436017 -0.07294146 -0.46531495 0.19652724 -0.55275506 -0.47830218 -0.6873893
-0.5282584 -0.09967009 0.14139792 0.006074205 -0.2600057 -0.35851604 0.20822208 0.21030626
-0.12586643 -0.08861045 -0.6738626 -0.17988826 -0.26310718 -0.040135417 -0.32244468 -0.34815758
0.24755126 0.11518274 -0.020420043 -0.052423682 0.20505928 -0.08010989 -0.14055966 0.01560725
0.16856842 -0.10396527 0.13105427 0.03065516 -0.07838778 -0.70018625 -0.78256744 0.2605492
-0.2895618 -0.5597163 0.17711493 -0.3349837 0.06118968 -0.35428238 -0.661316 -0.083156675
-0.3123787 -0.13222495 -0.39081523 0.066865884 0.09458457 -0.4030935 0.24778654 0.075008616
-0.0004782816 -0.018097928 -0.3903129 0.13981846 -0.4513212 -0.120852515 0.09800978 -0.070458405
-0.099830054 -0.08805929 -0.10731316 0.09063073 -0.17339918 -0.114386655 -0.07342363 0.29836598
0.011242781 -0.035366137 0.002598888 0.046426896 0.29066154 0.2266319 0.12958793 0.32565197
0.24142395 0.07183759 -0.15405676 0.13686489 -0.22764769 0.12086669 -0.18047467 -0.19703162
0.06806808 0.46864322 -0.23673704 -0.2490631 0.20416988 0.2288976 0.25899804 0.01102639
0.024708511 -0.30069715 0.21445902 -0.14062175 0.26582134 0.1855524 0.260094 0.25787517
-0.10279724 0.08051136 0.177793 -0.2893743 -0.1715798 -0.055749822 0.02127247 0.2401349
0.13394554 -0.22509141 0.3404207 0.43620637 -0.15195684 -0.35033795 -0.3779079 -0.2267044
0.19682291 0.101889156 0.31212306 0.2598643 0.0038541388 0.34197953 -0.024722667 0.45916334
0.52665514 0.28068772 -0.34610143 -0.3260628 -0.19807242 -0.39006677 -0.005477747 -0.030516483
-0.64023834 0.052087065 0.29729688 -0.1929095 0.36875212 -0.12610278 -0.328028 0.14735684
-0.56012917 0.18961751 0.54515386 0.28728077 0.37544245 -0.1609697 0.02080647 0.18270414
00000000: cffd 9bbe ebe4 143e 9ff4 e6be 7239 c93d
00000010: b39a 4d3e 8675 4abe e05c 70be 4c68 423d
00000020: b0f2 0c3e 3c47 6b3e 8e6d c43e 2791 96be
00000030: cf71 0e3e 0ab3 423e b2bc 09bd c7ca a7be
00000040: 6ca8 f7bd e375 1e3d c033 1f3f e71d 253e
00000050: a92e 063f c914 943e f4f8 8fbe 3115 933e
00000060: bac1 10bf eef7 07be 5b21 dd3e 5523 e03d
00000070: e8b7 d8bd 4b86 e1be a7d0 043e e311 c03d
00000080: 57f5 30bf 4e4f c03c d97f cfbe fd12 603e
00000090: 959b 97ba de5f 90be 0ba3 ca3e 7948 533e
000000a0: acf5 f8bd b3aa 503d 9751 a7be 0438 3dbe
000000b0: 0f6b c83e 1749 0c3e 78c1 013c 2f85 96be
000000c0: c509 873e 7f3b 823e 5562 95bd c33d eebe
000000d0: 703e 493e 5b81 0dbf 06e4 f4be bff8 2fbf
000000e0: f13b 07bf d51f ccbd 9eca 103e 200a c73b
000000f0: 781f 85be 6a8f b7be 2b38 553e 865a 573e
00000100: 21e3 00be 6579 b5bd 4282 2cbf a134 38be
00000110: fcb5 86be 0965 24bd 7817 a5be b641 b2be
00000120: 147e 7d3e eee4 eb3d ef47 a7bc 37ba 56bd
00000130: 0ffb 513e a710 a4bd dfee 0fbe 8db5 7f3c
00000140: 339d 2c3e beeb d4bd 1733 063e 8820 fb3c
00000150: c689 a0bd 683f 33bf 5756 48bf b466 853e
00000160: 7241 94be 9149 0fbf 9e5d 353e fc82 abbe
00000170: 08a2 7a3d 8064 b5be 014c 29bf 0c4e aabd
00000180: 1af0 9fbe fa65 07be ef18 c8be fbf0 883d
00000190: 8eb5 c13d 4562 cebe c1bb 7d3e 1e9e 993d
000001a0: dfc1 fab9 1b42 94bc 18d7 c7be 922c 0f3e
000001b0: 9313 e7be 8681 f7bd 5ab9 c83d 7f4c 90bd
000001c0: b373 ccbd 6e58 b4bd 01c7 dbbd 9b9c b93d
000001d0: 8e8f 31be 8d43 eabd 215f 96bd 6dc3 983e
000001e0: a433 383c 15dc 10bd 1b52 2a3b 212a 3e3d
000001f0: 97d1 943e 3112 683e b3b2 043e dbbb a63e
00000200: d737 773e 961f 933d 0ec1 1dbe 4f26 0c3e
00000210: 7a1c 69be f588 f73d 5ace 38be a8c2 49be
00000220: 4767 8b3d 01f2 ef3e 326b 72be 660a 7fbe
00000230: e911 513e 2264 6a3e 649b 843e 08a8 343c
00000240: 8169 ca3c faf4 99be 259b 5b3e 26ff 0fbe
00000250: bc19 883e 7301 3e3e 0a2b 853e 3708 843e
00000260: 5c87 d2bd 24e3 a43d 5e0f 363e de28 94be
00000270: 9db2 2fbe ed59 64bd 9a43 ae3c ece5 753e
00000280: 0529 093e 5d7e 66be 9f4b ae3e 7156 df3e
00000290: 939a 1bbe 7f5f b3be 257d c1be 3325 68be
000002a0: f28b 493e 43ab d03d 98ce 9f3e ef0c 853e
000002b0: b895 7c3b f117 af3e 3187 cabc 7517 eb3e
000002c0: dfd2 063f 4db6 8f3e 3534 b1be b4f1 a6be
000002d0: 7fd3 4abe d5b6 c7be ac7e b3bb b4fd f9bc
000002e0: a9e6 23bf 3f59 553d 4c37 983e 118a 45be
000002f0: 14cd bc3e 1621 01be 49f3 a7be b6e4 163e
00000300: a064 0fbf 182b 423e 348f 0b3f 7716 933e
00000310: fe39 c03e 3ed5 24be 5572 aa3c cb16 3b3e

bias_hh_l0 f4 [200]
-0.40105656 -0.022489207 -0.29031977 -0.062298406 0.15734711 -0.20551299 -0.3194146 0.04690989
0.18970732 0.19752921 0.57130903 -0.3271673 0.07039254 0.22236297 -0.22062522 -0.39734086
-0.08380821 0.008504313 0.60618734 0.25510758 0.55865675 0.26678953 -0.36496633 0.25097513
-0.3684901 0.109388135 0.48767874 0.18469855 0.05379451 -0.33889228 0.12070442 0.1476039
-0.76806605 -0.13928707 -0.38079563 0.41795096 0.21599118 -0.51118845 0.53727525 0.3277361
0.08268262 0.036295936 -0.49126753 -0.17687958 0.2599981 0.046567503 -0.0008451709 -0.27500966
0.24083689 0.23907442 0.011873384 -0.5838776 0.3788617 -0.5246364 -0.5132125 -0.52685755
-0.28700972 -0.12838864 0.04454433 -0.16961548 -0.34199476 -0.26783362 0.22938834 0.15900403
-0.09883462 -0.1355833 -0.58598214 -0.1406883 -0.35830584 -0.084174454 -0.54961616 -0.40324134
0.12032739 0.11759562 -0.14257772 0.07315565 0.30864343 -0.20408605 -0.2080344 -0.019501183
0.016658872 -0.05434485 -0.02518722 0.05955427 -0.13792095 -0.48356205 -0.64797825 0.24965352
-0.49767646 -0.51462173 0.14395179 -0.38763058 0.15558851 -0.32471287 -0.6344034 -0.09090074
-0.35861483 -0.11415008 -0.5788947 -0.1042575 0.15743773 -0.414693 0.11322714 0.0148529755
-0.049887765 0.081441365 -0.32816988 0.23099747 -0.40378365 -0.19535734 0.04986889 0.06772201
-0.22967353 -0.13280717 -0.21665287 0.08382698 -0.22910812 -0.03652004 -0.18310167 0.29758182
0.0011216121 0.14060657 0.14809975 0.07865968 0.07416107 0.101520434 0.06380133 0.2509318
0.29822028 0.28562874 -0.21910848 0.33705366 -0.24518916 0.1029468 -0.10797552 0.028830348
-0.099379115 0.40387228 -0.22953564 -0.24138558 0.14987475 0.050681766 0.041280497 -0.062983595
-0.0135638025 -0.43669766 0.12536502 0.0067443983 0.09875082 -0.0205902 0.11802023 0.22208014
-0.10133492 0.23791386 0.16074048 -0.13813551 -0.05103268 -0.010247528 0.035619467 0.04082919
0.08621708 -0.39027208 0.24409324 0.5586518 -0.0880899 -0.2283586 -0.2649729 -0.119848646
0.18047588 -0.025524294 0.3804423 0.2476923 -0.12687261 0.28277054 0.11857034 0.3812115
0.46933016 0.30815428 -0.2533434 -0.31584865 -0.029494049 -0.3655297 -0.013219519 -0.09776602
-0.53336906 0.1668758 0.3875102 -0.2703777 0.47027344 -0.09799496 -0.30692285 0.19460419
-0.5490473 0.2668132 0.33622828 0.5288128 0.28764564 -0.15912198 0.10866979 0.10257796
00000000: 4957 cdbe 493b b8bc cba4 94be 9d2c 7fbd
00000010: 9a1f 213e ff71 52be 4f8a a3be 9624 403d
00000020: a342 423e 1945 4a3e 4f41 123f 7982 a7be
00000030: f729 903d 1eb3 633e 94eb 61be 4370 cbbe
00000040: a4a3 abbd ad55 0b3c 182f 1b3f 769d 823e
00000050: 2104 0f3f a398 883e dedc babe d07f 803e
00000060: bcaa bcbe e306 e03d 07b1 f93e 9e21 3d3e
00000070: a257 5c3d 4a83 adbe e133 f73d 7a25 173e
00000080: fa9f 44bf 45a1 0ebe a5f7 c2be abfd d53e
00000090: cb2c 5d3e 3fdd 02bf df8a 093f 07cd a73e
000000a0: 8155 a93d 0cab 143d 6b87 fbbe ec1f 35be
000000b0: 791e 853e 91bd 3e3d 768e 5dba 11ce 8cbe
000000c0: f29d 763e edcf 743e 9588 423c 0179 15bf
000000d0: 29fa c13e 924e 06bf e561 03bf 23e0 06bf
000000e0: f0f2 92be 5078 03be 1e74 363d aeaf 2dbe
000000f0: f019 afbe 7d21 89be c7e4 6a3e f4d1 223e
00000100: ce69 cabd 59d6 0abe ed02 16bf 9810 10be
00000110: dd73 b7be a863 acbd a5b3 0cbf a675 cebe
00000120: 356e f63d f9d5 f03d e5ff 11be a1d2 953d
00000130: 8306 9e3e effb 50be f806 55be f2c0 9fbc
00000140: 3078 883c b598 5ebd 6e55 cebc 2eef 733d
00000150: 263b 0dbe 7295 f7be e7e1 25bf 2ca5 7f3e
00000160: 73cf febe 40be 03bf 1968 133e 8477 c6be
00000170: 9852 1f3e c440 a6be 4368 22bf 2b2a babd
00000180: 5d9c b7be 84c7 e9bd 7132 14bf f584 d5bd
00000190: 5b37 213e a452 d4be a1e3 e73d e559 733c
000001a0: 1d57 4cbd bbca a63d e205 a8be 9a8a 6c3e
000001b0: bbbc cebe c10b 48be 5243 4c3d d6b1 8a3d
000001c0: 8a2f 6bbe 9afe 07be 40da 5dbe 7bad ab3d
000001d0: 529b 6abe 0a96 15bd 017f 3bbe a55c 983e
000001e0: 0f03 933a 2bfb 0f3e 76a7 173e 5418 a13d
000001f0: c2e1 973d f2e9 cf3d 46aa 823d 227a 803e
00000200: 54b0 983e ee3d 923e f95d 60be 4c92 ac3e
00000210: de12 7bbe c6d5 d23d 4522 ddbd 9f2d ec3c
00000220: 4787 cbbd 59c8 ce3e 640b 6bbe c82d 77be
00000230: c478 193e af97 4f3d bd15 293d 8bfd 80bd
00000240: b63a 5ebc d696 dfbe b05f 003e 1d00 dd3b
00000250: df3d ca3d c7ac a8bc 97b4 f13d fa68 633e
00000260: af88 cfbd b19f 733e 2799 243e 6573 0dbe
00000270: a507 51bd 3fe5 27bc b8e5 113d 823c 273d
00000280: 9592 b03d bed1 c7be 94f3 793e ce03 0f3f
00000290: 7a68 b4bd d6d6 69be 87aa 87be 3573 f5bd
000002a0: abce 383e 5318 d1bc 55c9 c23e 0da3 7d3e
000002b0: e5ea 01be 4dc7 903e 02d5 f23d 272e c33e
000002c0: 0b4c f03e 66c6 9d3e 3ab6 81be eab6 a1be
000002d0: 819d f1bc b526 bbbe ae96 58bc 8d39 c8bd
000002e0: e08a 08bf 7de1 2a3e bd67 c63e f26e 8abe
000002f0: aec7 f03e 95b1 c8bd fe24 9dbe 5246 473e
00000300: 5d8e 0cbf bd9b 883e 1d26 ac3e 4760 073f
00000310: 4a46 933e dff0 22be 448e de3d 6514 d23d

weight f4 [50, 50]
0.011462298 0.09571332 -0.10853682 -0.06255218 -0.03360925 0.14583004 0.28052545 -0.08611287
-0.02444388 0.083723165 -0.33377194 0.018419037 -0.10154369 0.07550275 0.20231104 0.43452218
-0.32372043 -0.25244626 0.17545554 0.036677152 0.35296515 0.11041915 -0.045284055 -0.01698841
-0.115931995 -0.16880013 -0.1565107 -0.17641096 -0.16924122 -0.69454646 0.07889194 0.4000162
0.03671255 -0.33389166 -0.19823457 0.041291445 0.53923225 -0.42752063 0.45378497 0.028703112
0.086867176 0.06576716 0.04339608 -0.16237338 0.055457056 0.18234095 0.050248653 0.0038376257
-0.3433154 -0.10860905 -0.29769993 -0.044137064 -0.07237437 0.01813433 0.14360718 -0.053921133
-0.2189166 -0.045293324 0.016659774 0.11841586 0.018873459 0.27190864 -0.045347482 -0.008904334
0.020185297 -0.3698783 0.18190295 -0.140317 0.07393264 0.038919676 0.11852824 0.257316
0.19845779 0.022507915 0.18763798 0.1795939 -0.10030022 -0.09545175 0.016896743 -0.10005579
-0.5053402 -0.5407525 0.053427577 0.05328278 -0.18286188 -0.13780375 -0.192894 0.29948074
0.03555454 -0.116995625 0.087755926 0.005348872 -0.19333889 0.13473834 0.007761347 0.020861614
0.14113139 0.10624952 0.31714407 0.07685235 0.084363565 0.12383121 0.041206766 -0.03635616
-0.17230065 0.026459536 -0.13159248 -0.035794053 0.15155321 -0.07664298 0.28329226 0.07492608
0.07799224 -0.030178128 -0.38408735 -0.2766294 0.29481858 0.23518771 -0.13125548 0.092652075
-0.18638352 -0.06528124 -0.22541195 0.105753586 0.18101463 0.011866962 0.0043159868 0.005916456
-0.054973595 0.20062244 0.0027842927 -0.08141942 -0.07075482 0.1888759 -0.18125552 0.004361851
-0.17307767 0.023426635 -0.3484326 0.023643818 0.008909715 -0.21147652 -0.053577736 0.01171729
-0.011855171 0.029026313 0.04287238 0.025970664 0.26856592 -0.028412709 0.31581566 0.11582595
-0.19493905 -0.19045602 0.04304889 0.238979 0.42234164 -0.057851043 -0.13927269 -0.28555015
-0.49328452 -0.1511054 -0.04703906 0.15035802 -0.170395 0.4009684 0.24439017 0.21130817
0.03345889 -0.071107104 -0.37402245 -0.11502223 -0.14923486 -0.17721635 -0.051622715 -0.6666846
0.30131036 -0.06800721 0.31930602 -0.01726481 0.14668758 0.47034216 0.45842996 -0.2573187
0.06691757 0.30133358 -0.0873704 -0.29525256 0.06786014 -0.06439785 -0.005878968 -0.13906932
0.30179375 0.037371803 -0.22448452 -0.17548704 0.06548494 -0.11587999 -0.43502098 0.3612125
-0.092419505 0.13622713 0.085588016 -0.003157743 -0.09276407 0.03790049 -0.24304132 0.027620103
0.21658698 0.018688722 0.22039898 -0.09058658 0.065835364 -0.031309363 0.24593477 -0.09592521
-0.25187743 -0.19680977 -0.07546 0.047783118 0.40042272 0.10494566 0.21621524 0.07583733
0.029388903 -0.06565843 -0.18967903 0.10793735 -0.13972534 0.039010625 0.020446924 0.104858786
-0.11035948 0.16118641 -0.11302073 -0.3942923 0.17206343 0.20038113 0.034245297 0.15091649
-0.17916657 0.028281841 -0.3332887 -0.0153014595 0.06590468 0.20410226 0.16477212 -0.033995304
0.094691396 -0.16316444 0.11775311 0.11189831 0.042127304 -0.16590688 0.062878005 -0.41143847
00000000: 5dcc 3b3c 5805 c43d 8d48 debd 5b1b 80bd
00000010: daa9 09bd 7854 153e 08a1 8f3e f25b b0bd
00000020: 883e c8bc 0d77 ab3d 28e4 aabe 85e3 963c
00000030: 23f6 cfbd 30a1 9a3d a02a 4f3e b179 de3e
00000040: afbe a5be a340 81be 9eaa 333e c83a 163d
00000050: d9b7 b43e 6f23 e23d c67b 39bd 472b 8bbc
00000060: c16d edbd f1d9 2cbe 5744 20be 13a5 34be
00000070: 924d 2dbe cccd 31bf 1992 a13d ecce cc3e
00000080: e65f 163d d9f3 aabe 01fe 4abe 3821 293d
00000090: 200b 0a3f fce3 dabe 8156 e83e ca22 eb3c
000000a0: 6be7 b13d efb0 863d 17c0 313d 3545 26be
000000b0: f026 633d 96b7 3a3e 88d1 4d3d ad80 7b3b
000000c0: 09c7 afbe 6c6e debd 206c 98be 11c9 34bd
000000d0: 0439 94bd 728e 943c c30d 133e 68dc 5cbd
000000e0: ac2b 60be 7e85 39bd 147a 883c 0484 f23d
000000f0: 839c 9a3c 9c37 8b3e 48be 39bd 7ce3 11bc
00000100: a35b a53c b060 bdbe c444 3a3e 42af 0fbe
00000110: ff69 973d 3d6a 1f3d efbe f23d ecbe 833e
00000120: 8538 4b3e 8562 b83c 2c24 403e 77e7 373e
00000130: 346a cdbd 357c c3bd 0a6b 8a3c 0dea ccbd
00000140: fa5d 01bf c16e 0abf e0d6 5a3d 0b3f 5a3d
00000150: 2540 3bbe 6d1c 0dbe 0186 45be 8a55 993e
00000160: a3a1 113d 679b efbd 61b9 b33d 9745 af3b
00000170: a1fa 45be d9f8 093e e652 fe3b fae5 aa3c
00000180: bf84 103e 5999 d93d b560 a23e c464 9d3d
00000190: cec6 ac3d 389b fd3d 6dc8 283d 32ea 14bd
000001a0: 956f 30be abc1 d83c 2ec0 06be c99c 12bd
000001b0: c430 1b3e fff6 9cbd af0b 913e d872 993d
000001c0: 65ba 9f3d 1f38 f7bc 19a7 c4be 5ea2 8dbe
000001d0: 76f2 963e 0cd5 703e d667 06be 5fc0 bd3d
000001e0: 52db 3ebe 2cb2 85bd 64d2 66be 5695 d83d
000001f0: e65b 393e a56d 423c 1f6d 8d3b d5de c13b
00000200: fe2b 61bd f86f 4d3e ae78 363b 3abf a6bd
00000210: e7e7 90bd af68 413e 0c9b 39be dced 8e3b
00000220: 463b 31be 37e9 bf3c c265 b2be aeb0 c13c
00000230: 0efa 113c 4d8d 58be 5474 5bbd e0f9 3f3c
00000240: 313c 42bc 97c8 ed3c f39a 2f3d 6ec0 d43c
00000250: 7981 893e c5c1 e8bc 97b2 a13e 2836 ed3d
00000260: 1a9e 47be e706 43be 0854 303d e9b6 743e
00000270: 2a3d d83e 37f5 6cbd 809d 0ebe a133 92be
00000280: ca8f fcbe 60bb 1abe 08ac 40bd 74f7 193e
00000290: 077c 2ebe bb4b cd3e 6b41 7a3e 2b61 583e
000002a0: 300c 093d 9aa0 91bd df7f bfbe c690 ebbd
000002b0: 06d1 18be 3478 35be 5772 53bd d8ab 2abf
000002c0: 5a45 9a3e 5d47 8bbd 147c a33e ee6e 8dbc
000002d0: 4535 163e b0d0 f03e 55b7 ea3e 47bf 83be
000002e0: 140c 893d 6548 9a3e 41ef b2bd 582b 97be
000002f0: 42fa 8a3d 05e3 83bd 5ca4 c0bb 3068 0ebe
00000300: b684 9a3e 2d13 193d 45df 65be e0b2 33be
00000310: f81c 863d 7d52 edbd 12bb debe d8f0 b83e
00000320: 7046 bdbd 207f 0b3e c548 af3d 23f2 4ebb
00000330: 17fb bdbd 8b3d 1b3d d3df 78be 8e43 e23c
00000340: fac8 5d3e 1719 993c 45b0 613e 7585 b9bd
00000350: b1d4 863d 3f3e 00bd 53d6 7b3e 7074 c4bd
00000360: 14f6 80be 8088 49be c68a 9abd 3bb8 433d
00000370: 3504 cd3e c0ed d63d 8767 5d3e 9a50 9b3d
00000380: ffc0 f03c ed77 86bd 383b 42be 420e dd3d
00000390: 2914 0fbe 9bc9 1f3d 4f80 a73c 34c0 d63d
000003a0: 2704 e2bd 0d0e 253e 6a77 e7bd aee0 c9be
000003b0: 6531 303e b630 4d3e cc44 0c3d da89 1a3e
000003c0: 7177 37be 52af e73c d1a4 aabe f9b2 7abc
000003d0: 08f9 863d 2f00 513e 06ba 283e a93e 0bbd
000003e0: 90ed c13d 9414 27be 8b28 f13d f12a e53d
000003f0: ae8d 2c3d 7ee3 29be 2fc6 803d 10a8 d2be

bias f4 [50]
-0.04101914 -0.18117243 -0.06530744 0.19015022 -0.13185948 0.076997906 -0.1549974 -0.10705153
-0.26720214 0.14999725 0.011707188 0.0639775 -0.04406303 -0.16843137 -0.19813047 -0.13830669
-0.11219322 0.20043913 -0.0648581 -0.124854654 -0.043101747 0.03971481 0.049799092 0.06855772
-0.14781284 -0.07649386 -0.063863344 -0.06744357 -0.0969413 -0.07327194 0.26158345 0.103250906
-0.09223186 -0.21224678 0.09894509 0.040417206 -0.0028008353 0.14860637 0.2074408 0.033937998
-0.104611084 0.12541346 -0.05284947 0.25665173 0.055031765 -0.091705 0.0028917417 -0.11301785
-0.48827612 -0.20593749
00000000: b003 28bd 4485 39be e8bf 85bd bdb6 423e
00000010: 2c06 07be 14b1 9d3d a3b7 1ebe d53d dbbd
00000020: b8ce 88be e198 193e 81cf 3f3c a306 833d
00000030: 707b 34bd 4679 2cbe b7e2 4abe 45a0 0dbe
00000040: 8fc5 e5bd ea3f 4d3e 53d4 84bd ccb3 ffbd
00000050: 758b 30bd ffab 223d 22fa 4b3d fd67 8c3d
00000060: 405c 17be d0a8 9cbd c9ca 82bd db1f 8abd
00000070: 2989 c6bd 990f 96bd 44ee 853e 3675 d33d
00000080: 0fe4 bcbd 3857 59be b9a3 ca3d 838c 253d
00000090: 388e 37bb 452c 183e 5c6b 543e 9202 0b3d
000000a0: 563e d6bd 636c 003e b078 58bd db67 833e
000000b0: fd68 613d d5cf bbbd 6083 3d3b e775 e7bd
000000c0: 54ff f9be 47e1 52be

weight f4 [1, 50]
-0.08741035 -0.13536035 0.006044709 0.09985575 -0.055143274 -0.29285803 -0.19301564 0.040342364
1.0336783 0.20452547 0.112166375 0.16855286 0.21240805 -0.046159446 -0.14932066 0.41109642
-0.03470005 0.11889047 0.7556767 -0.19444092 -0.06444323 -0.10547132 -0.122781135 0.10850386
0.012504213 0.046294358 0.08551838 0.055989448 0.11017201 -0.10501672 0.33765855 0.21201836
-0.16658154 -0.31802917 -0.38126388 -0.14950521 0.0022981442 0.015617836 0.11609789 0.17507593
-0.17576125 0.11170845 0.11930587 -1.2502639 -0.05517082 0.007918829 -0.0024247656 -0.30441585
-0.22904444 -0.15062311
00000000: 3304 b3bd e79b 0abe b212 c63b 2c81 cc3d
00000010: eadd 61bd 7df1 95be e4a5 45be 093e 253d
00000020: 924f 843f 206f 513e 7cb7 e53d 1f99 2c3e
00000030: 7f81 593e b011 3dbd 84e7 18be 3b7b d23e
00000040: a421 0ebd d97c f33d 0774 413f 851b 47be
00000050: d0fa 83bd 5901 d8bd ad74 fbbd 4637 de3d
00000060: 78de 4c3c 279f 3d3d 4324 af3d 3155 653d
00000070: dda1 e13d 0213 d7bd 95e1 ac3e 571b 593e
00000080: 5a94 2abe b8d4 a2be 0535 c3be e517 19be
00000090: 769c 163b f4e1 7f3c bbc4 ed3d 1b47 333e
000000a0: c2fa 33be 66c7 e43d a356 f43d a608 a0bf
000000b0: ccfa 61bd fabd 013c d1e8 1ebb 65dc 9bbe
000000c0: a08a 6abe f23c 1abe

weight f4 [1, 50]
0.07140145 0.12974885 -0.024233168 -0.67269135 0.08152147 -0.49787968 0.13780257 -0.0030193168
3.088061 0.05970566 0.22607236 -0.13791668 -0.049376827 0.044257995 0.07071011 1.322633
0.19660336 -0.23717192 1.9006485 0.11116765 0.0008056666 -0.0879726 -0.095564246 -0.19874364
0.19360621 0.04088298 -0.086851574 0.0016524042 0.076856054 0.014369858 -0.040195595 -0.103842326
-0.00021901113 0.026367662 -0.5036896 -0.21612692 0.11461369 -0.016136989 -0.018652728 -0.045842532
0.026127854 -0.044594366 0.34067926 -3.2579122 0.12069177 0.1039708 -0.03205011 -0.109409764
2.222247 -0.03906066
00000000: ec3a 923d e2dc 043e a384 c6bc 8035 2cbf
00000010: baf4 a63d 16ea febe 1e1c 0d3e bbdf 45bb
00000020: cba2 4540 ec8d 743d 837f 673e 083a 0dbe
00000030: 5b3f 4abd df47 353d 76d0 903d 0a4c a93f
00000040: 6452 493e 32dd 72be 7348 f33f ddab e33d
00000050: 5f33 533a fa2a b4bd 30b7 c3bd 7483 4bbe
00000060: b540 463e e974 273d 3ddf b1bd 7c95 d83a
00000070: b566 9d3d 8e6f 6b3c 23a4 24bd 49ab d4bd
00000080: 5aa6 65b9 ff00 d83c cdf1 00bf 6050 5dbe
00000090: 95ba ea3d b831 84bc 9bcd 98bc 61c5 3bbd
000000a0: 150a d63c 95a8 36bd 836d ae3e a281 50c0
000000b0: 3f2d f73d a5ee d43d fa46 03bd 3a12 e0bd
000000c0: 4b39 0e40 12fe 1fbd

weight f4 [8, 50]
-0.096115656 0.046598203 0.01598989 0.013946625 -0.03480413 0.10943515 0.117675655 -0.05365234
-0.14024398 -0.06637011 0.041169368 0.0479905 -0.08752831 -0.28417635 -0.04556486 0.1655795
0.08633972 -0.08707416 0.055925887 -0.17271608 0.018931625 -0.112325124 -0.113572046 -0.32577395
0.015609019 0.68048185 0.46984735 -0.22566588 0.39847285 -0.05048656 0.11619536 -0.42034766
-0.12199218 -0.16424681 0.1622715 -0.0068086754 -0.008170032 -0.030342504 0.04941183 -0.0753451
-0.20389968 -0.12939164 -0.2314963 -0.0470808 0.02259646 -0.046935163 0.04201627 -0.19599247
0.012523917 -0.092850246 -0.076171264 -0.032084808 -0.013762234 -0.032837074 0.0029930866 0.016821252
0.3755197 0.047935612 0.08266318 -0.20426069 0.15655635 0.5155494 0.01902829 -0.48962075
-0.10898894 0.19704342 -0.3139396 0.13437045 0.14294633 0.21110313 0.032847498 -0.5765516
0.17053026 -0.35220966 -0.48825338 0.3339111 -0.37067133 0.065138176 -0.090886354 0.031125579
-0.14804031 -0.2688627 -0.018075658 -0.36656663 -0.35457063 -0.15367116 -0.20741144 0.08047498
-0.011606184 0.32121277 0.18943043 0.26422933 -0.3307885 -0.00024410502 -0.068267524 -0.20336486
0.0193131 -0.0002449365 -0.06551192 -0.19945505 -0.06893428 0.021559387 -0.18460305 -0.029337777
-0.0218219 -0.16319597 -0.18755944 -0.0031321996 0.2025417 0.048659522 0.08171018 0.00014993983
0.008339598 0.020124475 -0.122738294 0.04065462 0.20279618 0.021382196 0.1927358 -0.14582634
0.05179182 -0.042810135 0.06957786 0.27969807 -0.35386357 -0.076539926 0.34706193 -0.1884678
-0.046830077 -0.0703319 0.06156223 0.1502916 -0.07420434 -0.0872242 0.0826761 0.056818835
-0.09261708 0.00089157483 -0.0837966 0.00942138 0.10830192 0.14346313 -0.0128703425 -0.120131984
0.0796286 0.10838696 0.0994 0.032641873 0.11557163 -0.065833114 0.122849226 -0.09599794
-0.035846125 0.076484345 -0.005353589 0.17616771 -0.05928162 -0.16256271 0.01226646 0.04073599
0.09218717 0.09213793 -0.34475747 -0.41058198 -0.09423054 0.07314963 -0.0050213616 -0.22641222
0.14607933 -0.33014184 -0.15031852 0.4703234 0.028418863 -0.27663192 -0.15156405 -0.11706851
-0.15038294 -0.16210826 -0.33321157 -0.036395185 0.07471227 -0.06740048 -0.072888836 0.11166295
-0.049136356 0.07135873 0.06892519 0.02881392 -0.0109232785 0.073423825 -0.065233596 0.052582517
0.41166773 0.051476087 -0.015258246 0.1497671 0.047437213 -0.16985857 -0.037476987 -0.017399602
0.07598703 0.031945445 -0.035173684 0.042839944 -0.014920359 0.07208276 0.13461897 0.018199515
0.044433586 0.24491945 0.006611441 0.034827545 0.08441676 -0.0067564007 0.028569147 0.023632385
-0.13288149 0.14274433 -0.2290289 -0.18918967 -0.01067789 -0.020201933 0.25062275 0.06499556
-0.013493655 0.08256439 -0.06830372 0.107142195 -0.21093051 0.03469818 0.20292023 0.025110086
0.058979414 -0.065429755 0.30315098 0.015982429 0.028386561 -0.0025210162 0.004322606 -0.15826695
-0.048065275 0.011328685 0.4791227 -0.07492101 0.013122082 -0.23589918 -0.12908949 -0.14175496
0.13468856 -0.31608012 0.09748893 -0.07023622 -0.010331925 0.29077232 -0.015772635 -0.01981579
00000000: 49d8 c4bd c2dd 3e3d 3bfd 823c 6380 643c
00000010: c78e 0ebd 891f e03d efff f03d 8ec2 5bbd
00000020: 1e9c 0fbe 0ded 87bd 36a1 283d b091 443d
00000030: 0b42 b3bd 907f 91be 38a2 3abd ac8d 293e
00000040: e1d2 b03d f053 b2bd 8b12 653d 7cdc 30be
00000050: 7f16 9b3c b70a e6bd 7698 e8bd d8cb a6be
00000060: f9bc 7f3c 0f34 2e3f d58f f03e f514 67be
00000070: a204 cc3e ffca 4ebd d5f7 ed3d cf37 d7be
00000080: 09d7 f9bd 5130 28be 802a 263e 4f1b dfbb
00000090: 99db 05bc d890 f8bc 0f64 4a3d 884e 9abd
000000a0: 14cb 50be 3e7f 04be 5e0d 6dbe ccd7 40bd
000000b0: 361c b93c 163f 40bd 4119 2c3d 40b2 48be
000000c0: 1d31 4d3c 4528 bebd aeff 9bbd 5c6b 03bd
000000d0: fe7a 61bc 2b80 06bd a927 443b b9cc 893c
000000e0: 1e44 c03e 2258 443d 504b a93d b729 51be
000000f0: 4f50 203e 0cfb 033f 37e1 9b3c 92af fabe
00000100: 9835 dfbd c0c5 493e b1bc a0be 6898 093e
00000110: 8660 123e 6b2b 583e 198b 063d e398 13bf
00000120: 7c9f 2e3e d354 b4be 59fc f9be 65f6 aa3e
00000130: a2c8 bdbe 2a67 853d a022 babd 12fb fe3c
00000140: e197 17be 5fa8 89be 6713 94bc 9fae bbbe
00000150: 488a b5be f95b 1dbe aa63 54be 11d0 a43d
00000160: dd27 3ebc 0076 a43e 0dfa 413e 1149 873e
00000170: 1c5d a9be 71f6 7fb9 d8cf 8bbd e13e 50be
00000180: 8236 9e3c d26a 80b9 1d2b 86bd f23d 4cbe
00000190: 6a2d 8dbd 509d b03c 9508 3dbe c755 f0bc
000001a0: d7c3 b2bc d81c 27be 950f 40be 9745 4dbb
000001b0: 1767 4f3e 354f 473d ab57 a73d 2b39 1d39
000001c0: cfa2 083c 15dc a43c 375e fbbd 7585 263d
000001d0: cda9 4f3e b729 af3c 895c 453e 8053 15be
000001e0: a923 543d ae59 2fbd d67e 8e3d 9634 8f3e
000001f0: 9b2d b5be f7c0 9cbd 1ab2 b13e b4fd 40be
00000200: e5d0 3fbd 2c0a 90bd ad28 7c3d 0be6 193e
00000210: 72f8 97bd 9aa2 b2bd 1652 a93d deba 683d
00000220: 06ae bdbd 93b8 693a 8d9d abbd 225c 1a3c
00000230: 66cd dd3d 00e8 123e 21de 52bc c207 f6bd
00000240: 5214 a33d fcf9 dd3d 3a92 cb3d 7cb3 053d
00000250: d2b0 ec3d 83d3 86bd 6098 fb3d 919a c4bd
00000260: 63d3 12bd d3a3 9c3d 296d afbb 4f65 343e
00000270: 49d1 72bd d776 26be 43f9 483c c8da 263d
00000280: a1cc bc3d d0b2 bc3d 0d84 b0be cd37 d2be
00000290: f1fb c0bd 79cf 953d 3c8a a4bb 9bd8 67be
000002a0: d295 153e 5a08 a9be 19ed 19be 3bce f03e
000002b0: adce e83c b3a2 8dbe 9b33 1bbe 9dc1 efbd
000002c0: fcfd 19be b5ff 25be b59a aabe 1e13 15bd
000002d0: bf02 993d 4309 8abd be46 95bd 8baf e43d
000002e0: 3443 49bd 8724 923d a628 8d3d 2c0b ec3c
000002f0: 8df7 32bc 3b5f 963d 3199 85bd c460 573d
00000300: 1dc6 d23e 97d8 523d b9fd 79bc 8c5c 193e
00000310: 864d 423d 68ef 2dbe 7881 19bd 9c89 8ebc
00000320: 179f 9b3d 3ad9 023d 4812 10bd f078 2f3d
00000330: 8574 74bc 20a0 933d 8ed9 093e 2617 953c
00000340: feff 353d 2acc 7a3e c9a4 d83b 54a7 0e3d
00000350: b2e2 ac3d cc64 ddbb d809 ea3c b498 c13c
00000360: 1612 08be 922b 123e 8d86 6abe f0ba 41be
00000370: 51f2 2ebc 867e a5bc a051 803e 641c 853d
00000380: 7e14 5dbc 8517 a93d d2e2 8bbd 5e6d db3d
00000390: 2bfe 57be ae1f 0e3d 52ca 4f3e abb3 cd3c
000003a0: 6694 713d 0900 86bd 9b36 9b3e 95ed 823c
000003b0: ef8a e83c a237 25bb a6a4 8d3b bb10 22be
000003c0: 18e0 44bd f39b 393c 924f f53e 3070 99bd
000003d0: 00fe 563c 8e8f 71be 0930 04be 3628 11be
000003e0: cceb 093e 41d5 a1be 47a8 c73d 02d8 8fbd
000003f0: 3c47 29bc 1ce0 943e 9d35 81bc b954 a2bc

bias f4 [8]
0.01398653 -0.21449423 0.005741589 -0.0003475688 0.06851262 -0.02523455 0.004158628 0.02785019
00000000: c227 653c 60a4 5bbe f023 bc3b e539 b6b9
00000010: 5850 8c3d b0b8 cebc 1a45 883b 1526 e43c

weight f4 [1, 50]
-0.017472865 0.0033681868 -0.00137014 -0.031056046 0.00808793 0.012667812 0.024327157 0.009388012
-0.023866246 -0.016687252 0.011036569 0.16563039 0.010361208 0.11896178 -0.00019804006 0.005846917
0.07420492 -0.0081942715 -0.009936538 -0.093745105 -0.030542413 0.2272 0.019464524 -0.020216519
-0.12662159 -0.25189027 -0.19773816 -0.013086937 0.08654378 -0.012390235 -0.010180097 -0.04320583
-0.05138644 -0.0035982714 -0.011997846 0.014018671 -0.03289815 -0.0039211023 0.007216863 0.016276248
-0.027197577 -0.037344124 0.06627376 -0.028441342 0.0048757093 -0.068434395 0.016753385 -0.033246953
-0.0017736874 0.04771878
00000000: 4123 8fbc ccbc 5c3b 4596 b3ba 4069 febc
00000010: 3d83 043c a88c 4f3c bf49 c73c 2dd0 193c
00000020: 2583 c3bc b4b3 88bc bad2 343c 039b 293e
00000030: 0ec2 293c 3ca2 f33d f9a8 4fb9 7f97 bf3b
00000040: c0f8 973d 4441 06bc dccc 22bc 6ffd bfbd
00000050: 1534 fabc 1ea7 683e 1174 9f3c 1d9d a5bc
00000060: 17a9 01be c3f7 80be df7b 4abe 986a 56bc
00000070: de3d b13d 6a00 4bbc 6cca 26bc 99f8 30bd
00000080: 967a 52bd fad0 6bbb 9d92 44bc 91ae 653c
00000090: 36c0 06bd 977c 80bb 6f7b ec3b c455 853c
000000a0: 74cd debc 27f6 18bd 89ba 873d d1fd e8bc
000000b0: 6ac4 9f3b 5527 8cbd 653e 893c f52d 08bd
000000c0: 137b e8ba c474 433d
