result/models/fixed_best.pth (torch, 69474 bytes, 11 tensors)

weight_ih_l0 f4 [200, 10]
00000000: 9d66 7ebd 092a 6ebd 67d2 68be fcce a83d
00000010: b6fc 423e 5d1a b93c d175 efbd 7886 22be
00000020: b28b cebd f9d5 22be ab39 753e 210b 163e
00000030: 1ef1 afbd 7dc6 ac3b c361 b13d 169d e3bd
00000040: 3347 6dbd 1020 e63b 71ce 50bd 4f19 613e
00000050: 5478 bdbd d616 7abd f84a 903d 2e0f a9bd
00000060: 6394 0fbe 7a81 6abd 9bf0 97bd f823 09bd
00000070: f550 3d3e 55e1 103d c22a f53c 5ab5 18bd
00000080: 4183 033e b3d0 e13c e210 213c 25b4 f1bd
00000090: 91a6 7f3d b6de 0dbd 2917 3b3e e47f 5ebe
000000a0: c104 c3bd 1ec8 44bd b10d 92bc e1a5 c7bc
000000b0: d782 e9bc ea24 953a 9795 3a3e 3dbe 62bd
000000c0: 55c1 403e 0b87 ecbe 49c5 4b3c 78d3 983d
000000d0: ad06 c63c 5b07 633e 9620 bbbb 3a10 2f3d
000000e0: 7fa9 8b3d ac5f 0d3d f814 ae3d 84ce 7c3d
000000f0: 0824 01bc 56ab d2bc 8162 fc3a c02e 1b3d
00000100: 17df 1b3e 8afb 533d c437 773d 372d b93d
00000110: 50d5 0ebe 3a9c 82be df14 03bd 4687 edbc
00000120: 1244 9e3d 3ef9 c83d f5e1 1fbd 634a 1cbe
00000130: b8fc 9a3d 06b9 9e3d b1eb 5bbd bf0f 6b3e
00000140: 273c 6bbe a893 953d d756 843d 9d2e 543d
00000150: 01e4 21be db2a 3bbe e9a2 14be 06cc 013e
00000160: 06fd ed3d 21b4 a4be 92b8 b1bd 9116 59bb
00000170: 047e 58bd 39a5 733d 21ff da3d 15ef 1abd
00000180: 2cbe 31be ec40 05bd 011e f63d 31ba 21bd
00000190: 4182 10be ff6c 993d 5835 3c3c c6f5 10bc
000001a0: d285 0dbc 5232 86bd 7936 e13c d366 1b3e
000001b0: 733e f43d 6020 bcbe 24ba 6b3e ff5d e8bc
000001c0: ba86 d23d 2bcf 64bd 0d3d 2e3e 514e 41bb
000001d0: a582 78bc 3144 f63d 91cf 2d3b 9419 9e3e
000001e0: 6047 87bd 0cd0 b53d e838 e53d 5861 183e
000001f0: 92bd 9ebd 181f c03d 7b10 07bd 463e 003e
00000200: cfaa d9bd 8f6f 3f3d c815 0fbe 5e12 f4bd
00000210: f189 adbd 902d f43d b87b c63c 0062 a43d
00000220: ca6f 8a3d 9b38 f6bd 83f6 313d 1b77 26be
00000230: d511 babd 55d2 a3bd 38e6 19be 7f12 54bd
00000240: f374 8c3c d6e4 1cbe afe5 8ebe cfce 8ebe
00000250: 3a76 883d 239c 823e 6c08 4c3e f663 bc3d
00000260: 2812 48be 2b96 373e 4660 803c a91e 35bc
00000270: 3475 533d 81b5 193d ca08 5fbe f32b afbe
00000280: bd05 9b3d 2ec1 88bd acaf 7f3d aadd 19bc
00000290: b5d8 a53d 600a 073d 4ee4 8bbd 5c37 f73d
000002a0: dab6 13be b1cd c3bd 8442 033e 9f67 df3d
000002b0: 91b7 9a3d f8a7 cfbc 6575 89bd 675d 093e
000002c0: a28c 4c3d f952 e53d 56be f7bc 9866 babe
000002d0: 96d9 c5bb 7f6e 1bbe efbf 05bc b36a d03d
000002e0: 96b7 b4bc 9924 623d ab55 793d d515 af3c
000002f0: 4007 fe3d 9ad0 15be d501 1cbe 00af 1abe
00000300: 0d51 083e f7c1 ccbd 4614 833d 1ad1 1bbe
00000310: 688e d63d 1709 47bc 5960 073c d128 edbe
00000320: 6aa3 823d 8069 09bb 352c 61be bd7c 463e
00000330: 331c c43d bece 853d 145b 1cbd fd0e 14be
00000340: 1507 7d3e c3cd 0a3e 6870 1c3e cf24 44bd
00000350: 60c7 2e3e b895 063e c7ae 6d3d 125b a5bd
00000360: bbd0 5c3d 045a 0c3e 0d8e 96bc 2868 ecbd
00000370: 3403 13be 52d3 65be 0368 3e3d 25dc 5a3c
00000380: 7f59 02be 6707 30be c43f 2abd 3145 7e3d
00000390: 3002 34be e138 623d afe9 b4bd e21a a1bd
000003a0: 1218 fbbd 3b16 c3bd 13dd 243e 6eed a8bd
000003b0: 9b0f 843d 8c9f f1bd db90 423d e4c4 533e
000003c0: 2752 ba3e 79d6 e43d fbca adbc 5161 c3bb
000003d0: fbb1 e33d fe45 523d d9f0 433e a174 233e
000003e0: 377e 1d3e 98a6 0e3e a521 963d f696 b43c
000003f0: 69e8 0a3d dcb1 063e 1d20 033e 03a1 4a3e
-0.06210958 -0.058145557 -0.22736512 0.08242604 0.19041714 0.022595579 -0.116923936 -0.15871608
-0.100852385 -0.15901937 0.2394778 0.14652683 -0.08590911 0.005272685 0.08661225 -0.11113946
-0.05792923 0.007022865 -0.050978128 0.2198231 -0.092514664 -0.061056934 0.07045549 -0.082548484
-0.14021449 -0.057252385 -0.07418939 -0.033481568 0.18487914 0.035371143 0.029927615 -0.037282325
0.12843038 0.027565336 0.009830685 -0.11801938 0.06241471 -0.03463622 0.18270554 -0.21728474
-0.09522391 -0.04804241 -0.017828794 -0.02437109 -0.028504772 0.0011378799 0.18221126 -0.055357207
0.1882375 -0.4619678 0.012437173 0.074622095 0.024173105 0.22170775 -0.0057106717 0.042740084
0.06819438 0.034515068 0.08500093 0.061720386 -0.007882126 -0.025716465 0.0019255431 0.03788638
0.15221821 0.05175356 0.060355917 0.09041827 -0.1394856 -0.25509816 -0.032002326 -0.028995167
0.07727827 0.09813164 -0.03903385 -0.15262751 0.075677335 0.07750134 -0.05369157 0.22955225
-0.22972165 0.07303554 0.06461876 0.051802266 -0.15809633 -0.18278067 -0.1451527 0.12675485
0.11620526 -0.32168677 -0.08677782 -0.0033125023 -0.052854553 0.05948374 0.10693193 -0.037825663
-0.17357701 -0.032532617 0.120174415 -0.039484207 -0.14112188 0.074914925 0.0114873275 -0.008847659
-0.008637862 -0.065525666 0.027491795 0.15175943 0.11925974 -0.3674345 0.23020226 -0.028365133
0.10279603 -0.055861633 0.17015477 -0.0029496143 -0.015167867 0.12024725 0.0026521424 0.3087889
-0.066054106 0.088775724 0.11192495 0.14880884 -0.077510014 0.09380931 -0.0329747 0.12523755
-0.10628282 0.04673725 -0.13973153 -0.11917566 -0.08473576 0.11922753 0.024228916 0.080265045
0.06759603 -0.120225154 0.043447983 -0.16256373 -0.090854324 -0.07999102 -0.15029228 -0.05177545
0.01714561 -0.15321669 -0.2790961 -0.27892157 0.06663175 0.25509748 0.19925088 0.091987535
-0.19538176 0.17928378 0.015670907 -0.011054673 0.051625445 0.03752661 -0.21780697 -0.34213218
0.07569454 -0.06677471 0.062423393 -0.009391228 0.08097974 0.03296888 -0.06830655 0.12071106
-0.14425221 -0.09560717 0.12818342 0.10908436 0.07554544 -0.025348648 -0.06711844 0.13414536
0.049938805 0.111974664 -0.030242126 -0.36406398 -0.006037901 -0.1517887 -0.008163436 0.10176601
-0.022060197 0.055210683 0.060872715 0.021372715 0.124037266 -0.14630356 -0.15235074 -0.1510582
0.13312168 -0.09997933 0.06400351 -0.15216485 0.104763806 -0.012148163 0.008262717 -0.46320203
0.06378825 -0.0020967424 -0.2198952 0.19383521 0.09575691 0.065335736 -0.038172796 -0.14458843
0.24709733 0.13555054 0.15277255 -0.047886666 0.17068243 0.1314305 0.05802801 -0.08074011
0.05391 0.13706213 -0.018378282 -0.11543304 -0.1435669 -0.22443894 0.046485912 0.013358151
-0.12729453 -0.17190324 -0.041564718 0.062077705 -0.1757896 0.055230025 -0.08833634 -0.078664556
-0.122604504 -0.095257245 0.16099958 -0.08248411 0.06448289 -0.11798009 0.047501426 0.20680577
0.36390802 0.1117372 -0.021214953 -0.0059625288 0.111179315 0.05133628 0.19134845 0.15962459
0.15380178 0.13930738 0.07330636 0.02204464 0.03391305 0.13153785 0.12805219 0.19787984

weight_hh_l0 f4 [200, 50]
00000000: abdf 293e 9ce3 84bc 43ec 80be d21f 8dbc
00000010: 171e a13a 39f8 2dbe bbc4 523e 5780 a93b
00000020: b0bd 7b3e c2ec 0fbd fd0b 3abe a6d0 303e
00000030: ad13 8e3d 5c47 80be f971 a83d 3767 393d
00000040: b1ef 1f3e 0828 a2be 1a89 7dbc 23e3 c93d
00000050: 2ddf e3bc b436 023e ff7e ac3e d3a5 a83d
00000060: 714a 213d 7627 b4bd 966b 54be 1cc9 823e
00000070: 0628 e63d 8a81 2c3d 3f98 133e da9b e7ba
00000080: acff 8b3e 94f1 cbbd 0d78 a43e 4d09 18be
00000090: cebd 423d 0cb3 75be 1b04 b4be 2ed1 2a3e
000000a0: d4a8 05be fbea 0a3e d481 9ebe 8b75 913d
000000b0: d5c6 c03e 3239 703c ceb2 97bc 0166 903e
000000c0: 2524 043e 1ee4 a13d 4d9e 39bd dcb9 2bbe
000000d0: 9ade 053e b565 b9bc 4094 00be a8a2 24bc
000000e0: e9ab c0bc 10d1 5f3d 9467 d23c 5019 7d3e
000000f0: 60d3 03be 9437 ffbd 99b3 05be 2eb4 aabd
00000100: 7886 e73d 8e72 e33d a034 c43d c97d ce3d
00000110: 2a8e 043e 9c47 b3bd b8d4 ee3d 2358 61bd
00000120: 797c 35bd 6ca2 86bd 5f40 61bd 6d84 dfbd
00000130: 4faf b43d fccf b53d 853a de3d d79b 86bd
00000140: 3471 ba3d 71bf 873e 0760 50be 70b2 bf3d
00000150: b694 e93d 9143 25bd e348 9abd 3578 333d
00000160: 6d04 023e 8115 8ebd cc62 84bd 0606 e13d
00000170: 0809 183e 7992 54be 9f1a cebd 1242 013e
00000180: 7ad0 9b3d b7e8 2d3e 3714 c23c 5894 d9bc
00000190: 2532 40be ee4f 5bbd 1f43 17bc 412d 28bc
000001a0: abfc 9dbd dc56 0dbe 3823 ecbd fbba ebbd
000001b0: 469f 0f3e 18e2 083c abde 71bd 108e 8dbd
000001c0: c701 d43d 3127 22be 0392 07be 096f e43d
000001d0: e13b d2bc 03f1 a9bd 264c 953d 021d f43b
000001e0: f58e ae3d 6177 25be 4dc8 813d da6e 13be
000001f0: d55a b53d 9ae9 413d 0ac0 cf3d a294 743c
00000200: e186 8cbd dac9 24bd ee28 6ebd 2530 2cbe
00000210: 61e6 e63d 56cf b7be 8250 b13d b289 b93d
00000220: 6cb6 8a3d 492b 40bd ab85 b83d 8173 6a3d
00000230: c992 2d3e 2a83 b2bd f197 65bd 1929 2cbd
00000240: 51f7 1e3d 31d9 a4bd ba49 e2bd 0e2d ca3c
00000250: cde2 093e 0cf6 18bd 16b1 ff3d 2b73 64bd
00000260: eaba 86bd 6b7b d83d cb76 8c3d 85ba 8f3a
00000270: 4c47 143e 0497 4fbc bee6 bc3d 79df a8bd
00000280: 85cb f53d ddc9 0c3d 528c 99bd 92b9 a93d
00000290: 4e71 613d 88c2 843d 814d eabd 6fc6 1dbd
000002a0: 91ec c63d 4340 acbd 6e40 593c 39c5 2dbd
000002b0: 24a2 cd3b 493e 6ebc 8208 983c 9e4a 143e
000002c0: b66b d93d f3e4 a0bc 990f 6c3d ab66 1bbe
000002d0: 0cef b7bd 797b 303d e3a5 2d3e 4ce4 c0bd
000002e0: c210 51bd 07fc 523d 274f 243d d29e ec3d
000002f0: f810 b7bd 529c 203d 5250 6dbd 7f37 3fbd
00000300: fc09 8ebc 5362 b43d 6b23 92bd 296a 113d
00000310: 5a04 783d 11ff 233c 9aa3 f33d ec0e afbd
00000320: 0e6d a73d b622 263d 704f 41bd 88a8 a5bd
00000330: 0894 d53c 460b 74bc 1092 173e 6418 29bc
00000340: 1d34 503e 3db4 113e 9167 1bbe 35d4 b4bd
00000350: 3ac1 0b3d a2ee 44be 8104 cd3c 2f31 663d
00000360: d0d6 793d 3933 c8bb b8c5 18bd d1d1 96bd
00000370: f7c5 463d 2f46 2c3d 9e86 8e3d 8b3f 8b3d
00000380: f4ce 1dbc 187a 4b3d de94 ca3a 5951 473d
00000390: ed49 a8bd 8f7c e9bd 4a49 493b a237 3abe
000003a0: 62d6 89bd a669 0bbe 19e0 34bd cae4 47bd
000003b0: 5733 8dbd 0f6b 2f3d c7da 5fbd 0d6a 33bd
000003c0: d28b 33bd d169 29be 0cef 2ebe 527d 56bd
000003d0: 04ea 5d3a a998 3abd 5824 ac3d 4da5 1fbe
000003e0: e313 ba3c c021 e6bd 838e cfbd dccc eeba
000003f0: e3f6 26bd 56df e9bb 189d 7b3d f790 63bd
0.16589229 -0.016221814 -0.25180253 -0.017227087 0.0012292293 -0.1698922 0.20582859 0.00517277
0.24584079 -0.0351379 -0.18168636 0.17267093 0.069373466 -0.25054443 0.082248636 0.04526445
0.15618779 -0.31671166 -0.015474582 0.09857776 -0.02781638 0.1271618 0.3369064 0.082347535
0.039377633 -0.08796589 -0.20744166 0.2554406 0.112381026 0.042115726 0.14413546 -0.0017670349
0.273435 -0.09958187 0.3212284 -0.14847298 0.047544293 -0.23994082 -0.35159382 0.16681358
-0.13052684 0.135662 -0.30958426 0.07102498 0.37651697 0.014662074 -0.018517878 0.28202823
0.12904413 0.07904838 -0.045316983 -0.16770118 0.13073197 -0.022631506 -0.12556553 -0.010048546
-0.023519473 0.054642737 0.025684156 0.24716687 -0.12873602 -0.124617726 -0.13056792 -0.08335148
0.11304945 0.11105834 0.0958035 0.10082585 0.12944856 -0.08753893 0.11661667 -0.055015694
-0.04430816 -0.06573948 -0.05499303 -0.1091393 0.088225 0.088775605 0.108510055 -0.06572693
0.09103623 0.26513246 -0.20349132 0.09360206 0.114053175 -0.04034764 -0.07533433 0.04381581
0.12697001 -0.06937695 -0.064641565 0.10987477 0.14847195 -0.20759 -0.10063671 0.1262286
0.07608123 0.16983305 0.02369128 -0.026559994 -0.18769129 -0.053543024 -0.0092323115 -0.010264696
-0.07714208 -0.13802665 -0.11530155 -0.11510273 0.14025602 0.008354686 -0.059050243 -0.06911862
0.103519015 -0.15835263 -0.13239293 0.11153991 -0.025663318 -0.082979225 0.07289915 0.007449747
0.08523361 -0.1615882 0.063370325 -0.14397755 0.088552155 0.04734192 0.101440504 0.014928015
-0.068616636 -0.040231563 -0.058144502 -0.1681524 0.1127441 -0.35900372 0.08657934 0.090594664
0.067730755 -0.04691628 0.0900987 0.05723906 0.16950525 -0.08716424 -0.056053106 -0.04203138
0.038810078 -0.080492385 -0.110492185 0.024679687 0.13465424 -0.037344024 0.12484948 -0.055773895
-0.0657862 0.10570415 0.068585955 0.0010965621 0.14480323 -0.012670282 0.09223698 -0.08245749
0.12001709 0.0343722 -0.07497467 0.08287348 0.055039696 0.064824164 -0.11440564 -0.03851932
0.0971309 -0.084106945 0.01325999 -0.042424414 0.006275432 -0.014541217 0.018558744 0.14481589
0.10616247 -0.019640421 0.057632063 -0.15175883 -0.089811414 0.043086503 0.16957812 -0.09418544
-0.051041372 0.051509883 0.040114548 0.1155373 -0.089387834 0.03921158 -0.057937928 -0.046683785
-0.017338745 0.08807816 -0.07135662 0.035501633 0.060551025 0.010009543 0.11896439 -0.08547768
0.081750974 0.040560447 -0.047194898 -0.080887854 0.026071563 -0.014895266 0.14801812 -0.010320757
0.2033238 0.14228912 -0.15176226 -0.08829538 0.034119822 -0.19231656 0.025026562 0.05619925
0.060995877 -0.006109622 -0.037297934 -0.07364238 0.048528638 0.04205912 0.0695927 0.06799229
-0.009631861 0.049676985 0.0015455743 0.048661564 -0.08217225 -0.11400711 0.003071385 -0.18185285
-0.067303434 -0.1361452 -0.04415903 -0.048802175 -0.06894558 0.04282671 -0.054652 -0.04380231
-0.043834515 -0.16544272 -0.17083377 -0.05236561 0.0008465352 -0.045555744 0.084053695 -0.15590401
0.02271456 -0.11236906 -0.10134604 -0.0018219012 -0.040762793 -0.0071372194 0.061429113 -0.05555817

bias_ih_l0 f4 [200]
00000000: 3cda ecbb a079 c03d 8b6a 3e3e 632f aabc
00000010: 4d82 a8bd 3762 923d 3ed4 643d 6d64 a2bd
00000020: f9c2 8bbd 8925 363e f5cd af3d f30d 6f3d
00000030: 6eb9 923c 23ab 1d3e 29ee de3c 587f a83d
00000040: 4354 09be 7cb2 4d3d 95c8 b93d 197c 263d
00000050: 9be7 653d d9a1 8f3d 0d57 3f3e b9db 123e
00000060: 83fb 7ebd fffa e43c f48d 043c 83a8 dabc
00000070: bfec f43d ecd6 163e 64e8 693d c0f6 f13b
00000080: c31a dd3d 4b4c c43d 957f 283d 90c6 403d
00000090: 8d21 40bd 9356 303b 4b09 573c 5b07 453e
000000a0: 295d 1fbd 872f dabc 75ba fa3c 3350 39bd
000000b0: 4c84 49bd d010 80bd daa1 bb3d 058f 403e
000000c0: 92f5 7dbd 0413 63bb 06f5 89be 2c59 0c3c
000000d0: 8a76 5dbd 274c f8bc 4cd3 103d 7b03 2abc
000000e0: 870b 98bc d62e 2ebc b085 3dbe 7f27 debc
000000f0: da2a 25be da11 b2bc cf43 b9bd 375c fd3d
00000100: f4bf 0abe 4221 0dbe 8423 f23a 0f42 ec3d
00000110: db1e c3bb 9a88 0b3d 8bb4 00be 1c55 fbbd
00000120: 2172 19bd 0c25 f5bd b0f7 f23c 3770 9b3d
00000130: 28c1 75bb 519c b03d 4a69 89bd 21fc a73c
00000140: 13ae d2bb 2ed1 aabd 41a8 72bc aab8 16bc
00000150: de9c 28be ee3d ecbd d715 c1bc 4dcf dbbd
00000160: 4472 443d 3658 0c3d 97fc 763d 5162 223e
00000170: 0c28 ce3d 6698 883d 9353 00be 21b5 d0bd
00000180: e992 bbbd d76d 1bbe f742 b4bd c45f a1bd
00000190: 7c2d cbbd 8c8f 9bbd d641 063d 9173 383d
000001a0: 99be cebd b292 8f3d a0c2 e83d 98ec 91bd
000001b0: 4f4b b73c 25b7 c43d ada8 2ebd 3c23 d03c
000001c0: 9825 17bd 043d e4bd 9577 1dbd 6a81 8d3d
000001d0: 63f3 d03d b1ea 333d 322b 15be dfe8 893b
000001e0: 04f8 5fbc a6bc 33bd 99b2 8ebd 4ff0 b53d
000001f0: 4218 86bd a1b5 96bd a81d 283d ef31 883d
00000200: 3308 21bd 0e5c e43d ee3d 31bd 745b ae3d
00000210: 152d b9bd 1a19 87bd 91ad 963d 0cf3 183e
00000220: 01ee 81bd 4ba3 8bbd 57c7 02be f4bf c1bd
00000230: 0a04 32be 9400 323e 59a8 9a3d a695 27bd
00000240: 4d62 6dbd 4bc2 b53d 3690 b43c da4d dd3d
00000250: f3b6 913d ad78 3ebd 62bc 3a3e d88b 7fbd
00000260: 2ff4 ea3d bdd8 8ebd 042a 7d3d 2fa3 443d
00000270: d0c9 ca3d 6cbb 6bbd da0d da3d 8744 503e
00000280: ddd6 413e 32ad bf3d 12ce 98bc 7325 743d
00000290: 23e3 6e3d 4834 0239 c54c d0bd d093 233e
000002a0: f617 5d3d aa9f bb3d 2e41 223b 6065 0a3e
000002b0: 9ac1 ebbc ad24 db3d 7841 e03d 7616 313d
000002c0: 2c37 4f3d 3a22 ce3d ab8c ad3d 491f 8a3b
000002d0: 571d c1bd 64bc f63d 5373 d93d 8301 68bd
000002e0: 69ec 14bc 4d90 e4bc feef fc3b 802b f03d
000002f0: 04d0 3a3e e12f a6bd 0954 893b 7413 96bd
00000300: ec56 cbbd b040 f9ba 4703 083d 0b6d eabc
00000310: eac2 cebc c5f1 6c3d c5b8 d43d ad0e cd3c
-0.007228164 0.09398198 0.1859533 -0.020774549 -0.08227978 0.07147639 0.055866472 -0.07929311
-0.068242975 0.17787756 0.08584205 0.058362912 0.017910685 0.15397315 0.027213173 0.08227414
-0.1341105 0.050219044 0.09071461 0.040645692 0.05612908 0.07013292 0.18685551 0.1434163
-0.06225158 0.027951716 0.008090485 -0.02669168 0.11959218 0.14730424 0.05710639 0.007384151
0.1079612 0.09584864 0.041137297 0.047064364 -0.046906997 0.002690707 0.013124774 0.19241087
-0.038907204 -0.02663399 0.030606488 -0.0452425 -0.049198434 -0.06253207 0.0916173 0.18804558
-0.062001772 -0.0034648785 -0.2694475 0.008566182 -0.054068126 -0.03030975 0.03535776 -0.010376806
-0.018560184 -0.010631284 -0.18508029 -0.027118443 -0.16129628 -0.021737028 -0.090461366 0.12371104
-0.13549787 -0.13782218 0.0018473719 0.11536037 -0.005954606 0.03406582 -0.12568872 -0.12272093
-0.037462357 -0.11969957 0.029659122 0.07589763 -0.0037499163 0.08623565 -0.067095354 0.020505967
-0.0064294427 -0.08340679 -0.014810623 -0.009199301 -0.1646609 -0.1153525 -0.023569984 -0.10732899
0.047960535 0.034263812 0.060299482 0.15857817 0.10066232 0.06669693 -0.12531881 -0.101907976
-0.0915888 -0.1517862 -0.08801835 -0.07879594 -0.09920785 -0.07595739 0.03277763 0.045032088
-0.10094947 0.07010402 0.11365247 -0.07125205 0.022374777 0.096052445 -0.04264133 0.025407426
-0.036901087 -0.1114445 -0.03844412 0.069094494 0.10202672 0.04392499 -0.14567259 0.0042086686
-0.013669971 -0.04388108 -0.069676585 0.08883726 -0.065475956 -0.07358862 0.041043907 0.06650149
-0.03931446 0.111503705 -0.04327195 0.08513537 -0.09041802 -0.065965846 0.07357324 0.14936465
-0.06344224 -0.06818255 -0.12771355 -0.0946044 -0.17384353 0.17383033 0.07551641 -0.0409142
-0.057955075 0.08874949 0.022041421 0.10805865 0.07114973 -0.046501804 0.18235925 -0.062389225
0.114723556 -0.06974933 0.061807647 0.048007187 0.09901774 -0.057551786 0.10647173 0.20338641
0.1892962 0.09359206 -0.01865295 0.059606027 0.058322083 0.00012417242 -0.101708926 0.15974355
0.05397793 0.09161313 0.0024758088 0.13515234 -0.02877884 0.10700355 0.10949987 0.04323431
0.050589725 0.10065122 0.08474096 0.0042151553 -0.09429424 0.120476514 0.106176995 -0.056642067
-0.009089568 -0.02790084 0.007719039 0.11727047 0.18243414 -0.08114601 0.004190926 -0.07327929
-0.099286884 -0.0019016471 0.03320625 -0.028616449 -0.025239427 0.057847757 0.103868045 0.025031412

bias_hh_l0 f4 [200]
00000000: 7d38 603e e08c 3b3e d932 9b3c 1dd7 28bd
00000010: 498c e0bd 05a6 083c 9c80 343e 2eec eebd
00000020: 1726 003e 5d33 403e 4e5f 4f3d b555 12bd
00000030: ed07 3b3e 0713 1fbb 7687 c23b 353f b6bd
00000040: ee17 9fbd 1e18 453e 97b6 b03d b26b e73d
00000050: 2f59 d63d 7908 b83d 8d9d 0cbd 7b80 c23d
00000060: 3c38 933d 6155 843d ffc2 5f3d af01 7dbd
00000070: 2c60 fabd 8063 e2bd 7dbd e63d 5dc9 723e
00000080: 2230 dbbd e78f 79bd 97ee 713d 8008 29bd
00000090: dfaf 783d b1c9 2b3d c229 213d 9800 4e3e
000000a0: 5dfe 9ebd fb51 77bd 5b79 953d c04d 8dbd
000000b0: 2e17 19be c6df 7dbd be87 8d3d a257 493e
000000c0: 20f4 9e3d 26c2 59bd 4191 67be 81f2 ce3d
000000d0: 435d f2bd 77dc 28bd 4f4a bebc deb1 233c
000000e0: 1e3c ddbb 6b55 07be 1647 8f3b daed 04be
000000f0: 31d9 703d 6ef6 3f3d 70dd 17be 37a4 38bc
00000100: 2dd3 cfbd f1a9 0fbe 2eb3 c0bd 4d77 023e
00000110: 513e 843d 8e57 0c3d 3d0a bbbd dc4b abbd
00000120: abd1 3dbe ab27 28be 6ecb eebd ac9d eabd
00000130: ec26 eebd 732b 15be cf32 60be b572 8ebd
00000140: 7328 03be f5fc bcbd 2d73 a23d 769a e3bd
00000150: e8a2 28be 5917 7bbd 077d e63d 4297 ec3c
00000160: 5961 b2bb 7628 9b3d 9ddb 473d fc2a 023e
00000170: ca0a 8cbd 6027 f4bd 29cc dabd f5ad d13d
00000180: b137 8fbd b424 2d3d b5bf cfbd feeb 18be
00000190: 219a 873b ebce 2e3d 072d 21bd c55d b4bc
000001a0: 3ac8 2b3d e310 b7bc 42e2 85bd 114b c03d
000001b0: 3612 7f3d b3de 1c3d 5e1a 3f3c 94c2 dfbd
000001c0: 3248 30be e5ea 07bd 33b3 673d 8bc5 3dbd
000001d0: 85c2 d13c ec02 9bbd 5681 6b3d 2431 0b3c
000001e0: aca1 d63d 1156 f6bc f6b2 c43d 9b5f 7fbd
000001f0: 6e5c 6dbd 27a6 e73c 44e8 e3bd ceb7 01bc
00000200: 9032 be3d a508 8dbd 2eb4 0f3e 60b7 c0bd
00000210: 4be5 93bd 4090 103e cef8 153c 8b55 a2bd
00000220: bb20 eabd ec5b 0bbe c112 9ebd 2ff6 8cbd
00000230: fed6 31bd 4ad6 cd3d dd91 453c ad5c 573d
00000240: 56f4 0f3d 5b73 04bd 8c83 acbd ffac 933d
00000250: 1bad 3fbd d2b8 003d 581d 0cbd 62b4 b9bd
00000260: a119 403d ad93 ae3a d323 f83c ab64 003d
00000270: 252b a53d 997a 753d 4e29 133e b9dd 043e
00000280: f27c 74bc 539e 103d d3ad d93d 936b cc3d
00000290: 228e b43b e353 b83d a8c4 4bbd bc3a b83d
000002a0: ba72 efbd e8ff 873d 49ba 9ebd 7ba5 e73d
000002b0: f42b e23d af92 673e fed6 903a 5857 ee3d
000002c0: 98e1 023e a8d3 93bc 0747 f63d afcc 873d
000002d0: 9dc4 143d f133 823e 5ef1 55bd 5acf 223e
000002e0: 4d5d dd3d 5249 1b3d bd75 aebd 6802 533a
000002f0: 0982 803d b6d2 6b3d 80b6 423c 2d34 113e
00000300: 0c35 5ebd 5383 d53c cc13 d9bc 95d3 82bd
00000310: 8e82 e8bd 837f da3d ac54 7dbd e0ed bebd
0.21896549 0.18315458 0.018945144 -0.041220773 -0.10964257 0.008340363 0.17627186 -0.116661415
0.1251453 0.18769594 0.050628 -0.035726268 0.18264742 -0.0024272816 0.0059365584 -0.088987745
-0.07768236 0.19247481 0.08628576 0.11299838 0.10466229 0.08985991 -0.03432994 0.09497162
0.0718846 0.06461597 0.054629322 -0.061769184 -0.122253746 -0.11054134 0.11266611 0.23709626
-0.1070254 -0.06092825 0.059065428 -0.04126787 0.0607146 0.041940395 0.039346464 0.20117414
-0.0776336 -0.060380917 0.07298537 -0.06899595 -0.14950249 -0.061980985 0.069106564 0.19662336
0.07761407 -0.05316367 -0.22614004 0.10104848 -0.118341945 -0.041225877 -0.023228792 0.009991137
-0.0067515513 -0.13216178 0.004372488 -0.12981358 0.05880088 0.046865873 -0.14830565 -0.011269621
-0.101477005 -0.14029671 -0.09409176 0.12740822 0.064571984 0.034263186 -0.09132812 -0.083640784
-0.18537013 -0.16421382 -0.11659895 -0.11455855 -0.116285175 -0.14567356 -0.21894382 -0.069554724
-0.12808399 -0.09227935 0.07932124 -0.111134455 -0.16468394 -0.061301563 0.11254316 0.02888072
-0.0054437337 0.07576077 0.048793424 0.1271171 -0.06837995 -0.11921573 -0.10683472 0.10238258
-0.06993044 0.04227133 -0.10143987 -0.14933774 0.0041382466 0.0426778 -0.039349582 -0.022017369
0.041938998 -0.02234692 -0.06537296 0.09389318 0.062273227 0.03829832 0.011664001 -0.10925785
-0.1721504 -0.033182997 0.056567382 -0.04633097 0.02560545 -0.07568917 0.05749639 0.008495603
0.10480055 -0.030070337 0.096044466 -0.062347036 -0.057949476 0.02827747 -0.111282855 -0.007917358
0.09286988 -0.068864144 0.14033577 -0.09409976 -0.072214685 0.14117527 0.009153558 -0.07926472
-0.11432024 -0.13609284 -0.07718421 -0.06882893 -0.043417923 0.10050638 0.012058702 0.052578617
0.035145126 -0.032336574 -0.08423528 0.07210731 -0.046795946 0.03142626 -0.034207672 -0.090676084
0.04689944 0.0013319157 0.03029052 0.031346004 0.0806487 0.05993137 0.14371225 0.12975205
-0.014922367 0.03530724 0.106288575 0.09981456 0.0055101076 0.09000375 -0.049748093 0.08995578
-0.11691804 0.06640607 -0.07750375 0.1131086 0.1104354 0.22614549 0.0011050401 0.11637753
0.1278137 -0.018045262 0.12025266 0.06630837 0.036320318 0.25430253 -0.05223214 0.15899411
0.10808811 0.03791172 -0.085185505 0.000804937 0.06274802 0.057573996 0.011884332 0.1418006
-0.05424981 0.026063597 -0.026498698 -0.06388012 -0.11353026 0.10668852 -0.061848328 -0.09322715

weight f4 [50, 50]
00000000: bd0d 8abd 5eaf 1a3c 66c3 b43d 5c16 283e
00000010: 6978 d5bd 756b 353c d51f 023d d5c7 183e
00000020: 7806 d7bd 34ec 8dbd bf70 b83c e14d 39be
00000030: 7e26 dabd 75c5 983d 883b 38bd cbe4 843d
00000040: 207e 31be ca4d 0e3e 6272 1dbe 1ce8 69be
00000050: b4fe 403e 2c73 a23c 801a b5bd 65bf 6a3c
00000060: 5c1d 2bbe f13f 3cbe 9b35 03bc e4f9 60bb
00000070: 61ff c4bd 4c18 9c3d d78b ec3d 1aeb f03d
00000080: 6448 7a3d 79ed 133e 5159 893d c8e5 28bc
00000090: ea68 11bd f60a 543e 98b3 063e 1dba 47bd
000000a0: 059e 0cbe ed4a 743d ad4f 573e b1cd 033b
000000b0: af52 32be 98b7 4b3e 31bd f2bc 8517 5fbe
000000c0: 4084 58be 7190 15bd b3ff d13d b34c 04be
000000d0: b0ae 93ba 3aa3 72bd c954 2ebd 716a 6abd
000000e0: 4e8d 3a3d 8ded 31be 0db5 b9bd 7515 223e
000000f0: 4c2a e7bd 2069 88bd 32a0 b03d ddd2 61bd
00000100: e4f0 bbbc e5f7 b9bd cae5 213d 8afc fabd
00000110: 754e f13c 0b50 ef3c 1977 0bbe 0a9f b4bb
00000120: e429 cdb9 ad89 b93d 4572 2e3e 7ce7 233e
00000130: 8851 9abb 947b 893d 3872 0ebe 1275 55bc
00000140: f3e6 a8bd 2c54 85be 0924 223e 528b ad3c
00000150: 0e45 c23d 727a 56bd ad8b c7bd c5b3 3ebd
00000160: e9e7 a63c bef9 e13d 8b4c 6e3e 0585 43bd
00000170: b32e 17be 31f6 483d 9f35 cc3d ad59 babb
00000180: 801a d23d 6521 1b3e 7089 1f3e 4ff0 fc3d
00000190: e06c c1bd 0da1 183e 8203 97be 807c 47be
000001a0: 1bf4 473e 6d36 b63d 4fda c6bc 8be6 0ebe
000001b0: 14bf 91bb 1a74 89bd 1573 453e cf3e 073e
000001c0: d3b9 453d ca2b d63d 9172 e5bd 85f9 493c
000001d0: bf6a 323e 89de 06be e28f e33c f214 9a3d
000001e0: 2630 353e d1fd 143e e66d 0a3e 765a 8c3d
000001f0: 27f3 a53d 22d2 14bc 6e44 203d 6ada 073d
00000200: 1af1 783e dd7c 26be fd98 163e b8a6 263d
00000210: 3e95 10bd 34e1 36bc 5276 883d d2bd 0abe
00000220: a0eb 973d 8e45 fb3d f1c3 1abe 4cc2 b33c
00000230: 650b 37be 9e95 7abd aa9d dd3c a0a6 b2bd
00000240: 7f10 4d3e dad5 43bd 1c7a 23be 35aa 2a3e
00000250: 4f0a aabc f30b 8f3d 9de6 893e 343b 0ebc
00000260: 7284 283e 3904 193c cf8a f7bc 49d7 4ebe
00000270: d35a 51bd 3932 76bc 40b2 993d 6428 b63d
00000280: 6169 47be 4cf3 c0bc 88df 953d 48dc 4a3d
00000290: 5c7a e3bd f805 a3bd 715a b5bd 4bf6 27be
000002a0: d378 cebd daa0 2abd 853c 08be a15e 843d
000002b0: 43a1 ec3d 8cfa 50bc 87c3 babd 39df 7f3d
000002c0: 982f bfbc bf57 5bbd 1773 89bd 605d 903d
000002d0: 1862 c53d 9058 25bd 9d72 93bb 4edb ecbd
000002e0: 9d9b 1a3e f8ff 60be 42e2 263d 775b 89bc
000002f0: e018 0ebd 4dc8 6c3d 35e6 f73d f663 373d
00000300: 3a53 8e3d 3c36 a43c 0432 b5bd 25d8 57be
00000310: b6e8 233e 9996 b63d 3119 91bd feaa 8b3d
00000320: 22a0 32be d5e5 aa3d 6728 163d 461a 65be
00000330: 2eea 2b3e 1fab 4abe 64ba 213e c52e 13be
00000340: 8765 203d 8e05 7dbd 1dff 8cbd b027 4a3d
00000350: 89dd 353e 2893 2e3c 6fc5 23bd a099 1bbd
00000360: e519 ff3b 2819 f8bd d10c 08bb bab5 183d
00000370: 84b8 d33d f812 633e d8fc ad3d edd2 0a3e
00000380: 14a7 2fbc f61c 243e a9c4 ba3d b88f 503e
00000390: e8d5 8c3d a97a 9e3b fffa f2bd 862c 263e
000003a0: ab00 a7bb 6b6f f33c c38a 9cbd 3b3b 38be
000003b0: 77a2 5d3e 02f3 31ba 86a8 8cbd a64c 023e
000003c0: 5605 15bc 833e 71be 249e 673d cf5a 67bd
000003d0: 7bde 163e 6ddc 88bd 87e4 1abd b428 fb3b
000003e0: 4e12 37bd 74ce 5cbd 128a edbc 78fd 85bb
000003f0: 2b1c f43d 2ead f1bc 6890 a6bd 9246 53be
-0.067409016 0.009441225 0.08826332 0.1641478 -0.10423357 0.011072983 0.03176864 0.1491998
-0.10499281 -0.06929818 0.022514699 -0.18096115 -0.10651873 0.07459537 -0.04497865 0.06488951
-0.17333269 0.13896862 -0.15375665 -0.22842449 0.18847162 0.019830309 -0.08842945 0.014327859
-0.16710418 -0.18383767 -0.008008386 -0.0034328634 -0.09619022 0.07621822 0.1155011 0.11763592
0.061104193 0.14446057 0.06706489 -0.01030869 -0.035500444 0.20707306 0.13154447 -0.048761476
-0.13732155 0.059641767 0.21026488 0.0020111615 -0.17414354 0.19894254 -0.02963123 -0.21786316
-0.211442 -0.036514703 0.10253849 -0.12919883 -0.0011267271 -0.059237696 -0.042561326 -0.057230417
0.045544915 -0.17375775 -0.09067736 0.15828498 -0.11287364 -0.06660676 0.08624305 -0.055132736
-0.022942014 -0.09080485 0.039525785 -0.12255199 0.029456357 0.029212972 -0.13619651 -0.005512123
-0.00039131858 0.09059463 0.17035778 0.16006273 -0.0047094263 0.06713024 -0.13910758 -0.0130284
-0.08247175 -0.2604078 0.15834059 0.021184597 0.094858274 -0.052362867 -0.09743438 -0.04655816
0.020374255 0.11033963 0.23271386 -0.04773428 -0.14763908 0.04906291 0.09971165 -0.0056869597
0.10258961 0.15149458 0.15579772 0.12350523 -0.094445944 0.14905186 -0.29494864 -0.19481087
0.19526713 0.088971 -0.02427402 -0.13955133 -0.004447827 -0.06711598 0.19282182 0.13207553
0.04827292 0.10457571 -0.112034924 0.0123275565 0.17423533 -0.13170828 0.02777857 0.07523526
0.17694148 0.14549948 0.13518485 0.068531916 0.08103018 -0.009083303 0.03912776 0.03316728
0.24310723 -0.16258569 0.14706798 0.04068634 -0.03529858 -0.011162091 0.06663193 -0.13548973
0.07417989 0.12269126 -0.15113808 0.021943234 -0.1787544 -0.061177842 0.02705272 -0.087231874
0.20025824 -0.047811367 -0.1596455 0.16666491 -0.020756869 0.06984701 0.26933756 -0.008681107
0.16456774 0.009339386 -0.030217556 -0.20199312 -0.051112007 -0.015026622 0.075047016 0.08894423
-0.19473793 -0.023553513 0.07318026 0.049526483 -0.111073226 -0.07960123 -0.08855141 -0.16402547
-0.10081639 -0.041657306 -0.13304336 0.064633615 0.11554196 -0.0127550475 -0.09119325 0.06246874
-0.023338124 -0.053550478 -0.06711405 0.0704906 0.096378505 -0.040367663 -0.004499747 -0.115652665
0.15098424 -0.21972644 0.04074312 -0.016767247 -0.03469169 0.05780821 0.121044554 0.044773065
0.06949468 0.020045392 -0.0884743 -0.21078546 0.16006741 0.08915443 -0.07084883 0.068197235
-0.17443898 0.08344618 0.036659624 -0.22373304 0.16788551 -0.1979184 0.15793759 -0.1437331
0.039159324 -0.061772875 -0.068845965 0.049354255 0.1776029 0.010655202 -0.03998321 -0.037988305
0.0077850693 -0.12114173 -0.0020759592 0.037282683 0.10337928 0.22175205 0.08495492 0.13557024
-0.010720987 0.16026673 0.09119541 0.20367324 0.06876737 0.0048363996 -0.1186428 0.16227922
-0.005096515 0.029716214 -0.07643654 -0.17991345 0.21644007 -0.0006788225 -0.06868081 0.12724552
-0.0090955105 -0.23559003 0.0565473 -0.056483086 0.14733307 -0.06682668 -0.037815597 0.0076647643
-0.04469519 -0.053907827 -0.028996501 -0.0040890537 0.11919435 -0.029501524 -0.08133012 -0.20632389

bias f4 [50]
00000000: a69e ca3d a46b debd 966d d93c d63a ec3c
00000010: a4c4 8e3d a57d b9bd d2de acbd 01d9 18bd
00000020: beb6 4abd 91f6 8dbd 9e82 053b 0257 19bd
00000030: 73b2 a0bc fb35 33bd 2d5a 70bd 2535 ea3d
00000040: 36a5 cb3d 95fa e43d a0f1 e73c b068 ac3c
00000050: 2287 fabc 3547 003d d593 37bd c3de bebc
00000060: e54d 8cbc 2a31 75bd c6fb e53d 52de 58bd
00000070: 74f8 c43d fe00 ae3c 6955 183d a302 343d
00000080: b2ca 3fbd ce96 3ebd 5713 b03d 1145 003c
00000090: be60 c9bd a3de 923d 217c 10be 56d3 0ebe
000000a0: ec3b b4bd 8dbc b9bd 095e 273d 94a4 703d
000000b0: 4d23 463d c904 6c3d ff83 94bd 1d9a f33d
000000c0: 84f1 7ebd 71da d63d
0.09893541 -0.108603746 0.026541512 0.028836649 0.069711 -0.09057168 -0.08440937 -0.037316326
-0.049490683 -0.069317944 0.0020372043 -0.037436493 -0.019616341 -0.04375265 -0.05867975 0.11435918
0.09943621 0.11180607 0.028313458 0.021046013 -0.030582014 0.03131791 -0.044818718 -0.02329958
-0.017126987 -0.05986134 0.112296626 -0.052946396 0.09617701 0.021240707 0.03719083 0.043947827
-0.046824165 -0.046530537 0.08597439 0.007828967 -0.09832905 0.07171371 -0.14109851 -0.13947806
-0.08800492 -0.09069166 0.040861163 0.058750704 0.04837351 0.05762175 -0.07251739 0.11894629
-0.062242046 0.10490883

weight f4 [1, 50]
00000000: 1226 183e 42d3 06be 6cee c0ba 24f4 10bd
00000010: c3f4 0cbd 9024 33be 1138 003e 9fec dbbd
00000020: 6d5a 143e d4d6 023e b642 9d3e 5389 b23d
00000030: a23f df3d 8eea f0bd bfaf edbd a598 10be
00000040: bef4 40be 7b58 423d 2b5d 4d3e 686b 933e
00000050: 5302 933d b54c debd b32b 8fbc 6ed0 1cbe
00000060: 0677 5d3e 6880 6fbd 5aba 493e 21c6 7f3d
00000070: c91a 1ebe fbf5 0fbe f657 d33d 40f5 993e
00000080: 09aa b43c 2598 163e 1a6e e83c b5ae 7a3c
00000090: b037 873d 3b02 5f3c 224f f3bd 9641 80be
000000a0: 862f ce3c 6c23 05bd c677 9a3d e301 8fbd
000000b0: c2c3 d5bc 9bf4 58bd 92a6 5cbc 211e b33d
000000c0: 1482 a53d 6be7 65bd
0.14858273 -0.13166526 -0.0014719493 -0.03538908 -0.03441311 -0.17494416 0.12521388 -0.10738491
0.1448762 0.12777263 0.3071496 0.08717599 0.10900809 -0.11763488 -0.116057865 -0.1412073
-0.18843362 0.047447663 0.20055072 0.28792882 0.07178178 -0.108544745 -0.017476892 -0.15313885
0.21627435 -0.058472067 0.19699994 0.06244481 -0.15439905 -0.14058678 0.103195116 0.30069923
0.022053735 0.14706476 0.028372813 0.015300442 0.066024184 0.013611372 -0.11880328 -0.25050038
0.025169145 -0.032504484 0.07542376 -0.06982782 -0.026094321 -0.05296765 -0.013467448 0.08745981
0.08081451 -0.0561289

weight f4 [1, 50]
00000000: 8895 593e 9d58 42bd b80a ebbd 4888 acbd
00000010: 0a80 32be e91f 8abc 4a4b 6e3d b1f6 37bd
00000020: 56da 213c fd6e 5abe f809 5cbe 443b 4b3d
00000030: 4504 153e 45c6 303d 2736 393c 4ab0 c33b
00000040: 6507 2bbe 8dd0 863e 06e4 c6bd 3682 f93d
00000050: 2dd3 473d 0ea8 e2bd e986 3f3e 786b 02bd
00000060: 02bd 22be 9318 6d3d 5275 06be 7e2d 853e
00000070: d4cf ac3c 47a1 31be 8d01 d5bc 9727 c03d
00000080: 9cf1 4a3d 52b6 4cbc 8ec5 fb3b 1fe5 16bd
00000090: 2347 043e 3019 d13d 34e0 3a3a b6bf 49be
000000a0: af59 86bc 4090 2fbd 716d f93d 53d0 253e
000000b0: 6971 cbbd efb9 353e d7dd efbd 11db 853e
000000c0: 4ee0 b0bd 7fde 57be
0.21248448 -0.04744779 -0.11476654 -0.08424431 -0.17431656 -0.01686092 0.05817727 -0.044912998
0.0098787155 -0.21331401 -0.21488178 0.049617067 0.1455241 0.043157835 0.011304415 0.005971943
-0.1670204 0.26330987 -0.09711461 0.12183039 0.048785377 -0.1106721 0.18703808 -0.03184077
-0.15892413 0.057884764 -0.13130692 0.2601127 0.021095194 -0.17346679 -0.026001716 0.09382551
0.049546823 -0.01249464 0.0076834625 -0.0368396 0.12917762 0.10209882 0.0007128746 -0.19702038
-0.016400186 -0.042862177 0.121790774 0.1619275 -0.09933741 0.1774671 -0.117122345 0.26143697
-0.08636533 -0.2108097

weight f4 [9, 50]
00000000: 08a9 3e3d 1f87 32bd 7a28 26bc ca4a 4bbd
00000010: 6a38 bc3b 09af 44be 2de8 96be df82 e33d
00000020: 31af 62be 2a5b 8a3e c4b0 973e 1e61 69bd
00000030: 5817 60be 6842 04be 5673 92bd bb1a 863d
00000040: 0ff8 46bc 5fa2 9cbe 5025 bdbc bdf8 7bbd
00000050: 0359 d13d 0e1b f13d d6d8 9b3d 9258 7abc
00000060: 021d 843e fda7 48be 15a2 933d 4d0e 5bbe
00000070: 5847 94bc f113 f6bd b0fe fbbd b958 043e
00000080: bff2 e5bd 18d0 223e 73c4 043d 88df 113e
00000090: d931 75be b824 383d e91f 983d 4f52 053d
000000a0: f313 a33d 773a e1bd 3eed b6bd dbb6 27be
000000b0: 7b35 963c c4bf 9fbe 11dc 613d 351c 96be
000000c0: d318 493e a8de 11be 4646 b03c 6b29 bf3d
000000d0: 6476 b13d 6221 11be 743f 82bc 37a1 a43d
000000e0: 5f2e d23d d473 22bc 97ba ecbd b8f2 4e3e
000000f0: 5c89 633e 2779 afbd 92b8 28be 16a6 4dbe
00000100: 5fcb 37be ceea f73a 8daa ebbb d03d e9bd
00000110: 0229 f83d 900e 8c3e aae9 9e3e 614b ffbc
00000120: 4f58 7a3d f0c2 183e 2cbd 913d 690f 123d
00000130: 0bed 923d a281 36be ec75 ed3c 0a1c 0dbe
00000140: 7131 123d bd94 493d e91a 103e 1784 113e
00000150: f2c2 95b9 2faa 613e e35a 0b3e 472a f33d
00000160: 51f4 a8bd 6b88 11be 0369 f0bc 32fa 39be
00000170: e74c 26bd b73a 23be be2b dbbd 769b 60be
00000180: 01a6 3b3e 83cc 5dbe 4c64 703e d79e 83be
00000190: b95a 563e 9923 cabd 6f1a 47be a143 a5bc
000001a0: 6773 49be 5693 55bd b9c5 55be 7305 edbd
000001b0: c744 333e ca6d 28be ec13 093d a909 b1bc
000001c0: 3795 fc3d 0b10 153a 8677 0d3e cab5 26be
000001d0: ca58 f4bd 59c6 dcbc eb44 113c d50b cd3d
000001e0: 2529 25be ceab 0dbe 1611 31bc 724c 1ebe
000001f0: 2c66 093d 76ef 0e3e bb80 8e3d 4271 243e
00000200: e4f7 b4bc 10de 2abe 5fc4 673c 92f1 cbba
00000210: 0bde 073c fa7b d93d f9f6 6ebd 1c82 f6bd
00000220: 233d 24bd 5d40 cb3c 224a 41be 71b0 22bd
00000230: b2dd d8bd 87f4 0e3b a68b c83c b303 7fbd
00000240: d8a5 8bbd 7894 423d b9ec 443e 85f5 143d
00000250: 4bf6 b53d aeaa 2ebd 0f29 bf3c 62b2 1ebe
00000260: a7a1 5b3c 6e2a 12bd c458 333e 9078 89bd
00000270: 015e 0a3e c801 2fbe 2b65 20bd fc02 9e3d
00000280: 7eb1 0dbe d305 3e3e 717a 35be 698c 403a
00000290: 3b48 113e 3045 a8bd c686 debd 6c55 5a3d
000002a0: c096 55bd 3964 80bb b8b0 943e bf07 753e
000002b0: 49f7 083e 1678 a0ba 6c46 8d3d 4ee1 bc3d
000002c0: b079 b8bd 7b4d 34bb ad3e 1c3d c405 37bd
000002d0: 6cad 25be d6d1 eb3d 720a 5e3e 55d5 aebc
000002e0: 9a32 303e 2e1b 8ebd d15a 38be ebf5 3c3e
000002f0: 2d1d d63c e568 5abc 6879 883d 9936 65be
00000300: 384a e2bc cabd 013e d390 693e dcf1 68bd
00000310: 2438 e43d 8aa9 1f3d 0f91 b53d abee 09be
00000320: e032 493e 564a 1abd 774f 1a3c 1dfd 67be
00000330: 0c64 4a39 6967 1cbe 9465 7c3e dc86 9bbe
00000340: 63c3 5bbe 7889 913e bb78 11be d3f1 3f3e
00000350: a318 69be 4637 a13d b0e7 e83d 7599 2abe
00000360: 9bfb edbd 6533 5cbc 3f82 7abe 617a 38be
00000370: 8115 863e b2cf 343e 90dd 73bd cba8 6e3e
00000380: 8fb0 eb3d 7696 153d e449 163e 4b89 46bd
00000390: 6305 1cbe db3c 0f3e 2dac 133d 50f5 3c3e
000003a0: 640d 0d3e 795e b7bd 2fa4 3c3e 8d23 263c
000003b0: a9e9 9bbe 1db0 613e 77d9 eabd 17f1 aebd
000003c0: bfb1 f8bd 4be4 e6bd 568d 4fbe dc84 87bc
000003d0: 8ce4 c83d 0ac2 aa3e a364 4a3e 8c4c 893e
000003e0: 77ec 153e d42f 5e3d 83b2 0c3e e326 07be
000003f0: ea20 863e f6df b1bd 839c b1bd e325 4dbe
0.04654792 -0.043585893 -0.010141486 -0.04963187 0.00574403 -0.19207396 -0.2947401 0.11108946
-0.22137143 0.27022678 0.2962705 -0.056977384 -0.21883905 -0.12915957 -0.07150905 0.06548067
-0.012144103 -0.3059263 -0.023089081 -0.061516512 0.10222056 0.117727384 0.076097175 -0.015279906
0.2580338 -0.19595332 0.07208649 -0.21392174 -0.018100426 -0.12015522 -0.12304437 0.1292447
-0.11227941 0.15899694 0.03241391 0.14245427 -0.23944797 0.044956893 0.074279614 0.0325492
0.079627894 -0.109974794 -0.08931969 -0.16378348 0.018336048 -0.31200993 0.055141512 -0.29318395
0.19638376 -0.14245093 0.021517884 0.09334072 0.08665159 -0.14172891 -0.015899397 0.08038562
0.10262751 -0.009915311 -0.11559027 0.20209777 0.22220367 -0.0856803 -0.16476658 -0.20082888
-0.17948674 0.0018914582 -0.007191962 -0.11388743 0.121171966 0.2735486 0.31037647 -0.031163873
0.061119374 0.14918113 0.0711616 0.035659228 0.071741186 -0.17822888 0.028986894 -0.13780227
0.035691682 0.049214114 0.14072765 0.14210545 -0.0002856474 0.22037576 0.1360889 0.11873298
-0.08249725 -0.14212196 -0.029346948 -0.18161848 -0.040600684 -0.15940367 -0.107017025 -0.21934304
0.18325044 -0.21660046 0.2347576 -0.25707123 0.20933045 -0.09870071 -0.19443677 -0.02017385
-0.19672929 -0.052142464 -0.20876206 -0.11573305 0.17506705 -0.16448131 0.033466265 -0.021611052
0.12333148 0.00056862895 0.13815126 -0.16280285 -0.11930998 -0.026950048 0.008866529 0.100120224
-0.16128977 -0.1383507 -0.010807296 -0.15458849 0.033544704 0.13958535 0.06958147 0.1605883
-0.02209086 -0.16686273 0.01414594 -0.0015559664 0.008292685 0.1061935 -0.058341 -0.12036535
-0.040097367 0.024810964 -0.18875936 -0.03971905 -0.1058916 0.002181323 0.024480652 -0.062259387
-0.068187416 0.047504872 0.19230928 0.03636696 0.08884867 -0.04264324 0.023335008 -0.15497735
0.01340524 -0.035684995 0.1751433 -0.067124486 0.13512422 -0.17090523 -0.03915898 0.07715413
-0.13837239 0.1855691 -0.17722489 0.00073451415 0.1418771 -0.082163215 -0.1086555 0.05330412
-0.05214572 -0.0039181975 0.29041076 0.23928736 0.13375582 -0.001224282 0.068981975 0.09222661
-0.09007585 -0.0027512002 0.03814571 -0.044683233 -0.16179436 0.115146324 0.21683672 -0.021341959
0.17206803 -0.06938778 -0.18003394 0.18453185 0.026136959 -0.013330673 0.066637814 -0.22384109
-0.02762328 0.12670055 0.22809152 -0.05687128 0.111435205 0.038980044 0.08865558 -0.13469951
0.19648314 -0.03766855 0.00941836 -0.22655149 0.00019301492 -0.15273823 0.24648124 -0.30376327
-0.21461253 0.28425193 -0.14206211 0.18744592 -0.22763304 0.07871871 0.11372316 -0.16660102
-0.116202556 -0.013439988 -0.24463747 -0.18015434 0.2618828 0.17657354 -0.05953747 0.23306577
0.11508285 0.036520444 0.14676625 -0.048470777 -0.1523643 0.13988058 0.03605287 0.18452954
0.1377464 -0.08953566 0.18422006 0.010140312 -0.30451706 0.22039838 -0.114672594 -0.08542078
-0.121432774 -0.11274012 -0.20268759 -0.016542844 0.09809217 0.33351165 0.19764952 0.26816213
0.14640985 0.05424483 0.13739972 -0.13198428 0.26196986 -0.08685295 -0.0867243 -0.20033984

bias f4 [9]
00000000: 0cb6 e8bd 29e6 913c 1671 843d 479b c23d
00000010: a142 b93d 9f6d eebd b24c 033e a6db 2b3e
00000020: 54e0 a43d
-0.11362848 0.017809944 0.06466882 0.09502273 0.090459116 -0.11642002 0.12822226 0.16783008
0.080506

weight f4 [1, 50]
00000000: c878 b83d 5183 25be 72e3 683d 3123 8bbd
00000010: 7092 cd3d ddfb 92bd d8f4 04bd b8d4 1e3d
00000020: 62d0 ba3c a81a 2cbd ea49 fdbc b681 7f3d
00000030: b98b b2bc 6e01 273c 289c 2ebe c821 2abe
00000040: 46e9 ebbc 9ead ec3d fc16 57be e5a2 34bd
00000050: 33ed d1bd e735 d63d aa76 0e3d 094e 373d
00000060: 494a da3d 2470 b0bb a6d5 c63d 9a7c bfbd
00000070: 5e48 b2bd 6680 013d 8670 5bbe 6a85 983a
00000080: 8ebd 0c3e e999 003d 9494 0e3e b000 463d
00000090: 9217 4dbe cae3 383e de66 5dbc 9bd2 a63d
000000a0: 0238 d3bd c8c2 51bd b1b7 48be c6ef d63d
000000b0: b0f9 85bd a352 39bd eeab 963c 9c01 a3bd
000000c0: 9a04 92bd 8dcf 993d
0.09007412 -0.16163374 0.056857534 -0.067938216 0.10037696 -0.07176945 -0.032460064 0.038777083
0.022804443 -0.04201761 -0.030919034 0.06237956 -0.02179514 0.010193212 -0.17051756 -0.16614449
-0.028797757 0.11556552 -0.21004862 -0.04410066 -0.1025032 0.104595 0.034781136 0.044752154
0.106587 -0.005384462 0.09708719 -0.09349938 -0.08705209 0.03161659 -0.21429643 0.001163644
0.13744184 0.03139678 0.13923866 0.0483405 -0.20028523 0.18055645 -0.013513295 0.081456386
-0.10313417 -0.05121115 -0.19601323 0.10494952 -0.06541765 -0.045244824 0.01839253 -0.07959291
-0.07129784 0.0751029
