result/models/fixed_500.pth (torch, 67550 bytes, 11 tensors)

weight_ih_l0 f4 [200, 9]
0.27765527 0.09022884 -0.032802097 0.5643624 0.31986654 0.19449684 -0.045499735 0.0057491083
-0.16770965 -0.313607 -0.3341217 -0.047388535 -0.17652704 -0.053326387 -0.48940596 -0.043348793
-0.2603591 -0.40394172 0.020262659 -0.06874628 0.4950324 0.6516481 0.63102144 0.026401535
0.24300244 0.5113285 -1.2841895 0.08271025 0.33812132 0.0873919 0.3344325 0.29734078
0.42644835 0.16445947 0.025841368 -0.07833419 0.19138175 0.14822501 -0.5982785 0.20043708
0.14756943 0.10909563 -0.24852017 -0.28576112 0.017974792 -0.27027607 -0.37061602 0.044012975
0.006852497 0.12964067 -0.3202759 0.008797828 -0.108774066 -0.49896106 0.3055091 -0.109306
0.05625725 -0.35698 -0.35670665 -0.030317828 0.0056555034 -0.075629935 -0.7053543 0.39546973
0.6212583 0.06850253 0.32394668 0.19629686 -0.21224992 -0.100331634 -0.030495249 -0.025180435
0.10679814 -0.2906318 -0.0018598404 -0.34222335 -0.15188493 0.24599963 0.088133015 -0.17723909
-0.9257931 0.45987308 0.47322866 0.24409778 0.26251087 0.40211332 -0.4684557 0.19635962
0.15611432 -0.47358543 0.15118115 0.848362 0.46513233 0.013924191 -0.1623725 0.7691355
0.35231736 0.40462607 -0.3138563 0.33168128 0.0038185476 0.11496255 0.065804705 0.1107129
0.023987789 -0.010772773 -0.0010511909 -0.6157894 0.13752744 0.24988057 0.020763632 -0.61326456
-0.20547292 -0.11372337 0.17699449 0.23541501 -0.4007504 0.37942886 0.095753446 -0.09733355
0.02765093 -0.13273723 0.06912203 -0.020762013 0.052407112 -0.6302284 -0.10554271 -0.21283945
-0.27281815 0.49866194 -0.056003965 -0.31680334 -0.2809029 0.15248019 0.09818588 -0.617314
-0.8865271 -0.116163045 0.00047263593 -0.032510787 -0.40456712 -0.2008836 0.01691759 -0.14242384
0.249994 -0.2019669 -0.14528732 0.22524664 0.2780752 -0.1276128 -0.20054393 -0.109914415
0.4508531 0.28347385 0.049673416 0.090106554 0.021284867 0.31191662 0.006481276 0.100275375
-0.1371603 -0.39185557 -0.7834655 -0.59739935 -0.09629374 -0.2937913 0.7148802 0.14302626
-0.16777557 -0.3972108 -0.60358113 -0.0024018416 -0.120019615 -0.36413562 0.36909822 -0.28563634
0.036349166 -0.1274436 -1.1026357 0.8086162 -0.39493376 -0.15125194 0.06793461 -0.60958815
-0.6710537 -0.8430746 0.12000832 -0.084601864 -0.73576003 0.5881434 0.5854982 0.06474968
0.1812983 0.5208283 0.307774 0.0245147 0.25803012 -1.1764532 -0.25062424 -0.12147728
-0.02978609 -0.3293873 -0.5048041 -0.81457335 0.066770114 -0.04919904 0.4888457 -0.31828684
-0.011099157 0.2713332 -0.08025564 0.19931963 0.0234168 0.12260748 0.21504359 -0.14292681
-0.42086968 -0.39107817 -0.18489915 -0.29647598 -0.16011126 0.5521652 -0.08818962 -0.12072041
0.6254744 -0.32691586 -0.35158053 -0.015093406 1.0211972 0.49549216 0.034021165 0.27632052
0.059151135 0.98380053 0.8519924 0.4948178 0.22531724 0.13671948 0.25936502 -0.021866878
0.28937972 0.08144617 -0.6625307 0.30776325 0.083329566 0.021684827 -0.5793819 -0.15523759
-0.7641193 0.02291933 0.3569439 -0.089115106 -0.26409617 -0.25603536 0.013542458 -0.66918856
00000000: d528 8e3e e6c9 b83d 7e5b 06bd 0e7a 103f
00000010: 8cc5 a33e 2e2a 473e ee5d 3abd 0463 bc3b
00000020: 14bc 2bbe 1991 a0be 0012 abbe 7b1a 42bd
00000030: 81c3 34be c56c 5abd 6b93 fabe 818e 31bd
00000040: ca4d 85be 73d1 cebe e0fd a53c daca 8cbd
00000050: e374 fd3e 69d2 263f 9f8a 213f 0848 d83c
00000060: a2d5 783e 6de6 023f 5260 a4bf fe63 a93d
00000070: 3d1e ad3e 86fa b23d bd3a ab3e 0d3d 983e
00000080: 7057 da3e 1068 283e 47b1 d33c ad6d a0bd
00000090: 94f9 433e 4cc8 173e c828 19bf 613f 4d3e
000000a0: 711c 173e 886d df3d 127c 7ebe 484f 92be
000000b0: df3f 933c a061 8abe 62c1 bdbe f346 343d
000000c0: e98a e03b 86c0 043e 34fb a3be c424 103c
000000d0: f0c4 debd d377 ffbe b06b 9c3e d3db dfbd
000000e0: 016e 663d 15c6 b6be 41a2 b6be 185d f8bc
000000f0: cd51 b93b dee3 9abd 1992 34bf 027b ca3e
00000100: c90a 1f3f 0e4b 8c3d 57dc a53e 0b02 493e
00000110: 0b58 59be ac7a cdbd 2cd1 f9bc 3347 cebc
00000120: fcb8 da3d b1cd 94be e3c5 f3ba e637 afbe
00000130: b987 1bbe 54e7 7b3e 157f b43d 2a7e 35be
00000140: c700 6dbf 7c74 eb3e 074b f23e c5f4 793e
00000150: d367 863e cce1 cd3e 6dd9 efbe 7f12 493e
00000160: 6fdc 1f3e ca79 f2be 3bcf 1a3e 412e 593f
00000170: d325 ee3e 4a22 643c fa44 26be 10e6 443f
00000180: f162 b43e 262b cf3e c6b1 a0be 21d2 a93e
00000190: 9940 7a3b 7c71 eb3d 9ec4 863d 72bd e23d
000001a0: 0a82 c43c 4980 30bc 1dc8 89ba 60a4 1dbf
000001b0: fed3 0c3e b1e0 7f3e 7e18 aa3c e8fe 1cbf
000001c0: 7e67 52be cce7 e8bd 0b3e 353e a210 713e
000001d0: 282f cdbe 8044 c23e 621a c43d d056 c7bd
000001e0: 3484 e23c 45ec 07be da8f 8d3d 1915 aabc
000001f0: d7a8 563d a656 21bf c726 d8bd 96f2 59be
00000200: d2ae 8bbe 9e50 ff3e 6a64 65bd 0c34 a2be
00000210: 81d2 8fbe c423 1c3e ae15 c93d 4a08 1ebf
00000220: 71f3 62bf e4e6 edbd 1fcc f739 082a 05bd
00000230: 6c23 cfbe 6eb4 4dbe c296 8a3c 8ed7 11be
00000240: 6dfe 7f3e 69d0 4ebe 33c6 14be 0ea7 663e
00000250: df5f 8e3e eeac 02be 635b 4dbe cf1a e1bd
00000260: 38d6 e63e 7c23 913e 5a76 4b3d c989 b83d
00000270: 9a5d ae3c 89b3 9f3e e260 d43b 2d5d cd3d
00000280: c073 0cbe 4ba1 c8be 3291 48bf 2aef 18bf
00000290: a735 c5bd d06b 96be 6402 373f 7a75 123e
000002a0: 5ccd 2bbe 375f cbbe 4b84 1abf 3768 1dbb
000002b0: d8cc f5bd fc6f babe 71fa bc3e ed3e 92be
000002c0: dde2 143d 9380 02be 2b23 8dbf 7901 4f3f
000002d0: c234 cabe cae1 1abe 4d21 8b3d f80d 1cbf
000002e0: 2dca 2bbf bdd3 57bf ecc6 f53d be43 adbd
000002f0: c55a 3cbf 9190 163f 36e3 153f 7b9b 843d
00000300: 43a6 393e 0155 053f 8e94 9d3e 0dd3 c83c
00000310: 861c 843e 0596 96bf d251 80be 15c9 f8bd
00000320: f501 f4bc 74a5 a8be d73a 01bf e187 50bf
00000330: c5be 883d ef84 49bd fc49 fa3e 7ef6 a2be
00000340: 3dd9 35bc 2fec 8a3e 125d a4bd 721a 4c3e
00000350: 97d4 bf3c a119 fb3d 6334 5c3e 685b 12be
00000360: 3b7c d7be 663b c8be 3456 3dbe b3cb 97be
00000370: 35f4 23be b35a 0d3f c29c b4bd 433c f7bd
00000380: 171f 203f 8461 a7be 5d02 b4be 554a 77bc
00000390: 97b6 823f 26b1 fd3e c759 0b3d e279 8d3e
000003a0: 7648 723d 5ada 7b3f 2d1c 5a3f c258 fd3e
000003b0: 90b9 663e 3100 0c3e 7ecb 843e 2b22 b3bc
000003c0: 9429 943e 40cd a63d 9d9b 29bf 2593 9d3e
000003d0: b1a8 aa3d 61a4 b13c 5f52 14bf 9af6 1ebe
000003e0: 539d 43bf 52c1 bb3c 5ac1 b63e fb81 b6bd
000003f0: 9d37 87be 1117 83be 30e1 5d3c f14f 2bbf

weight_hh_l0 f4 [200, 50]
-0.03625415 -0.037002586 0.6175832 -0.043566894 -0.07762251 0.050595544 -0.35738745 0.16457036
-0.08046584 -0.5393182 0.20198955 0.12394406 -0.70254743 0.006878597 -0.2512788 0.4462793
-0.7198672 0.05248706 0.39833793 0.7416143 0.13440388 0.6053247 0.63705945 -0.16896503
-0.34808004 0.3037908 0.027275294 0.3938199 -0.36868104 0.371441 0.24365817 -0.092125356
0.04486156 0.6762502 0.122439824 0.5740121 0.61416674 -0.31274015 -0.38790157 0.03472743
0.13100758 -1.595024 -0.6145885 -0.38793448 0.08166952 0.0835981 0.025808856 -0.69748044
-0.32819393 0.31470543 0.476018 -0.42339766 -0.007379431 0.3862652 0.56389326 -0.5604663
0.19698405 -0.0316456 -0.25031292 -0.06780091 -0.42279875 -0.51512724 -0.24674028 -0.6763586
-0.23470172 0.45943642 -0.24602681 0.02677153 -0.324529 0.42981118 0.53340805 -0.22425976
-0.95041823 -0.008472719 -0.58211035 0.19425927 -0.44942912 0.056031115 0.47317544 0.31714183
0.32629675 -0.32964858 -0.01877289 -0.69262177 0.30082023 0.07994139 0.09931267 0.06572819
-0.21478161 0.38377392 0.0395173 0.10915712 -0.5895626 -0.1287217 -0.31959426 -0.18610708
-0.49701178 0.38371676 -0.33848533 -0.45540005 -0.37512204 -0.058184966 -0.07560241 1.0753036
1.3695753 0.16697992 -0.35474998 -0.6151519 -0.29766178 -1.262136 0.13305692 0.6759681
0.542552 0.18990022 0.80907774 1.2947685 0.13414389 -0.6664971 0.6933806 -0.0003442347
-0.058428537 0.4243689 -0.5395615 -0.12810582 0.5990885 0.6310619 0.9370589 0.5512502
-0.6166937 0.08749685 -0.19009003 0.3398174 0.08193416 -0.20664479 -0.9242244 0.41215995
0.7305921 -0.44257793 -0.28591365 -0.18289663 0.67125833 -0.28889757 0.61023766 -0.47795022
0.4873208 -0.0545038 -0.08977479 0.43516195 0.047037322 0.5195792 0.17377649 -0.19265448
0.07826786 -0.6014 -0.023196794 -0.19583637 -1.0328891 0.777244 0.5559912 0.7400743
-0.30797756 -0.09888147 0.03694925 -0.949254 0.24167171 -0.24326138 -0.6091893 0.69657254
-0.1115748 1.2185621 -0.16969618 -0.3362109 0.29883656 0.1371694 -0.53891563 -1.1261517
-0.3678309 0.56446356 -1.0277432 0.44050983 -0.12507083 -0.2904897 -0.20677683 1.1256593
0.1888115 0.84539765 0.44184837 1.3300304 0.2015157 0.30410695 -0.054661997 -0.17070474
-0.24803643 -0.44887027 -0.6793255 0.06490278 0.5625992 -1.198568 -0.95090765 -0.14987473
0.26633203 0.26894414 -0.23426114 0.27072033 0.71858424 0.69925565 -0.1011013 0.42903158
-0.076248355 0.46442202 -0.3776261 0.9431332 -0.27766567 -0.5915078 0.32378945 -0.24738996
-0.524503 -0.38411608 -0.11354515 0.25217763 0.5436427 -0.9218489 0.2207687 -0.06702327
-0.6638994 -1.0221123 0.9801318 0.70586294 -0.07721097 -0.2892412 0.18847457 -0.9295206
0.029934721 -0.043478556 -0.23317656 0.2546482 -1.2012491 0.013477516 0.4862933 -0.2824959
-0.58918357 0.37986472 0.700201 -0.32617024 -0.5342271 -0.5601958 0.0027149243 0.24933153
-0.4027629 0.07200784 1.4704119 0.039221976 0.68746406 0.58051354 -0.7584036 -0.84013724
00000000: 3b7f 14bd 0690 17bd ef19 1e3f 3373 32bd
00000010: 8df8 9ebd 463d 4f3d 7dfb b6be 2285 283e
00000020: 46cb a4bd c210 0abf 59d6 4e3e 62d6 fd3d
00000030: 26da 33bf db65 e13b 9da7 80be b87e e43e
00000040: 3849 38bf acfc 563d f3f2 cb3e 6fda 3d3f
00000050: 2ca1 093e 8ff6 1a3f 5416 233f 2b05 2dbe
00000060: 8c37 b2be 788a 9b3e 7070 df3c c3a2 c93e
00000070: c3c3 bcbe 842d be3e 8781 793e 38ac bcbd
00000080: c1c0 373d bc1e 2d3f bbc1 fa3d 75f2 123f
00000090: 083a 1d3f 7a1f a0be 099b c6be 5a3e 0e3d
000000a0: da26 063e bf29 ccbf ac55 1dbf 599f c6be
000000b0: 5942 a73d 7b35 ab3d 186d d33c 148e 32bf
000000c0: 0909 a8be 1221 a13e a2b8 f33e 94c7 d8be
000000d0: 27cf f1bb 8dc4 c53e 4f5b 103f b87a 0fbf
000000e0: 30b6 493e d19e 01bd 0429 80be 34db 8abd
000000f0: 1479 d8be 61df 03bf 7ca9 7cbe d625 2dbf
00000100: a655 70be 403b eb3e 74ee 7bbe f84f db3c
00000110: aa28 a6be 3610 dc3e 6e8d 083f 5aa4 65be
00000120: 9c4e 73bf 29d1 0abc 2f05 15bf e7eb 463e
00000130: 931b e6be e280 653d 0d44 f23e 6a60 a23e
00000140: 5e10 a73e b3c7 a8be 9bc9 99bc a94f 31bf
00000150: 1c05 9a3e 50b8 a33d 7164 cb3d 809c 863d
00000160: b6ef 5bbe 047e c43e e4dc 213d c58d df3d
00000170: 93ed 16bf 9fcf 03be dca1 a3be db92 3ebe
00000180: 5478 febe 8676 c43e f34d adbe 322a e9be
00000190: ff0f c0be 5c53 6ebd 70d5 9abd 8ca3 893f
000001a0: 3e4e af3f c9fc 2a3e caa1 b5be 987a 1dbf
000001b0: 2067 98be ac8d a1bf 1340 083e 3f0c 2d3f
000001c0: b0e4 0a3f 3475 423e b81f 4f3f f9ba a53f
000001d0: 045d 093e 8e9f 2abf 6481 313f 667a b4b9
000001e0: c352 6fbd e146 d93e b420 0abf 2c2e 03be
000001f0: dd5d 193f 468d 213f 18e3 6f3f bc1e 0d3f
00000200: a3df 1dbf 8c31 b33d f6a6 42be 8cfc ad3e
00000210: 19cd a73d b19a 53be f899 6cbf a106 d33e
00000220: 1508 3b3f 9399 e2be 4663 92be 4149 3bbe
00000230: 96d7 2b3f 62ea 93be 8938 1c3f e4b5 f4be
00000240: 1d82 f93e 603f 5fbd d8db b7bd 8ccd de3e
00000250: 35aa 403d 2403 053f 77f2 313e 3747 45be
00000260: e64a a03d 5af5 19bf 3407 bebc 5489 48be
00000270: b635 84bf 76f9 463f 7055 0e3f 8275 3d3f
00000280: 3caf 9dbe 5e82 cabd 1958 173d 4f02 73bf
00000290: ca78 773e 8319 79be d4f3 1bbf 9452 323f
000002a0: 5481 e4bd d8f9 9b3f d6c4 2dbe d623 acbe
000002b0: 1b01 993e 2376 0c3e 60f6 09bf bd25 90bf
000002c0: 5554 bcbe af80 103f 178d 83bf 818a e13e
000002d0: 9112 00be 11bb 94be 4ebd 53be 9b15 903f
000002e0: cd57 413e fb6b 583f f339 e23e 703e aa3f
000002f0: 225a 4e3e e8b3 9b3e 42e5 5fbd 39cd 2ebe
00000300: 43fd 7dbe 53d2 e5be 47e8 2dbf c0eb 843d
00000310: 8006 103f ad6a 99bf af6e 73bf c378 19be
00000320: ac5c 883e 0cb3 893e 27e2 6fbe db9b 8a3e
00000330: 23f5 373f 6b02 333f 330e cfbd 07aa db3e
00000340: 1928 9cbd b9c8 ed3e 3558 c1be 2d71 713f
00000350: 322a 8ebe 0e6d 17bf bbc7 a53e cb53 7dbe
00000360: d445 06bf ddaa c4be 5c8a e8bd 6d1d 813e
00000370: 2b2c 0b3f 4afe 6bbf 3111 623e 7f43 89bd
00000380: 50f5 29bf 93d4 82bf ebe9 7a3f 6fb3 343f
00000390: c920 9ebd 6c17 94be 7aff 403e 10f5 6dbf
000003a0: a939 f53c 9216 32bd d6c5 6ebe 4061 823e
000003b0: 88c2 99bf cdd0 5c3c 6ffb f83e 4da3 90be
000003c0: bcd4 16bf a17d c23e 5f40 333f c9ff a6be
000003d0: 1bc3 08bf fe68 0fbf dfec 313b c450 7f3e
000003e0: f036 cebe d978 933d 7536 bc3f 39a7 203d
000003f0: a5fd 2f3f 899c 143f bd26 42bf 3c13 57bf

bias_ih_l0 f4 [200]
0.23199967 0.30961293 -0.16415243 -0.13805233 0.09801545 -0.09197441 0.16050245 -0.04637403
-0.032534078 0.12104978 0.1298521 -0.23735693 0.110012546 0.044619266 -0.072082825 0.5441157
0.6008813 0.30444825 0.027201634 0.35228035 -0.05915571 -0.05300361 0.5867887 -0.22972749
0.3959653 0.120875545 0.18422982 0.07387272 0.047468957 -0.022653555 -0.08123246 0.41075873
0.022122338 -0.16373707 0.21141897 -0.33337772 -0.089665405 0.160579 0.19920184 0.35808286
-0.15738864 0.7126282 -0.1224305 0.44137317 0.37398255 -0.42218634 0.54905516 0.0322995
0.50161606 0.24594231 0.1716727 0.15174064 -0.25066298 -0.7067447 -0.11852205 -0.19340824
-0.11650763 0.12919451 -0.23447208 -0.27636033 0.239563 -0.06292047 -0.08320836 -0.012767775
0.40842983 -0.11641301 0.056230746 -0.12574919 -0.102750786 -0.31879938 -0.2181001 0.19530374
-0.42790273 -0.24237758 -0.26889 -0.44776136 0.056005448 -0.017787889 -0.027570024 -0.24339528
0.13302992 -0.41174182 -0.09534064 -0.106175385 -0.0893975 -0.27776703 -0.38845012 0.11239003
-0.14491515 0.043073572 0.08444752 -0.12916572 -0.04249994 0.25194505 -0.29179758 -0.19385609
-0.16972697 -0.06685744 0.055441227 0.029903725 -0.29677227 -0.23282579 -0.012801221 -0.060506172
0.30074918 0.109953225 0.2610527 0.011313119 -0.12757832 -0.09073667 -0.022388557 0.029803826
-0.122443534 -0.22970779 0.0020291996 0.10555871 -0.0017100599 0.10644189 0.07187396 0.082972236
0.055037074 0.16218404 -0.0481173 0.03391581 -0.045598783 0.15790324 0.0069235684 0.052530058
0.11354906 -0.25755158 0.3367096 0.10058343 0.0005897612 0.013746794 -0.19745454 0.20056687
0.3048883 -0.23917753 -0.1691204 -0.11205364 -0.3308965 -0.23352365 0.20911653 0.07305008
-0.031951424 0.065881945 -0.051058587 0.070704855 -0.12698697 -0.07288019 0.18751514 0.01573949
0.39075506 0.19738461 0.2542257 -0.22155607 0.43452546 0.07738649 0.23202083 -0.11507199
-0.10249897 -0.11791961 -0.06746202 0.24793181 -0.019432962 0.48441425 -0.03405572 0.021360002
0.38669047 0.27784577 -0.0794264 0.002722842 0.18747565 -0.4550883 0.2632887 -0.07527461
-0.081046134 -0.09072032 0.11405948 0.1631913 -0.118600205 0.163886 0.08571904 -0.0050155306
0.16373903 -0.22583924 0.2116026 -0.12435688 0.42368966 0.25567552 -0.11825695 0.4288587
-0.19301677 -0.18086267 0.27533928 -0.020863926 0.36911038 0.07768496 0.18797255 0.3841694
00000000: 5291 6d3e 9685 9e3e 9317 28be 975d 0dbe
00000010: 53bc c83d 145d bcbd c15a 243e b2f2 3dbd
00000020: 7442 05bd f2e8 f73d f3f7 043e b20d 73be
00000030: 424e e13d b1c2 363d 29a0 93bd 2b4b 0b3f
00000040: 5bd3 193f a4e0 9b3e f6d5 de3c 175e b43e
00000050: 424d 72bd 501a 59bd c937 163f af3d 6bbe
00000060: f7bb ca3e 998d f73d bea6 3c3e 954a 973d
00000070: cf6e 423d f393 b9bc 345d a6bd f84e d23e
00000080: e839 b53c b1aa 27be 377e 583e 7cb0 aabe
00000090: 7fa2 b7bd d26e 243e 91fb 4b3e a356 b73e
000000a0: 7d2a 21be cd6e 363f d8bc fabd aafb e13e
000000b0: a47a bf3e cf28 d8be e18e 0c3f 7b4c 043d
000000c0: e969 003f 4dd8 7b3e f8ca 2f3e e661 1b3e
000000d0: e656 80be 38ed 34bf b0bb f2bd cf0c 46be
000000e0: 8d9b eebd 914b 043e 7319 70be 1a7f 8dbe
000000f0: 0150 753e 73dc 80bd 2569 aabd ee2f 51bc
00000100: b71d d13e f269 eebd 3652 663d 65c4 00be
00000110: 016f d2bd ac39 a3be a255 5fbe b4fd 473e
00000120: 1116 dbbe d431 78be f3ab 89be fa40 e5be
00000130: f865 653d e8b7 91bc 88da e1bc 9d3c 79be
00000140: ff38 083e d3cf d2be f441 c3bd 7b72 d9bd
00000150: 0916 b7bd 7b37 8ebe efe2 c6be be2c e63d
00000160: a364 14be ea6d 303d d2f2 ac3d 0544 04be
00000170: 6b14 2ebd f1fe 803e 7e66 95be 3682 46be
00000180: e8cc 2dbe 8eec 88bd 5716 633d a8f8 f43c
00000190: 89f2 97be e269 6ebe 36bc 51bc 52d5 77bd
000001a0: ccfb 993e 282f e13d b3a8 853e a95a 393c
000001b0: e4a3 02be 26d4 b9bd 3568 b7bc 2727 f43c
000001c0: adc3 fabd 8538 6bbe 52fc 043b 2a2f d83d
000001d0: 1724 e0ba 35fe d93d a832 933d 59ed a93d
000001e0: 8e6e 613d 9313 263e a516 45bd 4eeb 0a3d
000001f0: cac5 3abd 63b1 213e 1adf e23b c229 573d
00000200: 698c e83d cddd 83be 3365 ac3e affe cd3d
00000210: 349a 1a3a 3c3a 613c 8631 4abe 6761 4d3e
00000220: 521a 9c3e f4ea 74be e62d 2dbe 617c e5bd
00000230: 446b a9be d320 6fbe a522 563e 489b 953d
00000240: 7fdf 02bd 1ded 863d cf22 51bd b5cd 903d
00000250: df08 02be 3642 95bd f803 403e 1af0 803c
00000260: 0c11 c83e 311f 4a3e df29 823e 98df 62be
00000270: 1f7a de3e cf7c 9e3d de96 6d3e ddaa ebbd
00000280: fbea d1bd d67f f1bd 8729 8abd d6e1 7d3e
00000290: e031 9fbc 2505 f83e 037e 0bbd 2cfb ae3c
000002a0: 4bfc c53e cd41 8e3e 4faa a2bd b571 323b
000002b0: 9ef9 3f3e 5501 e9be c7cd 863e 9329 9abd
000002c0: 84fb a5bd 93cb b9bd 0498 e93d 9f1b 273e
000002d0: aae4 f2bd bbd1 273e 778d af3d 5259 a4bb
000002e0: 34ab 273e 6742 67be 5aae 583e d2ae febd
000002f0: daed d83e e7e7 823e b330 f2bd 5e93 db3e
00000300: 30a6 45be 1034 39be 45f9 8c3e d3ea aabc
00000310: 09fc bc3e 4b19 9f3d e07b 403e dab1 c43e

bias_hh_l0 f4 [200]
0.016163042 0.21784693 -0.1440088 -0.015335427 0.18413967 0.014701738 0.12620328 0.033675995
-0.29931176 0.13548227 0.2858477 -0.12563545 0.2246664 0.015418673 -0.16313168 0.6283833
0.6065559 0.117742665 0.12334838 0.33292323 -0.17488323 -0.079965845 0.58193564 -0.29448172
0.28875566 0.17450698 0.027585942 0.03460073 0.17246419 0.054051388 -0.06816605 0.39873108
-0.02270687 -0.00234401 0.10960961 -0.2644278 -0.0578353 0.1981146 0.033249363 0.173486
0.045724884 0.5724491 -0.062410887 0.33491388 0.38844305 -0.20804875 0.54486233 0.086454466
0.71296966 0.4162306 0.07652896 0.08201535 -0.048183337 -0.5178934 -0.19977674 -0.24793193
-0.10226937 0.024583882 -0.14198296 -0.25746804 0.2419991 -0.011841144 -0.09835014 0.049942818
0.29832602 -0.13845462 0.24018623 -0.07440283 -0.1252296 -0.35606918 -0.15423988 0.22616982
-0.5565817 -0.13559403 -0.53696364 -0.3501951 0.043738294 -0.013585654 0.042885084 -0.09703008
0.041363694 -0.4672921 -0.05409193 -0.12029885 -0.13330987 -0.16958027 -0.1312466 0.26869133
-0.26647 -0.107333064 0.06236166 -0.040795915 -0.15579875 0.43866387 -0.17484947 -0.1965805
-0.24344042 0.054031197 -0.05639393 -0.0652857 -0.27167094 -0.16944113 -0.08442561 -0.06343938
0.50152826 0.09445835 0.37724358 0.051554766 -0.10416952 0.14285535 0.05558782 -0.011161395
-0.008740782 -0.2349953 -0.09987191 -0.057186812 -0.061574038 -0.124551594 -0.05196858 -0.13944428
0.057797782 0.20829168 -0.13514121 0.0709665 0.06879988 0.14527136 -0.00858868 0.012677431
-0.043537144 -0.20020412 0.23284702 0.018949497 0.15642032 0.26475292 -0.107168496 0.08726771
0.32856053 -0.10511421 -0.22786978 -0.22621201 -0.13394135 -0.34533373 0.096932665 0.03826923
0.14643838 0.2157327 -0.2847995 -0.16241345 -0.115768045 0.024211222 0.25946042 -0.23069702
0.42920145 0.1185931 0.11249234 -0.026553245 0.1861491 0.10758433 0.07484346 -0.017056903
0.06566608 -0.051470898 0.025447376 0.12980412 -0.23138922 0.50200284 -0.1044197 0.0077481866
0.2229629 0.16852659 -0.17693725 0.11228721 0.3539829 -0.2810057 0.2572163 -0.23657864
-0.031065404 -0.063836925 -0.05079411 0.31915694 -0.105443105 0.3449155 0.18175986 0.0124728335
0.112045124 -0.080109455 0.045841526 0.0477492 0.34113744 0.17264009 -0.089632526 0.43304473
-0.00012772856 -0.068395786 0.40453938 0.15942581 0.26122952 -0.037374556 0.39612737 0.34570283
00000000: 5b68 843c 4413 5f3e 0b77 13be 7141 7bbc
00000010: 1c8f 3c3e 8fdf 703c 6f3b 013e d7ef 093d
00000020: 643f 99be ddbb 0a3e a15a 923e 94a6 00be
00000030: f30e 663e 9a9e 7c3c fe0b 27be badd 203f
00000040: 3f47 1b3f 1123 f13d 139e fc3d ea74 aa3e
00000050: 9714 33be 22c5 a3bd bcf9 143f 4fc6 96be
00000060: c8d7 933e f5b1 323e eafb e13c 7fb9 0d3d
00000070: 749a 303e fd64 5d3d a49a 8bbd 7b26 cc3e
00000080: c203 babc f69d 19bb 017b e03d 1563 87be
00000090: b5e4 6cbd 8ede 4a3e 7c30 083d 50a6 313e
000000a0: 044a 3b3d 068c 123f 8fa2 7fbd d579 ab3e
000000b0: 02e2 c63e bb0a 55be 197c 0b3f 0a0f b13d
000000c0: 2e85 363f 2d1c d53e 37bb 9c3d aaf7 a73d
000000d0: e45b 45bd a994 04bf 4692 4cbe dee1 7dbe
000000e0: 9a72 d1bd 2364 c93c fb63 11be dad2 83be
000000f0: 9dce 773e 5c01 42bc cc6b c9bd d790 4c3d
00000100: 30be 983e 0cc7 0dbe 61f3 753e 8360 98bd
00000110: 303c 00be b34e b6be 0ff1 1dbe 1099 673e
00000120: 237c 0ebf 29d9 0abe 7376 09bf c64c b3be
00000130: ed26 333d 5d96 5ebc 45a8 2f3d b5b7 c6bd
00000140: fa6c 293d e940 efbe 808f 5dbd 3e5f f6bd
00000150: 6282 08be 73a6 2dbe 8265 06be e991 893e
00000160: c16e 88be 70d1 dbbd f16e 7f3d 9e19 27bd
00000170: b589 1fbe 8d98 e03e bd0b 33be 664c 49be
00000180: 7248 79be d14f 5d3d 52fd 66bd 82b4 85bd
00000190: 7418 8bbe fa81 2dbe 56e7 acbd 81ec 81bd
000001a0: 2864 003f 6173 c13d 1226 c13e 172b 533d
000001b0: d456 d5bd ac48 123e 0eb0 633d 49de 36bc
000001c0: 7f35 0fbc 9ca2 70be a589 ccbd b83c 6abd
000001d0: 0f35 7cbd e814 ffbd 01dd 54bd 7bca 0ebe
000001e0: 5ebd 6c3d 6a4a 553e 7562 0abe e256 913d
000001f0: f4e6 8c3d 04c2 143e 89b7 0cbc 00b5 4f3c
00000200: 0154 32bd 4f02 4dbe 736f 6e3e fa3b 9b3c
00000210: a62c 203e b28d 873e 287b dbbd 6ab9 b23d
00000220: 1639 a83e 1e46 d7bd b256 69be 1fa4 67be
00000230: ec27 09be 95cf b0be a284 c63d 32c0 1c3d
00000240: f1f3 153e 08e9 5c3e 3dd1 91be b64f 26be
00000250: cc17 edbd 9d56 c63c ffd7 843e d73b 6cbe
00000260: 4bc0 db3e f0e0 f23d 6262 e63d 3186 d9bc
00000270: df9d 3e3e 2c55 dc3d 8747 993d ebba 8bbc
00000280: f07b 863d 26d3 52bd 0477 d03c 5feb 043e
00000290: 4cf1 6cbe 4283 003f ffd9 d5bd 80e4 fd3b
000002a0: 6350 643e 3c92 2c3e 0a2f 35be d6f6 e53d
000002b0: 3f3d b53e fbdf 8fbe dbb1 833e ac41 72be
000002c0: e07c febc efbc 82bd 7c0d 50bd 8a68 a33e
000002d0: 8ef2 d7bd c498 b03e 421f 3a3e db5a 4c3c
000002e0: ea77 e53d 6d10 a4bd 53c4 3b3d aa94 433d
000002f0: 91a9 ae3e 90c8 303e 4291 b7bd 0ab8 dd3e
00000300: e0ee 05b9 1713 8cbd c91f cf3e 8540 233e
00000310: e0bf 853e 1016 19bd 35d1 ca3e f6ff b03e

weight f4 [50, 50]
0.12880762 0.10560781 0.24027199 0.29986954 0.2859154 0.04815176 0.27062693 0.056117766
-0.12823266 0.31632045 -0.021807602 0.045891725 -0.0066428906 0.019616615 0.15450309 0.18670632
-0.10343732 -0.20472284 -0.13522212 0.14448236 0.14635016 0.23356804 -0.16827102 0.006731494
-0.036951188 -0.33878678 0.2255325 -0.20020564 -0.111094065 0.081903666 -0.0646565 -0.10341867
-0.35592052 0.023466384 -0.06571142 0.31871057 -0.013188296 0.07047125 8.143106e-06 -0.30955365
-0.024942674 -0.47287524 0.24275814 0.10841742 -0.03688539 0.032012753 0.020969814 0.16417453
0.070965655 -0.16535339 -0.11232115 -0.012191332 -0.34240505 -0.16275589 0.44172454 0.2100359
-0.0010736551 0.093557425 -0.0144368345 -0.24382441 -0.21621832 0.07889441 -0.1781128 -0.08844918
-0.08775723 -0.046087813 0.19921172 0.06565668 0.605611 -0.03218615 -0.4785769 0.013143638
0.73795265 0.20981562 -0.28934154 0.4293724 -0.42295238 0.24113588 -0.07869329 -0.27334738
-0.10557396 0.65567845 0.42888734 0.31430718 0.024749286 -0.31205893 0.7747699 -0.009007909
0.5029761 -0.0014899396 -0.17153746 0.37423727 0.10468273 0.15090907 -0.045967255 0.1276442
-0.051756714 0.0025500813 0.14265053 0.6243815 0.04829005 0.17567582 0.24377477 0.22842646
0.31192353 0.096900076 0.2485018 -0.02764061 -0.14678943 0.2819434 -0.20009029 -0.044951558
-0.09774564 -0.013195284 -0.067592055 0.10075468 -0.1330051 -0.29483846 -0.21835734 0.076413386
0.1041573 -0.019721495 0.08151961 -0.015111182 -0.026862424 -0.60268545 0.15248348 -0.23082876
-0.07652217 -0.22164716 0.019518016 -0.11963346 -0.03208171 0.22980736 0.14957368 -0.17061011
0.20226565 -0.11410085 -0.10528196 -0.3476412 -0.132418 -0.39155757 0.47889033 0.10625778
-0.12966104 0.10607442 -0.0015404407 0.03300494 -0.040832296 -0.05797641 -0.12350577 0.11017699
-0.025066873 -0.11523772 0.04352743 0.14968693 -0.13268828 0.21536934 0.064885296 -0.084156334
-0.18111809 -0.04179752 -0.122037746 0.03090558 -0.13516788 0.09213015 0.01756388 0.10542432
0.17275476 -0.123316355 -0.0016662775 -0.06876071 -0.23757525 0.25895703 0.26933795 0.3399657
0.031551883 0.23328325 -0.17510141 -0.14490798 -0.16627806 -0.26074353 0.29142165 0.02195932
0.13408177 0.41519704 -0.5412968 0.025427012 0.27234215 0.1758411 -0.05085586 0.06645885
0.09206445 -0.024464933 0.042003524 0.17707637 -0.022353169 0.08124889 -0.012741488 0.11619483
0.27146935 0.8458342 -0.084161416 -0.022629745 0.4154063 0.82359487 0.3143705 0.20799547
-0.36614338 0.059903353 -0.3733095 -0.11884087 -0.67335534 -0.4619266 -0.7403018 0.2435192
-0.87360364 -0.14415702 0.25942445 0.05081862 0.9176392 0.095059805 -0.031592306 -0.5733863
0.039919272 -0.25511822 0.04641852 0.32030836 -0.5928728 -0.31649664 0.9721499 -0.07347551
-0.19354568 -0.028720392 0.19603446 -0.23872057 -0.07299989 -0.2986912 -0.30991304 -0.08414853
-0.3084645 -0.31148463 -0.2059079 0.25795382 0.34519726 -1.2684326 -0.4380613 -0.31737354
0.020280333 0.10151834 0.041797966 0.057839587 0.17704093 0.11756128 0.26259464 -0.198382
00000000: 25e6 033e e848 d83d dc09 763e 8088 993e
00000010: 8163 923e c83a 453d 9d8f 8a3e bedb 653d
00000020: 6c4f 03be c1f4 a13e dba5 b2bc f6f8 3b3d
00000030: 9bac d9bb 06b3 a03c 0f36 1e3e f12f 3f3e
00000040: f2d6 d3bd dda2 51be ab77 0abe 2ff3 133e
00000050: d1dc 153e 762c 6f3e 3d4f 2cbe dd93 dc3b
00000060: 215a 17bd 7675 adbe fef1 663e b502 4dbe
00000070: 4985 e3bd 1cbd a73d a16a 84bd 2bcd d3bd
00000080: 373b b6be 933c c03c b593 86bd 082e a33e
00000090: b913 58bc 3b53 903d 609e 0837 d17d 9ebe
000000a0: 9454 ccbc b41c f2be 9795 783e f409 de3d
000000b0: 2215 17bd ce1f 033d e3c8 ab3c 5e1d 283e
000000c0: 7156 913d 6652 29be a208 e6bd 27be 47bc
000000d0: b74f afbe 7ba9 26be b829 e23e a713 573e
000000e0: e3b9 8cba 099b bf3d 7988 6cbc 1bad 79be
000000f0: 5668 5dbe 6493 a13d 3463 36be d824 b5bd
00000100: 10ba b3bd 93c6 3cbd 28fe 4b3e 0277 863d
00000110: 5309 1b3f a0d5 03bd 0808 f5be 6a58 573c
00000120: 77ea 3c3f e8d9 563e 9324 94be b3d6 db3e
00000130: 378d d8be 53ec 763e f329 a1bd 30f4 8bbe
00000140: 2937 d8bd 8bda 273f 1f97 db3e dfec a03e
00000150: 04bf ca3c 30c6 9fbe 5257 463f e995 13bc
00000160: 0bc3 003f 144a c3ba 84a7 2fbe 079c bf3e
00000170: e663 d63d e887 1a3e 2948 3cbd 29b5 023e
00000180: d9fe 53bd 441f 273b fb12 123e 77d7 1f3f
00000190: cacb 453d 5de4 333e 18a0 793e a0e8 693e
000001a0: 71b4 9f3e 8c73 c63d 4177 7e3e 8f6e e2bc
000001b0: f84f 16be e35a 903e 78e4 4cbe 201f 38bd
000001c0: de2e c8bd 0831 58bc b46d 8abd 7858 ce3d
000001d0: 7d32 08be 11f5 96be 1199 5fbe 9f7e 9c3d
000001e0: 6c50 d53d f98e a1bc c1f3 a63d e494 77bc
000001f0: 960e dcbc 9849 1abf a124 1c3e 605e 6cbe
00000200: a8b7 9cbd 79f7 62be 3fe4 9f3c 6302 f5bd
00000210: 1c68 03bd 9f52 6b3e d829 193e 6bb4 2ebe
00000220: ba1e 4f3e b5ad e9bd 119e d7bd 07fe b1be
00000230: 9698 07be 3c7a c8be 1d31 f53e ae9d d93d
00000240: ddc5 04be 8c3d d93d 9de8 c9ba 3030 073d
00000250: c43f 27bd ac78 6dbd 98f0 fcbd 79a4 e13d
00000260: 0b59 cdbc c101 ecbd d249 323d 8847 193e
00000270: 70df 07be c889 5c3e 95e2 843d 285a acbd
00000280: 0577 39be e033 2bbd edee f9bd b32d fd3c
00000290: 7369 0abe bbae bc3d 20e2 8f3c b5e8 d73d
000002a0: a0e6 303e 498d fcbd ff66 daba 6ad2 8cbd
000002b0: ed46 73be 0496 843e aae6 893e fc0f ae3e
000002c0: 8c3c 013d cee1 6e3e c94d 33be c262 14be
000002d0: cc44 2abe 2d80 85be 3835 953e 08e4 b33c
000002e0: bb4c 093e b594 d43e 6d92 0abf 4f4c d03c
000002f0: 6e70 8b3e b00f 343e 3c4e 50bd 941b 883d
00000300: 498c bc3d af6a c8bc e30b 2c3d 8253 353e
00000310: fe1d b7bc d165 a63d adc1 50bc 8ef7 ed3d
00000320: 08fe 8a3e 9788 583f d25c acbd 0462 b9bc
00000330: 22b0 d43e 1dd7 523f 2cf5 a03e c4fc 543e
00000340: 2577 bbbe 385d 753d 6c22 bfbe d862 f3bd
00000350: 0461 2cbf a581 ecbe 6b84 3dbf 195d 793e
00000360: 7da4 5fbf e69d 13be 48d3 843e 2f27 503d
00000370: 67ea 6a3f b7ae c23d ef66 01bd 72c9 12bf
00000380: 6482 233d db9e 82be 5921 3e3d 75ff a33e
00000390: 83c6 17bf d90b a2be d1de 783f 547a 96bd
000003a0: d730 46be 0747 ebbc 42bd 483e 2a73 74be
000003b0: f780 95bd 0eee 98be ecac 9ebe 1156 acbd
000003c0: 0fef 9dbe ea7a 9fbe 85d9 52be 8612 843e
000003d0: b2bd b03e 005c a2bf 9249 e0be c97e a2be
000003e0: f122 a63c d9e8 cf3d 5834 2b3d 34e9 6c3d
000003f0: 384a 353e f8c3 f03d ce72 863e a724 4bbe

bias f4 [50]
-0.17022343 -0.034432646 -0.12645903 -0.01994361 -0.12099255 0.033342782 -0.076832086 0.18679407
0.021008544 -0.08870607 0.17609122 0.06933185 -0.022543639 0.1635765 -0.14500748 0.040605623
-0.123147435 -0.23168631 0.10850303 0.086604826 0.05861781 -0.10393573 0.067101866 0.08485354
-0.017153002 0.056658145 -0.00085131486 -0.026392417 0.15336558 -0.0873756 -0.028006703 -0.07419247
-0.122321256 -0.23047875 0.14186384 0.026533812 0.030677803 -0.042065773 0.012850436 -0.010022548
0.08895892 -0.15671694 0.01824677 0.03687088 -0.10512314 -0.01990148 -0.07100519 -0.07607334
-0.16381192 -0.035710663
00000000: 0d4f 2ebe 3f09 0dbd 7a7e 01be c860 a3bc
00000010: f1ca f7bd 7192 083d 245a 9dbd f246 3f3e
00000020: 1c1a ac3c 87ab b5bd 4251 343e dbfd 8d3d
00000030: 70ad b8bc 9980 273e d77c 14be 1552 263d
00000040: b934 fcbd 2d3f 6dbe d636 de3d df5d b13d
00000050: 3b19 703d 42dc d4bd b46c 893d b1c7 ad3d
00000060: 7484 8cbc 5f12 683d c62a 5fba e934 d8bc
00000070: de0b 1d3e fbf1 b2bd 506e e5bc 39f2 97bd
00000080: 9183 fabd 9f02 6cbe c144 113e 705d d93c
00000090: 0450 fb3c 294d 2cbd a38a 523c 9d35 24bc
000000a0: 1830 b63d 687a 20be 407a 953c eb05 173d
000000b0: cd4a d7bd 6e08 a3bc 2b6b 91bd 57cc 9bbd
000000c0: 50be 27be 5845 12bd

weight f4 [1, 50]
-0.07323244 0.41613615 -0.19017981 0.22036572 -1.4445956 0.05784819 -0.07396115 0.08854068
-0.32791764 -0.12031381 -0.1967141 0.06411296 -0.20934002 0.28447893 0.20958555 0.15865366
-0.10920796 -0.120336115 0.19543569 -0.20144865 0.01872506 -0.48570475 0.13383931 -0.58007973
0.014889553 0.23496562 -0.056956492 0.086158626 -0.19051999 0.16260076 -0.3302401 0.12852134
0.12438392 -0.18506265 0.37132335 0.29114425 -0.08960484 -0.15677777 -0.2470245 0.10118511
-0.29882568 -0.12431381 0.13080141 0.48866636 0.023655402 -0.16458914 -0.15270494 0.04522783
0.25502208 -0.83393437
00000000: e4fa 95bd cc0f d53e 7fbe 42be 8da7 613e
00000010: 82e8 b8bf 39f2 6c3d f278 97bd d154 b53d
00000020: d2e4 a7be 1667 f6bd 6c6f 49be a84d 833d
00000030: 3b5d 56be 39a7 913e 989d 563e 1b76 223e
00000040: 6ca8 dfbd c872 f6bd 4b20 483e 8e48 4ebe
00000050: 4c65 993c 4bae f8be 2c0d 093e 1b80 14bf
00000060: 50f3 733c d49a 703e 364b 69bd ef73 b03d
00000070: ac17 43be d080 263e 3b15 a9be 199b 033e
00000080: ffbc fe3d 1081 3dbe 181e be3e dc10 953e
00000090: be82 b7bd 5a8a 20be fef3 7cbe 243a cf3d
000000a0: aeff 98be 3d98 febd cef0 053e 7a32 fa3e
000000b0: f9c8 c13c 0e8a 28be af5e 1cbe d140 393d
000000c0: 4192 823e b97c 55bf

weight f4 [1, 50]
-0.26809824 -0.024973849 -0.42521057 -0.030678919 -2.8598826 -0.041976843 -0.06560182 0.13982798
0.15923543 0.08834121 0.12724675 0.026470123 0.24352252 0.5986724 -0.019045476 0.31655413
0.006579846 -0.8633365 0.3978753 0.7905086 -0.19801939 -0.30516452 0.5504651 -0.033052288
-0.17470667 -0.061886813 -0.12655248 -0.80963784 0.22319198 0.2835262 -0.6865047 -0.13504058
0.30298957 -0.26870024 1.7648284 0.43327227 0.31291312 -0.3494092 -0.15506388 -0.26078707
-0.076208875 -0.17755921 0.09899344 1.5222127 -0.008961573 0.026236422 -0.57934225 -0.17600827
0.0033524097 -2.2044218
00000000: 2c44 89be f595 ccbc 33b5 d9be 5b52 fbbc
00000010: 5108 37c0 e9ef 2bbd 3f5a 86bd 112f 0f3e
00000020: 9d0e 233e 3cec b43d f94c 023e dfd7 d83c
00000030: f85d 793e 9842 193f 4205 9cbc 6213 a23e
00000040: c09b d73b 9f03 5dbf 50b6 cb3e c65e 4a3f
00000050: 98c5 4abe 863e 9cbe 48eb 0c3f d661 07bd
00000060: 4ee6 32be 077d 7dbd f996 01be 6d44 4fbf
00000070: 708c 643e 592a 913e c6be 2fbf 1448 0abe
00000080: 7321 9b3e 1493 89be e6e5 e13f ddd5 dd3e
00000090: 2636 a03e c3e5 b2be 11c9 1ebe e285 85be
000000a0: 6613 9cbd 15d2 35be 13bd ca3d ded7 c23f
000000b0: 90d3 12bc c4ed d63c c64f 14bf 833b 34be
000000c0: 1ab4 5b3b 3f15 0dc0

weight f4 [8, 50]
0.040529463 0.12591706 -0.05677271 -0.029919423 0.035310186 -0.09866236 -0.03473094 0.050905727
-0.031446006 -0.259771 -0.26370052 0.11422639 -0.24123621 -0.24802135 -0.1829274 -0.093318425
0.25579518 -0.08662007 -0.15547898 0.13348529 -0.16171704 0.07264099 -0.0942634 -0.123909436
-0.092684925 -0.07768282 -0.074445695 -0.014463523 -0.020553282 0.26135856 -0.13619943 0.25417373
0.11327738 0.14079219 0.083036795 0.21868393 0.22711565 0.1410757 -0.07023492 0.0477848
0.022891749 0.118502006 0.26053655 -0.05978288 -0.24970269 0.41673303 -0.15985253 0.016894234
-0.5178007 0.06873804 -0.09950918 0.305933 0.034434546 0.12606044 -0.20799342 0.20926262
0.022646748 -0.08588785 0.016630512 0.26133892 -0.19950597 -0.23246598 -0.09243713 0.10949637
-0.052478805 -0.12585002 0.18902233 0.004312459 0.27918386 -0.21287444 0.13277672 -0.13322566
0.4129702 0.01322533 0.2427706 -0.34293556 0.1863463 0.23021945 -0.05998755 0.0060261725
-0.07344134 0.33293584 0.30651996 0.17936024 -0.14891721 0.11256108 0.12253253 0.21795295
0.14555292 0.04618413 0.05744766 0.19678238 -0.09189771 0.054398756 -0.34669214 -0.0037183722
-0.24297039 0.19992653 -0.123879746 -0.012463265 0.006228456 -0.016046695 -0.071243614 0.19034751
-0.003426556 0.112940155 0.06218356 0.058010656 -0.11237473 -0.07899947 0.06595131 0.16553013
-0.009706887 0.18833305 0.08506241 -0.1532374 -0.16573226 -0.024062809 -0.014991166 0.10400375
-0.12104181 -0.20781268 -0.04264778 0.24234429 -0.11072712 0.13786615 -0.051200386 -0.047950458
-0.10233255 0.13603896 -0.1326745 0.1769705 -0.04546879 -0.15682374 0.16508627 0.0022832535
-0.08688231 -0.048572328 -0.13227114 0.016016617 -0.087084614 -0.032506935 0.0762354 0.14042842
-0.020594923 -0.22850311 -0.10354086 0.21304667 -0.011654618 -0.07771859 0.13467392 -0.19797766
0.029792389 -0.09361505 -0.10448806 0.3807425 -0.06295741 0.071757495 -0.15324247 -0.093098834
0.08922882 -0.11592705 -0.69475734 0.09276868 -0.21205938 0.06574392 -0.09567862 -0.16831686
-0.17040613 0.08908145 0.3266844 -0.1765765 0.10475145 0.31104553 0.061688997 0.12503295
-0.11743621 0.15074193 0.11653244 -0.07179506 -0.04034831 -0.2605703 -0.2129171 -0.088970035
-0.14454615 -0.004613806 0.03559414 -0.025390841 -0.17954578 0.06655445 0.15603857 -0.12937002
-0.107172616 0.1661168 0.07755018 0.30299285 -0.05028088 -0.115418084 -0.0460518 0.16904047
0.20715278 -0.13411282 -0.04202752 -0.11304208 0.095240735 -0.23728193 0.122793935 -0.05947431
0.15176865 -0.09878666 0.13813016 0.25985876 -0.0392149 -0.056954518 -0.32584238 0.2395734
-0.0642707 -0.13982522 -0.32974818 -0.19969736 0.29636046 -0.18598427 0.24019533 0.044684216
0.19270793 0.06165402 -0.05875949 0.02050355 -0.01965844 0.17918381 0.029696899 0.19739777
-0.113955855 0.14624545 0.10546037 0.08859328 -0.009968309 -0.2637998 -0.19110443 0.08866251
0.1720655 -0.0032597606 -0.029245762 0.10049541 -0.11128436 -0.035529763 0.053561006 0.11471562
0.44019347 0.0077385264 -0.034625284 -0.34893483 -0.20367901 0.19614303 -0.0062354943 0.007244094
00000000: 3902 263d 67f0 003e 808a 68bd 9419 f5bc
00000010: 6aa1 103d 7e0f cabd 0842 0ebd 8682 503d
00000020: 87cd 00bd b400 85be c103 87be 87ef e93d
00000030: a006 77be 4ff9 7dbe 5251 3bbe bb1d bfbd
00000040: 96f7 823e dd65 b1bd e235 1fbe 5eb0 083e
00000050: 2799 25be cdc4 943d 2b0d c1bd 3bc4 fdbd
00000060: 98d1 bdbd 2c18 9fbd fc76 98bd 6af8 6cbc
00000070: 5b5f a8bc cad0 853e dd77 0bbe 0f23 823e
00000080: f9fd e73d d42b 103e 320f aa3d aeee 5f3e
00000090: 0191 683e 2676 103e 53d7 8fbd ffb9 433d
000000a0: 7a87 bb3c 2eb1 f23d 0c65 853e e5de 74bd
000000b0: 10b2 7fbe 085e d53e 62b0 23be c765 8a3c
000000c0: 968e 04bf 88c6 8c3d 78cb cbbd 40a3 9c3e
000000d0: 3d0b 0d3d fd15 013e 3afc 54be f148 563e
000000e0: ac85 b93c f8e5 afbd b63c 883c 37ce 853e
000000f0: 4b4b 4cbe 900b 6ebe ae4f bdbd a23f e03d
00000100: 04f4 56bd d4de 00be 128f 413e 874f 8d3b
00000110: 30f1 8e3e c2fb 59be 9ff6 073e 4f6c 08be
00000120: d470 d33e 0eaf 583c db98 783e 4095 afbe
00000130: 91d1 3e3e a6be 6b3e 81b5 75bd 3377 c53b
00000140: 6a68 96bd 9176 aa3e 2ff0 9c3e 36aa 373e
00000150: c17d 18be 6c86 e63d 56f2 fa3d 0f2f 5f3e
00000160: d30b 153e 922b 3d3d 3d4e 6b3d 5281 493e
00000170: de34 bcbd 3bd1 5e3d a281 b1be efaf 73bb
00000180: 3bcd 78be 8ab9 4c3e aab4 fdbd b932 4cbc
00000190: 1318 cc3b 5c74 83bc 2ce8 91bd 75ea 423e
000001a0: 1290 60bb 2b4d e73d 30b4 7e3d 959c 6d3d
000001b0: b924 e6bd 79ca a1bd 7b11 873d bb80 293e
000001c0: a309 1fbc 61da 403e 3335 ae3d 44ea 1cbe
000001d0: b8b5 29be 5e1f c5bc 829d 75bc ebff d43d
000001e0: c5e4 f7bd d9cc 54be 70af 2ebd 1a29 783e
000001f0: e6c4 e2bd c92c 0d3e 7fb7 51bd b367 44bd
00000200: ba93 d1bd cc4d 0b3e d3db 07be c137 353e
00000210: 7b3d 3abd 6796 20be 600c 293e a3a2 153b
00000220: 5aef b1bd c7f3 46bd 1672 07be 4835 833c
00000230: 6b59 b2bd fe25 05bd 4e21 9c3d 78cc 0f3e
00000240: afb6 a8bc b8fc 69be 3b0d d4bd e828 5a3e
00000250: 03f3 3ebc ed2a 9fbd f6e7 093e a8ba 4abe
00000260: 2b0f f43c 3fb9 bfbd d6fd d5bd aef0 c23e
00000270: d1ef 80bd 98f5 923d 98eb 1cbe 9aaa bebd
00000280: 99bd b63d 296b edbd 9edb 31bf 81fd bd3d
00000290: 1826 59be c0a4 863d 27f3 c3bd 415b 2cbe
000002a0: f27e 2ebe 5670 b63d 2d43 a73e 78d0 34be
000002b0: ee87 d63d 5c41 9f3e 9aad 7c3d a308 003e
000002c0: 6582 f0bd 185c 1a3e 8fa8 ee3d 4a09 93bd
000002d0: 4544 25bd 7869 85be f106 5abe ec35 b6bd
000002e0: e803 14be 692f 97bb 29cb 113d 7400 d0bc
000002f0: d9da 37be b34d 883d 93c8 1f3e 9379 04be
00000300: 517d dbbd 861a 2a3e a1d2 9e3d e121 9b3e
00000310: 53f3 4dbd 5160 ecbd d0a0 3cbd f218 2d3e
00000320: dc1f 543e df54 09be 0c25 2cbd 9b82 e7bd
00000330: 930d c33d 09fa 72be 637b fb3d 569b 73bd
00000340: 3e69 1b3e a950 cabd fe71 0d3e 350c 853e
00000350: ce9f 20bd 2449 69bd d0d4 a6be bb52 753e
00000360: 5ba0 83bd 582e 0fbe c1d4 a8be 777d 4cbe
00000370: 8fbc 973e a972 3ebe c4f5 753e cc06 373d
00000380: 3a55 453e ed88 7c3d caad 70bd 10f7 a73c
00000390: bd0a a1bc f67b 373e e946 f33c a422 4a3e
000003a0: b061 e9bd 5ec1 153e 9bfb d73d 6570 b53d
000003b0: 1e52 23bc c410 87be e1b0 43be b194 b53d
000003c0: f031 303e b5a1 55bb cf94 efbc 8ad0 cd3d
000003d0: 0ee9 e3bd a887 11bd c962 5b3d 06f0 ea3d
000003e0: 0a61 e13e 7793 fd3b 3ed3 0dbd 96a7 b2be
000003f0: 3b91 50be b8d9 483e 1e53 ccbb dd5f ed3b

bias f4 [8]
-0.07114724 -0.016042441 -0.042462327 -0.04663171 -0.07024415 -0.15490325 -0.019461896 -0.0697381
00000000: a5b5 91bd 706b 83bc faec 2dbd e400 3fbd
00000010: 2adc 8fbd f59e 1ebe 8e6e 9fbc d9d2 8ebd

weight f4 [1, 50]
-0.09340717 0.051664997 -0.098564446 0.023891633 -0.027363056 -0.015195764 -0.014227498 0.14587447
0.00025609296 -0.0320991 0.12606758 0.019389877 -0.045594573 0.061168056 -0.29891306 0.014068549
-0.047091413 0.0036607038 0.077808075 0.014439932 0.0779171 -0.043290347 0.10498465 -0.04476731
0.0029783868 0.047118977 0.053695865 -0.028830895 -0.012310915 -0.15237607 0.018789524 0.04056868
-0.05870978 -0.064915515 0.056986343 -0.030492399 -0.02421809 -0.091405764 0.08844052 -0.009660183
0.008503064 -0.08515852 -0.080389716 -0.08545571 -0.07296533 0.0106943725 0.029921448 -0.11067472
-0.14100999 0.06373283
00000000: 424c bfbd ad9e 533d 28dc c9bd 63b8 c33c
00000010: 7d28 e0bc a7f7 78bc 741a 69bc 1e60 153e
00000020: 3744 8639 597a 03bd dc17 013e 85d7 9e3c
00000030: 60c1 3abd 5b8b 7a3d 220b 99be c57f 663c
00000040: ede2 40bd 6be8 6f3b d759 9f3d 7795 6c3c
00000050: 0093 9f3d 3851 31bd 3102 d73d ed5d 37bd
00000060: 0a31 433b d4ff 403d 32f0 5b3d c52e ecbc
00000070: b8b3 49bc 7908 1cbe 7dec 993c 582b 263d
00000080: ab79 70bd 6df2 84bd 836a 693d 32cb f9bc
00000090: 0465 c6bc f232 bbbd 4e20 b53d bf45 1ebc
000000a0: 6f50 0b3c 9767 aebd 5da3 a4bd 6703 afbd
000000b0: d96e 95bd 7337 2f3c d31d f53c 6da9 e2bd
000000c0: ec64 10be 5c86 823d
