result/models/fixed_20.pth (torch, 67537 bytes, 11 tensors)

weight_ih_l0 f4 [200, 9]
00000000: 4e5c 08bc 715c 15be 8df6 f53d 66ec 41be
00000010: 8317 9ebd 86ea 09be 81c4 0abe 95c9 e83d
00000020: ffa4 ccbd 7813 4bbe 7db2 c6bd 9a08 c73d
00000030: ef84 1abe 1ada a23b 4b9b 76bd 8a01 b73d
00000040: 7b0a 6d3d 233d 32bd 033d 03be 7f5d 31bd
00000050: 36e2 113e 689d 073e 69a7 c73b fff2 b73e
00000060: 3aeb fb3d 7a27 0cbd 279d c73e 47ba 253e
00000070: 93fa df3b 49d5 a4bb 8270 f7bc 3bc4 54be
00000080: 174f 803b 0a4d 963d aca4 a13d 2327 11bf
00000090: 219d 183d 3c42 813d f995 88bb 3b53 b8bd
000000a0: 3201 7cbe d87c c1bc 6f96 c73d ed96 fdbc
000000b0: 9efe 9bbe 3e67 e1bd cd5a f7bb e073 44bd
000000c0: 7442 1bbe 3398 4abd 4b6c 2b3e 12a8 86bd
000000d0: 8ccd ae3d 745f 1c3e c23d cabd 8216 143d
000000e0: e059 09bd 5ebf 57bd 9488 82bd 7a4e 4a3d
000000f0: 997a 3ebd 5309 d43d a664 463d ff90 aabe
00000100: b520 94bd cefd 943c 3974 d5bd a302 3cbd
00000110: 3c37 07be 2341 743d c93e 923d 7e3d ebbd
00000120: 01d8 fcbd ebfe 43bd a8ef 043e 6279 5bbd
00000130: 9edb fcbd cffd fcbd 3753 aa3d 5593 e5bd
00000140: 3cd4 04be c08c a93d 9088 b3bd fdf9 1c3d
00000150: e0da 4abe 25e7 cbbd c7eb 59be 695c babd
00000160: 4986 1c3d 5328 c3bd f59b 22be 6c47 793c
00000170: 4147 e0bd 892d f7bd d6b8 20be 8d12 d43d
00000180: 3af6 a03d 070f 193c fc43 a1be a917 3dbe
00000190: d60b adbc 6914 f8bd 5bed 67be ec6d 97be
000001a0: f029 dabd a172 c8bd 16ee d6bd 2d22 43bd
000001b0: 9cb4 77bd 4998 b7bd 0e31 22be f915 51be
000001c0: 7b14 a2be ba56 31be 88af b3bd f247 3c3d
000001d0: 1c08 5cbe 246a 77be 816e e73d 95e8 aeb9
000001e0: 5093 5a3e 5ca9 863d c49b 5a3e 9300 edbd
000001f0: 4fa5 f73d 3030 d7be 1010 823c 68a7 373e
00000200: f47b d53d 449f 25bd cc87 24bd 4332 d03d
00000210: a3fa 143e 2f2f aebc 6186 b0be 8785 33be
00000220: 1374 16bd c03c c53c cdd0 6ebd e07d 92bd
00000230: 32c1 10be 13ca bcbd b1a4 84bd c4bf f63d
00000240: 1892 53be 8d46 eabd 0cca c23d 866a 76bd
00000250: 032b 09be 7f37 8fbe f122 0cbe 68fb cabd
00000260: c717 08be 62a4 d63d 7196 203e e0ec 7b3d
00000270: f8ab 203d 61b4 babd d717 333e 6aec 233e
00000280: 047b 143e bcf6 27be 7edc 6bbe 0c6c fb3c
00000290: 9919 b8bd d3b5 163e 9eda 41bd 2c8c eebd
000002a0: 09dc 06be 7678 db3d 6d06 003f 36e4 c2bd
000002b0: c281 2dbd 97e0 623d 93c1 44bd be72 5ebe
000002c0: 7ef6 223d 14b0 40bc f404 e63b 0ca1 70be
000002d0: 391b 6d3d 8203 4e3e 6663 71ba c888 3c3e
000002e0: 8708 c43d 1acc 8f3e ea60 343e 8c1a 3e3e
000002f0: d420 d43d 9886 cf3d f6af 3abb 6438 6a3e
00000300: 4151 cf3d 9cad d6bd 280b c6bc 808e 6d3e
00000310: a9d6 6c3d 4163 393d ad4b 04bd 4b74 ccbd
00000320: df35 643d 95de 7a3c 8015 d9bc 34c2 73be
00000330: 0717 1fbe 99c5 4abe 7051 a83e 9bd6 a0be
00000340: 1980 a6bd c6e2 8d3d f45c 263e 741e 263e
00000350: f9f9 82bd 985b 7e3d ada2 37bd 20d1 bfbe
00000360: d17a b1bd b6ef 0a3e b568 063e ccc5 c3bd
00000370: 2883 84be 2f13 9d3d 6327 08bd 4d7b 5c3c
00000380: c8d1 57be 52c9 ba3e f377 b63e 8c70 193e
00000390: b8a1 073e 568a c73c 08aa a53e dee2 bc3c
000003a0: 71fd 5d3e ee86 ab3d 8682 eabc fe6b febd
000003b0: 550e 2a3d 4465 bb3b aa12 2e3d 3055 75be
000003c0: 08dd 663d 74a6 f2bc b138 4fbd ca6e 2fbc
000003d0: 97d6 6d3d dd5f 823d 7903 95bd b60c ccbd
000003e0: 4b2a 003d b8c9 8f3c 4041 90bd 1765 d2be
000003f0: 62e9 3abd cfba a53d 13f6 633d b59d 77be
-0.008322788 -0.14586045 0.120099165 -0.18937835 -0.07719328 -0.1346837 -0.13551523 0.11366574
-0.09992408 -0.19831645 -0.09702013 0.097184375 -0.15089773 0.0049698474 -0.060206693 0.089358404
0.057871323 -0.043515336 -0.12816243 -0.043302055 0.14246449 0.1324364 0.006092955 0.3592758
0.12300725 -0.034217335 0.38987085 0.1618434 0.0068352907 -0.0050303084 -0.030205015 -0.20777981
0.0039156782 0.07338913 0.07892737 -0.5670034 0.037259225 0.06311461 -0.0041682688 -0.0900025
-0.24609831 -0.0236191 0.0974549 -0.030955756 -0.30467695 -0.1100602 -0.007548666 -0.04796207
-0.15162069 -0.049461555 0.16740529 -0.065750256 0.08535299 0.15270787 -0.098750606 0.036154278
-0.033532977 -0.052672736 -0.063737065 0.049391247 -0.046503637 0.10353341 0.04843583 -0.33313748
-0.07232801 0.01818743 -0.10422558 -0.045900952 -0.13204664 0.05963243 0.071408816 -0.11486338
-0.12345887 -0.04785053 0.12982047 -0.053582557 -0.12346576 -0.12353098 0.08316653 -0.11209742
-0.12971586 0.08278799 -0.087662816 0.038324345 -0.19810057 -0.09956197 -0.21281348 -0.09099657
0.038214 -0.095291756 -0.15879805 0.015214782 -0.109510906 -0.12069232 -0.1569551 0.10355101
0.07859464 0.009341962 -0.3149718 -0.18466057 -0.021123808 -0.12113268 -0.22649138 -0.2957605
-0.1065253 -0.09787489 -0.1049463 -0.047640014 -0.060474977 -0.08964593 -0.15839025 -0.20418538
-0.3165625 -0.1731824 -0.08773714 0.04596705 -0.21487468 -0.24161583 0.11300374 -0.00033361153
0.21345258 0.065752715 0.21348482 -0.11572375 0.12092077 -0.42028952 0.0158768 0.17934954
0.10424033 -0.04043509 -0.04016857 0.10165837 0.14548735 -0.021262733 -0.34477523 -0.17531405
-0.03673179 0.02407682 -0.058304597 -0.07152915 -0.14136198 -0.0921823 -0.06476725 0.12048295
-0.20661199 -0.11439238 0.09511194 -0.060160182 -0.13395314 -0.27972028 -0.13685204 -0.09911233
-0.1329032 0.10480572 0.15682389 0.0615052 0.039226502 -0.09116436 0.17489563 0.16008154
0.14500052 -0.16402715 -0.2303333 0.03069117 -0.08989257 0.14717798 -0.04732763 -0.116478294
-0.13169874 0.107163355 0.50009805 -0.09516184 -0.042360075 0.055389967 -0.04803617 -0.21723458
0.039785855 -0.01176073 0.0070196334 -0.23498935 0.05788729 0.20118526 -0.0009208232 0.18411553
0.09571939 0.28085405 0.17615095 0.18564814 0.10357824 0.101330936 -0.0028486229 0.22873074
0.1012292 -0.10482332 -0.024175242 0.2319889 0.057821903 0.04526067 -0.032298733 -0.099831186
0.055715438 0.015311857 -0.02649951 -0.23804551 -0.15536128 -0.1980194 0.32874632 -0.3141373
-0.081299014 0.06928019 0.16246396 0.16222554 -0.06395335 0.06209907 -0.044832874 -0.37464237
-0.086660035 0.13568005 0.1312588 -0.09559211 -0.25881314 0.076696746 -0.033240687 0.013457132
-0.21076119 0.3648172 0.3563839 0.1498434 0.13245285 0.024357956 0.32356286 0.023057397
0.21678711 0.08375345 -0.028626692 -0.124229416 0.041517574 0.005718859 0.04249827 -0.23958278
0.056363136 -0.029620387 -0.050591175 -0.0107075665 0.058065977 0.06365941 -0.07276053 -0.09963362
0.031290334 0.017552242 -0.070436954 -0.4109275 -0.045632727 0.080922715 0.055654597 -0.24181254

weight_hh_l0 f4 [200, 50]
00000000: 851d f63d a130 80bd c7d3 81bc 8467 51bd
00000010: a56c 223e cd34 19be c92d 1bbe cac2 8ebd
00000020: 0c42 5bbd 2472 39bd f81a a5bd 7936 10bd
00000030: 8a7c 5dbd 8346 68bc 7a49 993d 48c1 453d
00000040: 62aa b53d dc20 54bb efb7 003e 2d82 babd
00000050: 0474 69be 5881 3a3d 0a3e cdbc 369d 10be
00000060: 56cb 1a3e 9555 4bbe 22a0 803c ae62 e93d
00000070: f019 41be 8c5b b33c d8e4 ba3c 17a6 f8bd
00000080: f9d6 7b3e 48f6 263e ac72 c5bd c9c2 203e
00000090: d53d e9bd 4a86 3d3c b557 93bd 531e 243e
000000a0: 600b 053e 4243 dcbc 1b45 77bc 9e32 043d
000000b0: c36a 483e 3391 b33d bdda 543e 42d7 043e
000000c0: 001d 823d 04d5 19be bf19 15be 79be bdbd
000000d0: c1b0 0abe b6f9 c83d f262 8e3d 0f06 84bd
000000e0: 3352 6ebd 8f63 cabd 104e 88bd c203 9ebb
000000f0: f85d 8f3d 7cf9 80bd 707e 34be 21f7 4abe
00000100: 1099 01be 1178 113d a789 df3d 88db 853d
00000110: f2a6 513d 84f3 c03d 712f 2a3d 8c2b f6bd
00000120: e338 383d 36eb 943b c51a 453e 3f59 8d3d
00000130: 9f4e ccbd 73c5 68bc 57ec 0abe 55b3 1a3e
00000140: 2b80 813d 5bb7 88bb af69 8dbd 5b3a 053e
00000150: 7dc7 36be b9e2 cc3d 54a3 9a3c 671b 58bd
00000160: 4180 b23c cd6d 383e 540c 003d 11d6 90bd
00000170: 5a97 ab3d 3455 2ebc 6aa3 9a3d 2c7e d4bd
00000180: 969e 3e3d 4413 423e a3e8 123e 5134 e63d
00000190: 8f1c 5abe aa58 f03c 648f 44bc 167d 19be
000001a0: c271 763e 5241 d23b c394 2b3d af5c 043d
000001b0: 5b4f 973d bc0c 283b 3af2 913b 6699 8fbe
000001c0: 90d0 36be 47f3 883c 71e7 09be a959 593d
000001d0: 866c 333d d64d 1f3e 934e 113e 3f17 ddbc
000001e0: 81b9 a13d f27d 933d a249 553d 6f86 1dbe
000001f0: bd18 cfbc 8406 99be 66f9 c03d f282 92be
00000200: d3f7 68bd 9b58 fd3d f033 48be 23fb 0c3d
00000210: dbe9 943d b74f 8abc 9360 84be 24c3 3bbd
00000220: 9ac1 553e a1cf 4c3e 36e3 9e3d 370a 1abd
00000230: 5fe4 2e3d 9ee8 383d 1841 d3bc 2044 4bbd
00000240: ff0b 243e dfca 55be 06a3 63b9 83d6 293e
00000250: 5f09 79bd 92af b8bd 95b7 44bb 8d53 283e
00000260: 13ff cdbe 5b1b 243d d6f6 d9bd e633 233e
00000270: 75ec 253e 089f 13be 72cc 163e 16f9 983d
00000280: f923 9a3d 9409 e9bd 217b 403d 9937 373d
00000290: a602 513d f515 2bbe f120 863d eb64 663b
000002a0: 9930 153d cdf1 e9bd 969f 683e 04c0 ad3d
000002b0: b7c4 0cbe 08f3 00be 7139 c1bd c0c7 c2bd
000002c0: 2720 08bc 080b 5bbd db39 123e e55c 00be
000002d0: 580a 8abd bfd6 113e 7f55 193e c6c7 053e
000002e0: 8ce1 4fbd 1ef4 163e 7e61 bb3d d8b7 fcbc
000002f0: 9c15 e23d 4d3b 833d fb67 71be 78b3 1fbe
00000300: c732 acbd c9b7 b93d 1e30 dd3d 00c5 05be
00000310: 824f c43d 58c2 703d 3b7a ff3d dd10 4ebe
00000320: bdf1 373e 74bd 5f3e 0431 afbe 50ac 1abe
00000330: 3966 0cbe 7c48 ba3c de43 cc3c 5a33 abbe
00000340: b44f e5bc 1bfe 01bd 3db9 f63d 5545 1a3c
00000350: e57d 2c3e e754 eabc 110b 12bc e9ee d1bd
00000360: 4614 603d cc3b 4abe 8dc4 323e 4263 ee3c
00000370: 4608 9f3e ded7 9a3e 3c66 98be 5b3d 8bbe
00000380: 4ec0 1abe 4c4e 61be b064 adbe 5ca7 8a3d
00000390: 3c05 bfbd 03d9 a93d e6d4 053e 4ede fd3d
000003a0: 0f69 be3e 328a 963e 50bd 0e3e 10b6 9a3e
000003b0: 50bb 51be 9417 e63d a4a5 763d 2118 bf3e
000003c0: 606f b5bd a774 ccbe 7d7f 883e 63ad 123e
000003d0: dcfc 1c3c 586c 643d 8517 303e 2b2e 623d
000003e0: 2dfb 5d3e d7d5 8dbe 37c8 863d bdef dd3d
000003f0: bc39 04bc d0ff 713d 03d3 053e 32fd b73d
0.12017349 -0.06259275 -0.015848054 -0.05112411 0.15861757 -0.14961548 -0.15154184 -0.06970747
-0.053529784 -0.04527487 -0.080617845 -0.0352082 -0.054073848 -0.014176968 0.07484718 0.04828003
0.088703886 -0.0032368219 0.12570165 -0.0910686 -0.22798163 0.045533508 -0.025053997 -0.14122471
0.15116629 -0.19856866 0.015701357 0.11395775 -0.1885755 0.021894239 0.0228142 -0.12141054
0.24593724 0.16304886 -0.096410125 0.15699305 -0.11388747 0.011567662 -0.07194463 0.16027193
0.1299262 -0.02688754 -0.01509216 0.032274835 0.19571976 0.08767929 0.20786567 0.1297274
0.063531876 -0.15022665 -0.14560603 -0.092648454 -0.13543989 0.098132536 0.06952466 -0.06446468
-0.05818386 -0.098822705 -0.06655514 -0.0048222253 0.07000345 -0.06297585 -0.17626357 -0.19820835
-0.12656045 0.035514895 0.10914927 0.06536013 0.051184602 0.09421447 0.04154915 -0.12020025
0.044976126 0.004544641 0.19248493 0.06901788 -0.09975933 -0.014207232 -0.13566719 0.15107472
0.06323274 -0.0041722483 -0.06904923 0.13010542 -0.17849536 0.100041814 0.018876709 -0.052760508
0.021789672 0.18010636 0.031261757 -0.0707208 0.083784774 -0.010640431 0.075507 -0.10375628
0.046537958 0.18952662 0.14346556 0.11240447 -0.21299957 0.029339153 -0.011997078 -0.14989123
0.24066833 0.006416478 0.041889917 0.032314952 0.07388183 0.0025642356 0.0044539245 -0.2804672
-0.17852998 0.016717566 -0.13467194 0.053064022 0.043804668 0.15557036 0.1419013 -0.026988624
0.0789671 0.072017565 0.052072175 -0.15383314 -0.02528035 -0.29887784 0.09422569 -0.28615528
-0.05687697 0.12370416 -0.19551063 0.03441919 0.07271167 -0.016883714 -0.2585493 -0.045840397
0.20874634 0.20001079 0.07758181 -0.037607398 0.04269826 0.045143716 -0.025787875 -0.049625516
0.16020201 -0.2087817 -0.00021709138 0.16585736 -0.060799953 -0.090178624 -0.003001665 0.16438122
-0.4023367 0.04006515 -0.10642783 0.15937766 0.16203482 -0.14416134 0.14726427 0.07469384
0.075263925 -0.1137878 0.046992425 0.044730756 0.051027916 -0.16707595 0.06549252 0.0035155367
0.0364233 -0.11423073 0.22717127 0.0848389 -0.13746916 -0.12592709 -0.09434784 -0.095107555
-0.008308447 -0.053477317 0.14279883 -0.12535436 -0.06740254 0.14242075 0.1497402 0.13064489
-0.050752208 0.14741561 0.091494545 -0.030849382 0.11039278 0.06407795 -0.23574822 -0.15595806
-0.084081225 0.09068257 0.10800193 -0.13063431 0.095854774 0.05877909 0.124744855 -0.2012362
0.1796331 0.21849614 -0.34217083 -0.15104795 -0.1371087 0.022739641 0.024934705 -0.33437616
-0.027992107 -0.031736474 0.1204705 0.009415944 0.168449 -0.028604938 -0.008913771 -0.102506466
0.054706834 -0.19749373 0.1745779 0.029100064 0.31061 0.3024282 -0.297655 -0.27195248
-0.15112421 -0.22002524 -0.3386588 0.067702025 -0.0932717 0.08293345 0.13069496 0.12395917
0.37189528 0.2940231 0.13939404 0.30217028 -0.2048161 0.11234966 0.06021656 0.37323096
-0.08859134 -0.3993275 0.26659766 0.14323954 0.009581771 0.055767387 0.17196472 0.05521981
0.21677847 -0.2770221 0.06581157 0.10836742 -0.008070406 0.059081852 0.13068776 0.0898384

bias_ih_l0 f4 [200]
00000000: ebe2 213e eaee 10be 7097 313e cf3f 373c
00000010: 730c 313e 94fc afbd 1b51 e73d 01fa 96bd
00000020: d162 093e a824 593d 433f 373d 51ed be3e
00000030: c43c 143e c959 7b3d 9826 6c3d 4c20 ddbd
00000040: b203 d8bc 7976 a8bc 1208 a3bc 75a5 bc3d
00000050: 2780 93bd f680 8abd 8969 2c3e 7923 36bb
00000060: 39eb f93d 9d05 603e 91c7 213d f903 3a3e
00000070: 85e9 203e d7cb 523e 8b26 723e 093d a1bd
00000080: cf2b 02be 3eb2 d33d e313 98bb abfe 153e
00000090: 17d5 273d 66c9 d33d 689d 8fbd 9d28 abbd
000000a0: 331b 663e ee86 4cbd 6be4 94bd 9d90 3c3e
000000b0: 8f42 7f3c d913 0e3e eaec e23c afee 9d3d
000000c0: 781a 263e 6ea5 183e 4a80 aabd 9bd8 113e
000000d0: aa97 3cbd 2276 16be c051 abbe 5e8a 99bc
000000e0: 3128 0fbe abe3 04be 7b91 0d3e 8126 a2bd
000000f0: ea99 2c3e 64a5 81be 905a edbd 8520 7d3d
00000100: b4d2 11bb 6192 dbbd b274 e33d 0c6a a7bd
00000110: c53b efbd ad2f 1cbe ea00 a0bd 1e18 153e
00000120: 2336 c2bd e286 8d3c 9037 3ebe feb6 4dbe
00000130: 1663 d33a 0a27 b2bd 6412 ec3c 8782 5cbd
00000140: e0a0 11be 877b d63c 681f 233c 9fb1 04bd
00000150: d9ef 1dbe 67d7 2bbe 0aac 3d3c 53f4 e6bd
00000160: c5eb 203d 481c 503c 4bb5 bd3d 9adc 18be
00000170: 4482 75bd 0f01 55bd 94da 20be 4f98 03be
00000180: b6b0 a23d 3e67 f2bd 5c1f 393e 8983 233e
00000190: c37f b4bc 37a4 c23d 8c53 a13c 28a6 fd3c
000001a0: 4b77 90bd 49ff 913d aa3f 113e 7107 67bc
000001b0: ae6d 6fbb c2e5 203e fa99 aa3c 178f 92bd
000001c0: 4b0b 323d ce58 b4bd e1d8 c03d 7042 d43d
000001d0: 62ca 033d 8c4d ce3d bdeb e2bd 6f90 1e3d
000001e0: f632 183d 5528 2f3e 4d0f dbbd 3d13 00be
000001f0: c309 6f3c f9d6 86bd c095 99bd 89f2 63bd
00000200: 4dd3 1b3d 4460 1b3b da48 edbd 60e6 2ebd
00000210: 0e40 7fbd 1456 663d a077 d73d 8900 76bc
00000220: 6a7b 9d3d 9aa3 30bd c6a5 c1bd f431 243d
00000230: a8d6 aebd 1aee 96bd 82a9 adbd ba01 98bd
00000240: 7b38 3b3c fe70 2abc 0683 febc 2aab b33d
00000250: e184 acbb e4cc 83bd 9958 ab3c 06c3 31bd
00000260: 5a0c cf3d d0e5 e83d 82c7 273e f395 38bd
00000270: 7806 15be 1c48 afbd 3921 863d 4970 f03c
00000280: c4d3 98bd 9477 793e c5fb 0c3e 78d1 163d
00000290: 8d47 803d 0e4d d8bd 3ce7 40bd 3994 253e
000002a0: c630 323e e12e 7abb 0d0e 353d ef62 4ebd
000002b0: 5f1c b9bc 4555 dc3d 7fcc 853e 4e83 773e
000002c0: 7025 113e 324f c03d 6db5 563e 3b3e 063e
000002d0: c394 bf3c 18ff 2f3d 9554 3dbc 3e00 77bd
000002e0: 9e8f 1d3e f198 d03c 577e e0bd a943 893d
000002f0: c463 de3d cf50 333e da49 8d3d 8b50 503d
00000300: cccb 54bd f4e4 efbc c28d ed3c 5e9b 5ebd
00000310: 868d fdbc fd44 b3bc 888e 09bd 03e3 25bc
0.15809219 -0.14153638 0.17342925 0.011184647 0.17289905 -0.08593097 0.112947665 -0.07371903
0.13416602 0.053013474 0.044738065 0.37290433 0.14476305 0.061364923 0.057653993 -0.10797176
-0.02636895 -0.020564305 -0.01990131 0.09211246 -0.072021775 -0.067628786 0.16837133 -0.002779214
0.12203068 0.21877141 0.039496962 0.18165578 0.1571408 0.20585571 0.23647515 -0.0787297
-0.12712024 0.103367314 -0.0046410426 0.1464793 0.040974703 0.10341148 -0.07012445 -0.08357356
0.22471313 -0.049933366 -0.0727013 0.1841454 0.015579834 0.13874759 0.02770086 0.07711541
0.16221035 0.14906856 -0.083252504 0.14242785 -0.046043076 -0.14693502 -0.33460808 -0.018742736
-0.13980176 -0.12977473 0.13825028 -0.079175 0.16855589 -0.25321496 -0.11589539 0.06179859
-0.0022250833 -0.10721279 0.11106242 -0.08174524 -0.11681322 -0.15252562 -0.07812674 0.14559981
-0.09482982 0.017276231 -0.18575883 -0.20089337 0.0016127552 -0.08698852 0.028817363 -0.053835418
-0.14221525 0.02618195 0.009956218 -0.032395955 -0.15423526 -0.16781388 0.011576662 -0.1127707
0.039287347 0.012702055 0.092630945 -0.14927903 -0.059938684 -0.052002963 -0.15708381 -0.1285107
0.07943861 -0.11836098 0.18078369 0.15968145 -0.022033578 0.09503978 0.019693159 0.030963019
-0.07054003 0.0712877 0.14184442 -0.014100895 -0.003653388 0.15712646 0.020825375 -0.071561985
0.0434678 -0.08806001 0.09416366 0.103642344 0.03217543 0.10073385 -0.1108012 0.03871196
0.037157975 0.17105229 -0.10696278 -0.12507339 0.01458973 -0.065839715 -0.07499266 -0.05565122
0.03804331 0.0023708502 -0.11586161 -0.04270017 -0.062316947 0.056234434 0.105208635 -0.015014776
0.07689555 -0.043124773 -0.09455447 0.0400867 -0.08537036 -0.07369633 -0.08479597 -0.07422204
0.01142704 -0.010402916 -0.031068336 0.08772881 -0.005264864 -0.06435564 0.02091627 -0.04339888
0.10109778 0.11371958 0.163847 -0.045064878 -0.14553249 -0.08558676 0.065493055 0.029350417
-0.07462266 0.24362022 0.13767917 0.03682086 0.06263647 -0.10561572 -0.047095522 0.16169824
0.17401418 -0.0038174915 0.044202853 -0.05038732 -0.022596536 0.10758451 0.2613258 0.24171183
0.14174438 0.09390105 0.20967646 0.13109677 0.023386365 0.042967886 -0.01155581 -0.060302965
0.15386817 0.025463553 -0.109615974 0.06702358 0.108588725 0.17511295 0.06898852 0.05085806
-0.05195217 -0.029283978 0.02899826 -0.05434739 -0.030951273 -0.021883482 -0.033583194 -0.010124925

bias_hh_l0 f4 [200]
00000000: 0095 82bd a034 093d 5b28 be3b e98a 29bc
00000010: 4b63 003e 6f4c f1bc 0eaa d03d d91d 96bd
00000020: e9ce c2bd f5db c03d c341 153e 0540 993e
00000030: 1241 40bd cd2a 863d 2c51 183e 8d3f 813d
00000040: 72a3 71bc ea4d c73d a427 d13d d1bc e1bc
00000050: 21e3 063d aca0 edbc dd3c 603a 2f22 9bbd
00000060: 8caf 403e bb23 3e3e 4f0d d5bd 5331 cb3d
00000070: f08a 103e d5fa a23e 1a74 e23d 55b7 ae3c
00000080: ffbe 34bd be2c 0abd b7f8 8b3e e881 693d
00000090: 54a8 0d3e 9c60 9b3d 28e1 863d 5146 8cbd
000000a0: e487 5c3e 0682 e23d 9a63 52be d413 c3bc
000000b0: 4168 f13d eb58 d03d 1fc0 3b3d 2138 2c3e
000000c0: 754c f33d 9f19 3abd 34fb 36be c77c 2dbd
000000d0: f7f2 f63a 69bb 89be c90d 93be d36d 41bd
000000e0: 5306 23bd 66f3 c83d c40c 90bd 4fab 2fbe
000000f0: e2b1 3ebd 391e a4be 4cf4 4dbe 4609 de3d
00000100: f79a debc b2f7 db3d 9dd1 13bd db19 3fbe
00000110: 9867 3fbe 28e1 1fbd e55e 17be 26bb 673b
00000120: 993b 04bd 4c91 41be 95c3 03be 27f2 74be
00000130: cbda b53d 5931 05bc a305 be3d fe47 bcbd
00000140: ccb7 943b 5b65 0c3e aad3 49be 3091 053e
00000150: 5fe6 41bd fdb9 edbd 8846 0c3e 4e0a 07be
00000160: db7a e83d 1b65 31be 3133 1dbe 56aa 28bd
00000170: 694c dbbd 7b59 353d a6a3 8abd 02b8 bfbc
00000180: 919d 2fbd 05a8 21bd b188 6a3e 92b8 fe3d
00000190: 6a93 c23d 0398 613c 5e72 08bc ea6a f3bc
000001a0: 29a4 8c3d 836b eb3c c3c0 103e f821 e73b
000001b0: a009 f83d c4b0 2dbd ca15 03be 0d24 15bd
000001c0: e74c 753d 930a c73d 871c 92bd 3e46 7abc
000001d0: 96c1 a9bc 30c1 023e a88c c1bd e654 0fbe
000001e0: 63f2 d23d ace5 313e 072f 023d d511 013c
000001f0: 473e 2fbe 39dc 4ebe 40bd 36bd a99e 81bd
00000200: 877c c33c aa69 ca3d 7119 09be e889 adbd
00000210: dac0 bcbd fd59 c23d df5a abbd 49dc 2d3d
00000220: a1a6 a2bd 767f 6f3c 54dc e3bc e275 913d
00000230: 1610 1cbe cc73 1cbd 5d99 a73d 39b5 d4bd
00000240: 2644 82bb 3679 e2bc 0607 233d 10ad d73d
00000250: a776 123e cd18 e43d 33b9 80bd ac88 3c3c
00000260: c1da b33c ba82 5e3e 0665 2c3e 5f71 1cbe
00000270: 09ce 313d c90a 5ebd c35c adbd 5806 8d3c
00000280: 9502 f7bc 4b73 923e 5876 383e 4f47 de3c
00000290: b0f2 2d3e 8a31 d53d 2074 463e 5a0c df3d
000002a0: 3635 bf3c 9493 0bbd 9736 1f3d 901b b9bc
000002b0: 8b02 793e 0cde f73c 6c74 6f3e 3eef 5a3e
000002c0: cfcc 7d3d 91ae c0bd e1ab d93d c5a7 9a3d
000002d0: c52e 793d 2110 09be d676 fabb 379f f1bc
000002e0: f0ad 653e a847 5d3b 55e7 0dbe 19b9 783e
000002f0: c9f0 1f3e 97ef 523d f69e 9d3d 2b31 213d
00000300: a449 343d ce8b fc3c 99f2 683d 96bc df3d
00000310: d15d 873d 40d0 5a3d c8dd d43d d628 41bd
-0.06376076 0.033497453 0.0058031506 -0.01034806 0.12537877 -0.029455392 0.10188685 -0.07329912
-0.09512121 0.094169535 0.14575867 0.29931656 -0.046937056 0.06551132 0.14874715 0.063109495
-0.014748441 0.09731658 0.10212639 -0.027555855 0.03293145 -0.029007278 0.0008553991 -0.075748794
0.18816966 0.18568318 -0.10402929 0.09921517 0.141155 0.31831995 0.11057301 0.021327654
-0.04412746 -0.033734076 0.27338192 0.057008654 0.13833743 0.07586786 0.06585914 -0.06849349
0.21536213 0.11059956 -0.20545807 -0.023813166 0.11787463 0.1017321 0.045837518 0.16818286
0.118798174 -0.04543459 -0.17869264 -0.042355325 0.001884072 -0.26900795 -0.28721455 -0.047223877
-0.039800953 0.098120496 -0.07033685 -0.17155193 -0.04655636 -0.32054308 -0.20112723 0.108416125
-0.027173502 0.107406035 -0.036088575 -0.18662207 -0.18691862 -0.039033085 -0.14782293 0.0035359352
-0.0322834 -0.18903083 -0.12867577 -0.23920499 0.08879622 -0.008129441 0.09278419 -0.09193419
0.004538512 0.13710539 -0.1970965 0.13043666 -0.04733884 -0.1160774 0.1369878 -0.13187525
0.11351558 -0.17323725 -0.15351559 -0.04117807 -0.107079335 0.04427479 -0.06769495 -0.023403171
-0.042874876 -0.039466877 0.22903706 0.12437548 0.09500773 0.013769153 -0.0083280485 -0.029714067
0.068672486 0.028737789 0.14136033 0.00705361 0.12111211 -0.042404905 -0.1280128 -0.036411334
0.059887793 0.09718814 -0.071343474 -0.015275536 -0.020722192 0.12769008 -0.09450656 -0.1399723
0.10300138 0.17372769 0.03178313 0.007877787 -0.171136 -0.20201196 -0.044614077 -0.0632909
0.02386309 0.09883435 -0.13388611 -0.08473569 -0.09216471 0.0948982 -0.08366942 0.04244641
-0.07941938 0.014617791 -0.027815022 0.071025625 -0.15240511 -0.03819637 0.081835486 -0.10386128
-0.003975409 -0.027645689 0.03980162 0.10531056 0.14303075 0.11137543 -0.06285324 0.0115071945
0.021954896 0.21729556 0.16835412 -0.15277623 0.04340938 -0.054209504 -0.084649585 0.017214939
-0.030152598 0.28603587 0.18013895 0.027133612 0.16987109 0.104098395 0.19380236 0.10891028
0.023340803 -0.03407629 0.03887042 -0.02259615 0.24317376 0.030257247 0.23384255 0.21380326
0.0619629 -0.09408296 0.106284864 0.07551531 0.06083562 -0.13385059 -0.007643561 -0.029494865
0.22429633 0.0033764634 -0.13857777 0.24289359 0.15619196 0.051498022 0.07696335 0.03935353
0.04401554 0.030828383 0.056871984 0.10924642 0.06609691 0.05342126 0.10393864 -0.047158085

weight f4 [50, 50]
00000000: 2c21 9abd 076b d03c 7d2d 25bd 8b99 793e
00000010: 8d94 d1bd 45aa 053e b3b9 28be 607c c6bd
00000020: 78da 153e 8264 03be cec6 04be 7398 69bd
00000030: 5a2e 80bb 6045 8abd 879d 9a3d b6d2 4ebd
00000040: e82f bf3b 1fa8 febc 0c7b 1e3e f246 c23d
00000050: fbf7 213e 6e3e 963d 67bc 16be 7089 e63d
00000060: eaa9 913c 5da2 243e 874d 25be 12bf 483c
00000070: 866f d33d cb67 75be 959b 02bd 8f58 9bbd
00000080: d752 aabd 9df1 2b3d 324e 803e 346b 823d
00000090: c235 38bd ec1e 26be 32b1 0abd 7af5 2abe
000000a0: 7f66 b03d 637c 39bd c038 3dbd 0ed8 f53d
000000b0: 4be5 19be 7a82 31be 18e9 cbbc bdc3 033d
000000c0: 4559 2e3e afac 8b3d e610 31be 6478 3c3e
000000d0: 0c3d 22bd c1a4 91be 0eca 183d cbea 703d
000000e0: 793e ddbc c82e 73bd 8c9e cfbc 22e8 96bd
000000f0: e399 913d 4128 5abe cfc4 dc3b 5125 d8bb
00000100: b704 62be 3bba f33c c003 1fbc c926 a13a
00000110: 668b 58bc 3927 553e 8125 81be bc69 29be
00000120: 5474 6cbd d6ff 293c 30bf a03d a78d 86bd
00000130: d17b b6bd e1e8 d5bd 1d78 5fbe 25ca e33d
00000140: 72ee 85bd a71d 6c3b 56ce 643e 751a 373e
00000150: 6221 14be ac66 473d 4155 6c3d 0319 6c3d
00000160: d83f e93d dccf 173e 6e7d b93c fe9d 6dbe
00000170: 06c8 283c e0dd 5b3e 9ea0 0b3e 0430 803d
00000180: 5b43 433e 99c1 643e 8a62 b8bd def3 9abd
00000190: 6347 b73d cf11 d3bd 6d9a 94be 4c91 4abd
000001a0: 571e 2a3d 45ae 963d 8e97 903d 6b2d 08be
000001b0: 5a5a 96bd 55d0 ee3d 0c5e a5bd cbcd 4c3e
000001c0: d581 213e f33c 1abe 720a db3d 1846 a0bd
000001d0: 3dd5 433e a378 b8bd 0176 a63e 0512 78b9
000001e0: 649d 9e3e 76a3 3f3e 8baa 37be 853d 55be
000001f0: 38db 143d d4d8 f43e 24ba 9a3c d68c 82bd
00000200: d9e4 123e 9431 a5be b69e 1b3d 2968 11be
00000210: 97e8 a43d 975a 1cbe e0c1 0cbd e226 c43c
00000220: e490 9c3d e43f 1e3e 1f6f 193a e210 923c
00000230: c18e b0bd a2de 8b3e 555b 16bd 6dfe 9abe
00000240: fa4d 40bd cea7 ebbd c352 b03c a30e 2ebe
00000250: 0d9a 3ebe 795e d1bd 95f4 823d 792d de3d
00000260: 7a39 33be db64 d63d a509 36be 210c 763d
00000270: fd6b c03c 763b 04be 0ddf f83d bb3d 893b
00000280: d0f8 0e3e cdbd 943b 8c83 543e fc7b 3c3d
00000290: 119d fbbb 3f0d 1d3d d14a 20bd 90d6 34be
000002a0: 2e0b d73d 5dc4 1b3e 98d8 0c3e 8a48 9a3d
000002b0: 9cf9 cd3d 83a8 e23d 74fc 39be 084e 543d
000002c0: 282e e3bd 7117 333e 4e8f ee3c 565a e4bb
000002d0: 8c27 b33d 51e9 c93d 5d5d 11be 145d bfbd
000002e0: 7639 933e c86f ae3d 6a85 78bd 589f 27bd
000002f0: b02a 42bd 3817 76bc dd43 083e 7b8e 24be
00000300: 2135 123d 992e 123e 18fb ffbc 9fb3 7abc
00000310: 485b 1fbe 0821 14be c2e0 603d 8fc7 41bd
00000320: 6a70 8a3e 3e91 f43d c4f3 1ebd 00c6 f7bc
00000330: 9608 46be e184 263d 527f cc3d f401 fdbd
00000340: 5999 6abb 997c ffbc 36eb 88bd 5f8f 9d3e
00000350: 455a 3bbb 2bf2 213d 04cf 423e a901 46be
00000360: d6f9 373e 7286 923d fb87 5b3c e479 293d
00000370: 189b 983d 54f8 663e 731b 19bd c766 563d
00000380: 172d 23be d453 65bd 2c78 53be 890e 1b3d
00000390: 070a d4bd c0ad 38be 41f8 413e c02d 7c3d
000003a0: dfea 0ebe 578b 29be 0f72 093e 2b83 98bc
000003b0: 650d 5d3d f6f2 15bc b16f 913d 5e1e 013d
000003c0: 6bbc 9abe 5cce 1e3e 670e 39bd 4326 cb3b
000003d0: 291f 1dbe 61d9 4d3e 781d ec3c 6dea 24be
000003e0: cf3d a33d e4c6 ae3d 1180 fabc 460b debb
000003f0: 7248 e13c e2fb 613c 3c03 f83d 5ce2 ca3d
-0.07525858 0.02544166 -0.040326584 0.24374978 -0.10233412 0.13053234 -0.16477089 -0.096916914
0.1463412 -0.1283131 -0.12966463 -0.057030153 -0.0039117755 -0.067515135 0.07549577 -0.05049392
0.0058345683 -0.031086026 0.15476626 0.09486188 0.15817253 0.07336126 -0.14720307 0.11256683
0.017781217 0.16077562 -0.16142856 0.012252586 0.10324006 -0.23965375 -0.031886656 -0.075852506
-0.08316582 0.041978467 0.25059658 0.063681036 -0.044973142 -0.16222733 -0.033860393 -0.16695204
0.086132996 -0.04528464 -0.0461967 0.120041 -0.15028875 -0.17334929 -0.024891421 0.032169092
0.17026241 0.06820046 -0.17291602 0.184053 -0.039609 -0.2844601 0.03730207 0.058817666
-0.027007328 -0.059370786 -0.025344156 -0.073684946 0.0710943 -0.21304418 0.0067373286 -0.0065962453
-0.22072111 0.029751888 -0.009705484 0.0012294884 -0.013216829 0.20815744 -0.25223926 -0.1654424
-0.057728127 0.010375937 0.07848966 -0.06569987 -0.08910335 -0.10444809 -0.21823163 0.111225404
-0.065396205 0.0036028416 0.22344336 0.17881186 -0.1446586 0.0486819 0.057698492 0.05764104
0.1138913 0.14825386 0.022642817 -0.232048 0.010301596 0.21471357 0.1363549 0.06259158
0.19068663 0.22339477 -0.0900317 -0.07566045 0.08949163 -0.10306131 -0.29024068 -0.049454972
0.04153284 0.07357458 0.07060157 -0.13298576 -0.07341452 0.1166083 -0.08074579 0.20000379
0.15772183 -0.15062313 0.10695352 -0.07825869 0.19124313 -0.09007385 0.32511905 -0.00023657836
0.30979455 0.18714699 -0.1793615 -0.20824249 0.036341876 0.47821677 0.018887587 -0.063745186
0.14345111 -0.32264388 0.037993155 -0.1419989 0.080521755 -0.15268932 -0.03436458 0.023944322
0.07644823 0.1545406 0.0005853045 0.017830316 -0.08620978 0.27318293 -0.036708195 -0.30272236
-0.046949364 -0.115066156 0.021523839 -0.16997771 -0.18613453 -0.10223097 0.063943066 0.10848517
-0.17502394 0.104684554 -0.17777117 0.06007016 0.023488993 -0.12913308 0.121519186 0.004188267
0.13962102 0.0045392276 0.20753306 0.04601668 -0.007678636 0.03834271 -0.03913385 -0.17659974
0.10500179 0.15211625 0.13754499 0.07533367 0.10057375 0.11067297 -0.1816271 0.05183223
-0.11092788 0.17489411 0.029121067 -0.0069687767 0.08747777 0.09858955 -0.14195772 -0.09343925
0.28754777 0.08517414 -0.06067411 -0.040923446 -0.04740399 -0.015020184 0.13307138 -0.16069977
0.0356952 0.14275588 -0.03124766 -0.015301614 -0.15562165 -0.14465725 0.054901846 -0.047309455
0.2703889 0.11941765 -0.03880669 -0.030245781 -0.19339213 0.040654067 0.09985222 -0.12353888
-0.0035796969 -0.031187342 -0.06685488 0.30773446 -0.002858774 0.03953759 0.19024283 -0.19336571
0.17966399 0.0715455 0.0133991195 0.04137601 0.07451457 0.22555667 -0.037379693 0.05234411
-0.15935169 -0.055988148 -0.2065131 0.03785566 -0.10353475 -0.1803503 0.18942358 0.061567068
-0.13956784 -0.1655706 0.13422416 -0.018617233 0.053967852 -0.009152165 0.071013816 0.0315231
-0.30221877 0.15508407 -0.04517975 0.0061996295 -0.15343918 0.20102455 0.028822646 -0.16105051
0.079707734 0.08534029 -0.030578645 -0.0067762462 0.027500365 0.013792964 0.12109992 0.09906456

bias f4 [50]
00000000: 1e15 263d cd4b a83d 8b04 99bd bbf9 ecbc
00000010: a39f 89bc 9e48 d23b 7760 cabd ce85 06bd
00000020: 06c2 03bb e820 7a3d 54fe bfbd ccf6 b23d
00000030: 96b0 29be 7cf4 cbbd 5e50 6dbd f79b 2ebb
00000040: f824 a03d 39a9 52bd bf8a 55bd 141f b33d
00000050: e31e 543d 79e0 47bd b23a 9fbc d784 2abe
00000060: cee7 b93d 046e b2bd 1d7f 003e 4539 f33c
00000070: 7616 b73d e0b7 f7bc d98d a93d 66cb 0f3d
00000080: 05a9 09be 1801 a3bd d767 41bc 1a57 d8bd
00000090: c96e c2bd fd33 913d 9058 b8bd 0154 a43d
000000a0: db71 d23d f280 e53d b351 19bd f1ed aebc
000000b0: 6348 163d 0a61 50bd 4474 1e3e 273e b13d
000000c0: e1c1 943d 8e1b 9fbd
0.040547483 0.08217583 -0.0747157 -0.028927675 -0.016799754 0.006417348 -0.098816805 -0.03284245
-0.002010466 0.061066538 -0.09374681 0.08738479 -0.16571268 -0.09958741 -0.057937972 -0.0026643255
0.07819551 -0.051430915 -0.05213427 0.08746162 0.05178727 -0.04879806 -0.019437168 -0.16652237
0.09077416 -0.0871239 0.1254849 0.029690394 0.08939831 -0.030239046 0.082790084 0.035106085
-0.13443382 -0.07959193 -0.0118045425 -0.10563488 -0.09493787 0.07089994 -0.09001267 0.08023835
0.102756225 0.11206235 -0.03743143 -0.021353694 0.036690127 -0.050873794 0.1547404 0.08654433
0.07263542 -0.077689275

weight f4 [1, 50]
00000000: 65f9 e73d 2da0 953d b223 403d a39c 0e3e
00000010: d516 67bc ee8c 2b3e f9bc 83bd 44d5 833e
00000020: cf93 ae3e 8f6f 623d c9b8 80be b710 373e
00000030: 2b4a ffbd 63a3 c5bd cfff 813e 9f21 27be
00000040: cf41 193d 8736 4b3e dc4e 673e dfe0 123e
00000050: 6c2d 293e d1b0 1ebe 99e9 143d f60a 71bd
00000060: f574 973e df48 df3d a782 27be 9ef7 703c
00000070: fa9a 063e 932d 98be 2f40 863e 5105 bb3e
00000080: 460b 07bd 8ac8 053e 7621 623d 4e86 103d
00000090: 868e a43d a66f 1d3e 2aca 58be 5ad2 47bd
000000a0: 4afb 67bd 9bd5 653d 35b0 d73d e632 3ebe
000000b0: 3bb2 143e e5e0 8ebe 4c4b 1c3e 3211 803e
000000c0: 3482 19be b333 e73d
0.11326865 0.07305942 0.04690904 0.1392694 -0.014104565 0.16752979 -0.06432528 0.25748646
0.34097144 0.05528217 -0.2514098 0.1787747 -0.12465318 -0.09650304 0.2539048 -0.16321419
0.037416276 0.1984502 0.22588676 0.14343594 0.16521233 -0.15497138 0.03635559 -0.058848344
0.2958142 0.10902571 -0.16358434 0.014707474 0.13145056 -0.2972227 0.26220843 0.36527494
-0.032969736 0.13064781 0.055207692 0.035284333 0.08034997 0.15374622 -0.2117087 -0.04878459
-0.056636132 0.056111913 0.10531656 -0.18574104 0.14521115 -0.27905956 0.15263098 0.2501312
-0.14991075 0.11289158

weight f4 [1, 50]
00000000: cb53 6fbd 508b 013e 2b28 0e3e cc0d b1bd
00000010: 8db2 043e bddc dc3e b87e 8dbd 07cf 953e
00000020: 42db 043e 4121 2a3e 90b5 afbe 7f0d a03d
00000030: e71c e5be 3f6a 24be 4125 f93e ddf4 68be
00000040: 9c2d 123e ff80 8b3e 9695 24bc 5149 443e
00000050: 4796 73bd 5be2 d5bd d578 b8be 56ca 88be
00000060: be0a 8e3e ff94 9dbe c3b0 d6be 48a2 88be
00000070: af6b 4d3e 1650 94be 2a52 583e 7540 433e
00000080: 7d1d d1be d71d 273c 4570 86be 4808 1bbe
00000090: d08a f93e 356b 873e 5991 abbd 04ed ec3d
000000a0: 1f36 8d3d bbbc f13c 6679 4e3e 232b 91bd
000000b0: 15b0 143e d051 6bbe f29b 1c3e fe99 b93e
000000c0: 70b9 23be 27e7 5a3d
-0.05842952 0.126508 0.1388251 -0.0864521 0.12958737 0.4313716 -0.06908935 0.29259512
0.12974265 0.16614248 -0.3431821 0.07815074 -0.44748613 -0.16056155 0.48661235 -0.22749658
0.14275211 0.27246854 -0.01004543 0.19168593 -0.059469488 -0.104435645 -0.36029688 -0.2671687
0.2774257 -0.30777737 -0.41931733 -0.2668631 0.2006061 -0.2896735 0.21125093 0.19067557
-0.4084281 0.0101999855 -0.2625753 -0.15139878 0.48738718 0.2644898 -0.08377332 0.11568645
0.068950884 0.029508939 0.20163497 -0.07088306 0.14520295 -0.22980428 0.15293863 0.362503
-0.15988708 0.0534431

weight f4 [8, 50]
00000000: a331 943e 556c 92be 6566 d03e 0f5d 663e
00000010: 8563 d53d 5f34 43bd 9b05 8d3d fd91 3cbe
00000020: e9d0 8e3c f06a 63bd af0f ad3d b5bd d5bd
00000030: a964 acbd 9337 93bd 3b72 043d 5034 6e3d
00000040: a6cb bebd 0491 e4bd c2fb 943e 019b de3d
00000050: c027 fc3c 5838 eb3d 8b77 3dbe e543 883e
00000060: 4ffb 17bb 96c9 3ebe 2163 43bd 6948 843e
00000070: 2d7a e53d 20b7 88bc c133 443e 6269 20be
00000080: 33a0 9d3d 0334 6e3e 4f23 1d3d 3238 803e
00000090: eae3 ba3c 2955 5abe 84c7 ae3e af13 2f3e
000000a0: 77ba abbe e658 72bd 2970 3b3e 616b e8bd
000000b0: 4b3b d8bd 139c f23c 763c 5abe 267a 0e3e
000000c0: ac40 8f3e 43a1 dd3e 0b76 5dbe 3063 c33d
000000d0: d2bf 1b3e b6a1 5abe 16ff 433e a0bb 0f3d
000000e0: 1fc3 f5bd edde 863e 443c 333e e009 30be
000000f0: 9d1e 13be 92af 37bd 699f 22be 0977 003e
00000100: 18c4 893d 277e 1cbe a5eb 103e b9f8 ffbd
00000110: 6355 773e 4b2e 183d 8313 cbbe e76d bb3d
00000120: d9d5 45be 5baa fd3d 0795 38be 30f0 053e
00000130: 5cd5 2a3e 0fcf ce3c bc20 cf3d fca6 2c3d
00000140: ed8c 883c de54 463e 6310 4bbe 8167 0fbe
00000150: 0b21 bbbd c334 4c3d 5616 40be bd3f e8bd
00000160: e743 70be ba9a a4bc 9730 14be fff6 233e
00000170: b06f 663e 2baa afbd cc5f 28be e1fe 5cbe
00000180: 35c9 8fbe 99d8 023d c8a8 ff3d ea87 423e
00000190: a5a7 363e cb9d a83d 6533 90bd bde6 9b3b
000001a0: 86fc e63c 893e 223e 4b28 69bd 9af7 2fbe
000001b0: b55c eebb be12 1f3e c7af 28bd 01af b43d
000001c0: f985 f5bd 9a9c 22be 3ce1 333e 622f 30be
000001d0: c39b d43d afbe 403e 29b8 2f3b 9cd5 f63d
000001e0: 84d7 bdbd a159 47bd d0aa 10bd b441 c93d
000001f0: a411 a33d f0ee 3dbd 5ea7 06be f4c7 cfbc
00000200: 365a 193e d81d e8bd ac7b 193d 8e74 0bbd
00000210: 6911 bbbd 87ce 5f3d 85d2 02be 1ae0 f73d
00000220: d72b 153e 3b2d 163d df14 13be 29e5 1c3e
00000230: 784f 8f3d 6770 753d 0a69 00bd bb3c 4dbd
00000240: 09e8 f03d 8fe9 193e 3011 f93d 7b9c 2fbd
00000250: d33d 94bd 7a27 c9bd df2f 9f3b b83a a3bb
00000260: 8f5f adbd 90c6 39be 1f13 febd f678 80bc
00000270: b6d1 bf3d 8808 433d 3627 163e fd39 84bc
00000280: 098e fabd cd9c f7bd cc24 d1bd 4cc3 473d
00000290: 1d0d 5bbd 8351 1c3e b5b3 973d f4d2 1bbe
000002a0: b631 9fbc 33bd a53d 5ecf c13d 5399 0abe
000002b0: 7e9a 363d e2df 32bd 4066 1e3e 7db1 83bc
000002c0: 4446 48bd 4feb 44be 438f edbd 8544 9bbd
000002d0: 0064 d0bd a2dd a13d 6629 093e e4ec 81be
000002e0: 4e9a 00bd 27ac d4bd e319 84bd b3b3 7c3d
000002f0: c0c8 553c 34b8 1cbe 86a3 a83d fce4 443e
00000300: 42ba 863c 5f1e 6d3d c9c8 ab3d cb8f 46bd
00000310: 9689 983d 6271 913d 8927 a4bd be64 10be
00000320: d548 313d e69c 5ebd 71c1 ce3e 964f 83be
00000330: e420 0abb 992e e7bd 7bf2 153e 5b86 8c3e
00000340: 3f2e 8b3e b42a e7bc 2927 ba3d 1d2d 61bd
00000350: 5446 3bbd 020c 26be ee78 41be 3639 d13d
00000360: bd55 053d 424a 61bd 3829 fcbd af68 0d3e
00000370: 03ef 973e 568f a7be 0f7d 353e 3c55 fa3d
00000380: f719 a63d ab6a 813c fdd0 8e3d b816 47be
00000390: 208c 4d3e 34b4 1d3e de9c 0a3d 30a2 733d
000003a0: ce4d c33d 425c 20be 792d 6f3d 7215 adbd
000003b0: bac1 d03d a172 523e 5c8d 39bd a084 2b3d
000003c0: 5aff 893e c8a2 6dbc 4e99 2c3e e0d9 393e
000003d0: 1581 51be 9d42 493e ef3f 2abe 1bca 30bd
000003e0: 0091 a5bd 08f1 ff3c 2c47 9a3c 4658 283e
000003f0: 2649 693e baaa 143e 8e3d 6abe 6b10 803e
0.2894412 -0.28598276 0.4070312 0.22496437 0.104193725 -0.047657367 0.06885835 -0.18415065
0.0174336 -0.055521905 0.08450257 -0.10436574 -0.08417637 -0.07188334 0.0323355 0.058155358
-0.093161866 -0.11160472 0.29098326 0.108694084 0.030780673 0.11485356 -0.18502633 0.266143
-0.0023190563 -0.18631586 -0.04770196 0.25836495 0.11204944 -0.016688883 0.19160368 -0.156652
0.07696571 0.23262028 0.03836375 0.25042874 0.022813756 -0.21321549 0.34136593 0.17097352
-0.335407 -0.05916681 0.18304504 -0.11348606 -0.10558184 0.029615438 -0.21312127 0.13913783
0.27979028 0.43287095 -0.21627061 0.09540403 0.15209892 -0.2135075 0.19140276 0.035091043
-0.12000107 0.26341954 0.17503458 -0.17191267 -0.14367147 -0.04484517 -0.15881123 0.12545408
0.06726855 -0.15282498 0.14152391 -0.12498612 0.24153666 0.037153523 -0.39663324 0.091518216
-0.19319858 0.12386008 -0.180256 0.13079906 0.16682953 0.025245218 0.101136655 0.042151436
0.016668761 0.19368312 -0.1983047 -0.14004327 -0.09137162 0.049855005 -0.1875852 -0.11340282
-0.23463403 -0.02009331 -0.1447166 0.1601219 0.22503543 -0.08577379 -0.16442794 -0.21581604
-0.28083196 0.031944845 0.12483364 0.1899716 0.17837389 0.082332216 -0.07041053 0.0047577308
0.028196584 0.15844168 -0.056923192 -0.17184296 -0.007274235 0.15534493 -0.04118326 0.08822442
-0.11988444 -0.15880051 0.17566389 -0.17205575 0.10381272 0.1882274 0.002681265 0.120524615
-0.09269622 -0.04866946 -0.03531915 0.09826985 0.07962349 -0.046370447 -0.13149783 -0.0253639
0.14975819 -0.11333817 0.03747146 -0.034046702 -0.0913418 0.05464032 -0.1277562 0.12103291
0.14567505 0.03666423 -0.1436343 0.15321793 0.06997579 0.05992165 -0.031350173 -0.050106745
0.11763007 0.15030502 0.121614814 -0.04287384 -0.072383545 -0.09821983 0.0048580016 -0.004981365
-0.08465492 -0.18142152 -0.12405991 -0.015682679 0.09366171 0.047615558 0.14663395 -0.016140932
-0.12234122 -0.12090454 -0.102120966 0.048770234 -0.053479303 0.15265469 0.07407323 -0.15217191
-0.019432884 0.080927275 0.0946338 -0.13535051 0.04458093 -0.043670543 0.15468693 -0.016075844
-0.048895136 -0.19230388 -0.11599591 -0.075814284 -0.101753235 0.07903601 0.13394699 -0.25376046
-0.031397156 -0.10384398 -0.0645025 0.061694812 0.013048351 -0.15304643 0.082343146 0.19227976
0.016446237 0.057890292 0.08387906 -0.048476975 0.074481174 0.07101704 -0.08015353 -0.1410093
0.04328235 -0.05434885 0.4038196 -0.25646657 -0.0021076733 -0.11288185 0.1464328 0.27446255
0.2718372 -0.028218605 0.090895005 -0.054974664 -0.045721367 -0.16215518 -0.18893787 0.1021599
0.03255247 -0.05500246 -0.12312549 0.13809465 0.2967454 -0.32726544 0.17723487 0.122232884
0.08110421 0.015797934 0.06973455 -0.1944226 0.20072985 0.15400773 0.033841006 0.059480846
0.095363244 -0.15660194 0.058392975 -0.08451356 0.101932004 0.2055154 -0.045300826 0.041874528
0.2695263 -0.014504142 0.16855356 0.18149519 -0.20459397 0.19654317 -0.16625951 -0.043161493
-0.08084297 0.031242862 0.018832766 0.16439924 0.2278181 0.14518252 -0.22875044 0.25012526

bias f4 [8]
00000000: 09cd 34bc 30a3 dabc de07 9bbc 45d0 9cbd
00000010: 16a0 97bd 029e 95bd f34b 9fbb 743a e8bc
-0.011035212 -0.026689142 -0.01892465 -0.07656912 -0.07403581 -0.07305528 -0.004861349 -0.028348185

weight f4 [1, 50]
00000000: 4a8b bebd b388 323e 085f 4bbd 00f1 e1bd
00000010: 6c57 a3bc 9078 b3bb 5147 9b3d 46ae e53d
00000020: 9916 13bc 80a0 5dbc e4c1 a43d 0592 8d3d
00000030: 85e7 4ebd 8d4e fabd f548 0d3d 8565 b3bd
00000040: 28ff 8e3c 4e63 2d3d df96 83bc 66e4 ebbc
00000050: 1025 35bd 5f3d f3bb 523d ad3c 1d2a 21be
00000060: 390d 4b3d 4552 293d 400d bd3d c822 30be
00000070: 4e10 d9bc a682 a3bd 8f4b acbd 0cd4 b23c
00000080: 0b58 19bd 6b68 16bd b001 fc3d d2fc 29be
00000090: fb03 bebd db09 c53d a0d5 1abe 0926 f7bd
000000a0: f2ec 003e e6bb e63d 3da7 47bd 879a fd3d
000000b0: 910e 233a 4592 873b 8d23 8c3d 2d00 a5bd
000000c0: 369d c7bd 5e9e b8bd
-0.09303911 0.17434959 -0.049651176 -0.11032295 -0.019939147 -0.0054770187 0.07581962 0.11214881
-0.008977556 -0.013527036 0.08044794 0.06912617 -0.050513763 -0.122220136 0.034493405 -0.08759598
0.017455652 0.042331032 -0.016063152 -0.028795432 -0.0442248 -0.0074230875 0.021147404 -0.15738721
0.049573157 0.041338224 0.09231043 -0.17200768 -0.026497032 -0.079839036 -0.08412849 0.021829627
-0.03743748 -0.036720674 0.12305009 -0.1660035 -0.09278103 0.096210204 -0.15120554 -0.120678015
0.12590387 0.112663075 -0.048743475 0.123829894 0.0006220127 0.0041373097 0.06842718 -0.08056674
-0.097467825 -0.09014581
